// -----// IR Dump After ConvertMHLOToLinalgOnTensors (iree-mhlo-to-linalg-on-tensors) //----- //
#loc = loc(unknown)
#loc1 = loc("Softmax:")
#loc2 = loc("/data0/kunwar/convolve/kunwar-experiments/.env/lib/python3.10/site-packages/keras/src/engine/training.py":561:0)
#loc3 = loc("/data0/kunwar/convolve/kunwar-experiments/.env/lib/python3.10/site-packages/keras/src/utils/traceback_utils.py":65:0)
#loc4 = loc("/data0/kunwar/convolve/kunwar-experiments/examples/resnet_tf/main.py":12:0)
#loc5 = loc("/data0/kunwar/convolve/kunwar-experiments/.env/lib/python3.10/site-packages/tensorflow/python/framework/func_graph.py":1062:0)
#loc6 = loc("/data0/kunwar/convolve/kunwar-experiments/.env/lib/python3.10/site-packages/tensorflow/python/eager/polymorphic_function/tracing_compiler.py":456:0)
#loc7 = loc("/data0/kunwar/convolve/kunwar-experiments/.env/lib/python3.10/site-packages/tensorflow/python/eager/polymorphic_function/polymorphic_function.py":613:0)
#loc8 = loc("/data0/kunwar/convolve/kunwar-experiments/.env/lib/python3.10/site-packages/tensorflow/python/framework/func_graph.py":1087:0)
#loc9 = loc("/data0/kunwar/convolve/kunwar-experiments/.env/lib/python3.10/site-packages/tensorflow/python/eager/polymorphic_function/tracing_compiler.py":305:0)
#loc10 = loc("/data0/kunwar/convolve/kunwar-experiments/.env/lib/python3.10/site-packages/tensorflow/python/eager/polymorphic_function/tracing_compiler.py":401:0)
#loc11 = loc("/data0/kunwar/convolve/kunwar-experiments/.env/lib/python3.10/site-packages/tensorflow/python/eager/polymorphic_function/tracing_compiler.py":171:0)
#loc12 = loc("Mean:")
#loc13 = loc("FusedBatchNormV3:")
#loc14 = loc("Pad:")
#loc15 = loc("ReadVariableOp:")
#loc16 = loc("Conv2D:")
#loc17 = loc("BiasAdd:")
#loc18 = loc("Relu:")
#loc20 = loc("AddV2:")
#loc21 = loc("MatMul:")
#map = affine_map<(d0, d1, d2, d3) -> (d3)>
#map1 = affine_map<(d0, d1, d2, d3) -> (d0, d1, d2, d3)>
#map2 = affine_map<(d0) -> (d0)>
#map3 = affine_map<(d0, d1, d2, d3) -> ()>
#map4 = affine_map<(d0, d1, d2, d3) -> (d0, d2, d3, d1)>
#map5 = affine_map<(d0, d1, d2, d3) -> (d0, d1)>
#map6 = affine_map<(d0, d1) -> ()>
#map7 = affine_map<(d0, d1) -> (d0, d1)>
#map8 = affine_map<(d0, d1) -> (d0)>
#map9 = affine_map<(d0, d1) -> (d0, 0)>
#loc22 = loc("resnet50/predictions/Softmax@__inference_forward_5013"(#loc2))
#loc23 = loc(callsite(#loc10 at #loc11))
#loc24 = loc("resnet50/avg_pool/Mean@__inference_forward_5013"(#loc2))
#loc25 = loc("resnet50/conv2_block3_2_bn/FusedBatchNormV3@__inference_forward_5013"(#loc2))
#loc26 = loc("resnet50/conv4_block6_2_bn/FusedBatchNormV3@__inference_forward_5013"(#loc2))
#loc27 = loc("resnet50/conv5_block3_2_bn/FusedBatchNormV3@__inference_forward_5013"(#loc2))
#loc28 = loc("resnet50/conv3_block4_2_bn/FusedBatchNormV3@__inference_forward_5013"(#loc2))
#loc29 = loc("resnet50/conv4_block6_3_bn/FusedBatchNormV3@__inference_forward_5013"(#loc2))
#loc30 = loc("resnet50/conv5_block3_3_bn/FusedBatchNormV3@__inference_forward_5013"(#loc2))
#loc31 = loc("resnet50/pool1_pad/Pad@__inference_forward_5013"(#loc2))
#loc32 = loc("resnet50/conv1_pad/Pad@__inference_forward_5013"(#loc2))
#loc33 = loc("resnet50/conv1_bn/FusedBatchNormV3/ReadVariableOp_1@__inference_forward_5013"(#loc2))
#loc34 = loc("resnet50/conv1_bn/FusedBatchNormV3/ReadVariableOp@__inference_forward_5013"(#loc2))
#loc35 = loc("resnet50/conv1_bn/ReadVariableOp_1@__inference_forward_5013"(#loc2))
#loc36 = loc("resnet50/conv1_bn/ReadVariableOp@__inference_forward_5013"(#loc2))
#loc37 = loc("resnet50/conv1_conv/BiasAdd/ReadVariableOp@__inference_forward_5013"(#loc2))
#loc39 = loc("resnet50/conv1_conv/Conv2D@__inference_forward_5013"(#loc2))
#loc40 = loc("resnet50/conv1_conv/BiasAdd@__inference_forward_5013"(#loc2))
#loc41 = loc("resnet50/conv1_bn/FusedBatchNormV3@__inference_forward_5013"(#loc2))
#loc42 = loc("resnet50/conv1_relu/Relu@__inference_forward_5013"(#loc2))
#loc44 = loc("resnet50/conv2_block1_0_bn/FusedBatchNormV3/ReadVariableOp_1@__inference_forward_5013"(#loc2))
#loc45 = loc("resnet50/conv2_block1_0_bn/FusedBatchNormV3/ReadVariableOp@__inference_forward_5013"(#loc2))
#loc46 = loc("resnet50/conv2_block1_0_bn/ReadVariableOp_1@__inference_forward_5013"(#loc2))
#loc47 = loc("resnet50/conv2_block1_0_bn/ReadVariableOp@__inference_forward_5013"(#loc2))
#loc48 = loc("resnet50/conv2_block1_0_conv/BiasAdd/ReadVariableOp@__inference_forward_5013"(#loc2))
#loc50 = loc("resnet50/conv2_block1_0_conv/Conv2D@__inference_forward_5013"(#loc2))
#loc51 = loc("resnet50/conv2_block1_0_conv/BiasAdd@__inference_forward_5013"(#loc2))
#loc52 = loc("resnet50/conv2_block1_0_bn/FusedBatchNormV3@__inference_forward_5013"(#loc2))
#loc53 = loc("resnet50/conv2_block1_1_bn/FusedBatchNormV3/ReadVariableOp_1@__inference_forward_5013"(#loc2))
#loc54 = loc("resnet50/conv2_block1_1_bn/FusedBatchNormV3/ReadVariableOp@__inference_forward_5013"(#loc2))
#loc55 = loc("resnet50/conv2_block1_1_bn/ReadVariableOp_1@__inference_forward_5013"(#loc2))
#loc56 = loc("resnet50/conv2_block1_1_bn/ReadVariableOp@__inference_forward_5013"(#loc2))
#loc57 = loc("resnet50/conv2_block1_1_conv/BiasAdd/ReadVariableOp@__inference_forward_5013"(#loc2))
#loc59 = loc("resnet50/conv2_block1_1_conv/Conv2D@__inference_forward_5013"(#loc2))
#loc60 = loc("resnet50/conv2_block1_1_conv/BiasAdd@__inference_forward_5013"(#loc2))
#loc61 = loc("resnet50/conv2_block1_1_bn/FusedBatchNormV3@__inference_forward_5013"(#loc2))
#loc62 = loc("resnet50/conv2_block1_1_relu/Relu@__inference_forward_5013"(#loc2))
#loc63 = loc("resnet50/conv2_block1_2_bn/FusedBatchNormV3/ReadVariableOp_1@__inference_forward_5013"(#loc2))
#loc64 = loc("resnet50/conv2_block1_2_bn/FusedBatchNormV3/ReadVariableOp@__inference_forward_5013"(#loc2))
#loc65 = loc("resnet50/conv2_block1_2_bn/ReadVariableOp_1@__inference_forward_5013"(#loc2))
#loc66 = loc("resnet50/conv2_block1_2_bn/ReadVariableOp@__inference_forward_5013"(#loc2))
#loc67 = loc("resnet50/conv2_block1_2_conv/BiasAdd/ReadVariableOp@__inference_forward_5013"(#loc2))
#loc69 = loc("resnet50/conv2_block1_2_conv/Conv2D@__inference_forward_5013"(#loc2))
#loc70 = loc("resnet50/conv2_block1_2_conv/BiasAdd@__inference_forward_5013"(#loc2))
#loc71 = loc("resnet50/conv2_block1_2_bn/FusedBatchNormV3@__inference_forward_5013"(#loc2))
#loc72 = loc("resnet50/conv2_block1_2_relu/Relu@__inference_forward_5013"(#loc2))
#loc73 = loc("resnet50/conv2_block1_3_bn/FusedBatchNormV3/ReadVariableOp_1@__inference_forward_5013"(#loc2))
#loc74 = loc("resnet50/conv2_block1_3_bn/FusedBatchNormV3/ReadVariableOp@__inference_forward_5013"(#loc2))
#loc75 = loc("resnet50/conv2_block1_3_bn/ReadVariableOp_1@__inference_forward_5013"(#loc2))
#loc76 = loc("resnet50/conv2_block1_3_bn/ReadVariableOp@__inference_forward_5013"(#loc2))
#loc77 = loc("resnet50/conv2_block1_3_conv/BiasAdd/ReadVariableOp@__inference_forward_5013"(#loc2))
#loc79 = loc("resnet50/conv2_block1_3_conv/Conv2D@__inference_forward_5013"(#loc2))
#loc80 = loc("resnet50/conv2_block1_3_conv/BiasAdd@__inference_forward_5013"(#loc2))
#loc81 = loc("resnet50/conv2_block1_3_bn/FusedBatchNormV3@__inference_forward_5013"(#loc2))
#loc82 = loc("resnet50/conv2_block1_add/add@__inference_forward_5013"(#loc2))
#loc83 = loc("resnet50/conv2_block1_out/Relu@__inference_forward_5013"(#loc2))
#loc84 = loc("resnet50/conv2_block2_1_bn/FusedBatchNormV3/ReadVariableOp_1@__inference_forward_5013"(#loc2))
#loc85 = loc("resnet50/conv2_block2_1_bn/FusedBatchNormV3/ReadVariableOp@__inference_forward_5013"(#loc2))
#loc86 = loc("resnet50/conv2_block2_1_bn/ReadVariableOp_1@__inference_forward_5013"(#loc2))
#loc87 = loc("resnet50/conv2_block2_1_bn/ReadVariableOp@__inference_forward_5013"(#loc2))
#loc88 = loc("resnet50/conv2_block2_1_conv/BiasAdd/ReadVariableOp@__inference_forward_5013"(#loc2))
#loc90 = loc("resnet50/conv2_block2_1_conv/Conv2D@__inference_forward_5013"(#loc2))
#loc91 = loc("resnet50/conv2_block2_1_conv/BiasAdd@__inference_forward_5013"(#loc2))
#loc92 = loc("resnet50/conv2_block2_1_bn/FusedBatchNormV3@__inference_forward_5013"(#loc2))
#loc93 = loc("resnet50/conv2_block2_1_relu/Relu@__inference_forward_5013"(#loc2))
#loc94 = loc("resnet50/conv2_block2_2_bn/FusedBatchNormV3/ReadVariableOp_1@__inference_forward_5013"(#loc2))
#loc95 = loc("resnet50/conv2_block2_2_bn/FusedBatchNormV3/ReadVariableOp@__inference_forward_5013"(#loc2))
#loc96 = loc("resnet50/conv2_block2_2_bn/ReadVariableOp_1@__inference_forward_5013"(#loc2))
#loc97 = loc("resnet50/conv2_block2_2_bn/ReadVariableOp@__inference_forward_5013"(#loc2))
#loc98 = loc("resnet50/conv2_block2_2_conv/BiasAdd/ReadVariableOp@__inference_forward_5013"(#loc2))
#loc100 = loc("resnet50/conv2_block2_2_conv/Conv2D@__inference_forward_5013"(#loc2))
#loc101 = loc("resnet50/conv2_block2_2_conv/BiasAdd@__inference_forward_5013"(#loc2))
#loc102 = loc("resnet50/conv2_block2_2_bn/FusedBatchNormV3@__inference_forward_5013"(#loc2))
#loc103 = loc("resnet50/conv2_block2_2_relu/Relu@__inference_forward_5013"(#loc2))
#loc104 = loc("resnet50/conv2_block2_3_bn/FusedBatchNormV3/ReadVariableOp_1@__inference_forward_5013"(#loc2))
#loc105 = loc("resnet50/conv2_block2_3_bn/FusedBatchNormV3/ReadVariableOp@__inference_forward_5013"(#loc2))
#loc106 = loc("resnet50/conv2_block2_3_bn/ReadVariableOp_1@__inference_forward_5013"(#loc2))
#loc107 = loc("resnet50/conv2_block2_3_bn/ReadVariableOp@__inference_forward_5013"(#loc2))
#loc108 = loc("resnet50/conv2_block2_3_conv/BiasAdd/ReadVariableOp@__inference_forward_5013"(#loc2))
#loc110 = loc("resnet50/conv2_block2_3_conv/Conv2D@__inference_forward_5013"(#loc2))
#loc111 = loc("resnet50/conv2_block2_3_conv/BiasAdd@__inference_forward_5013"(#loc2))
#loc112 = loc("resnet50/conv2_block2_3_bn/FusedBatchNormV3@__inference_forward_5013"(#loc2))
#loc113 = loc("resnet50/conv2_block2_add/add@__inference_forward_5013"(#loc2))
#loc114 = loc("resnet50/conv2_block2_out/Relu@__inference_forward_5013"(#loc2))
#loc115 = loc("resnet50/conv2_block3_1_bn/FusedBatchNormV3/ReadVariableOp_1@__inference_forward_5013"(#loc2))
#loc116 = loc("resnet50/conv2_block3_1_bn/FusedBatchNormV3/ReadVariableOp@__inference_forward_5013"(#loc2))
#loc117 = loc("resnet50/conv2_block3_1_bn/ReadVariableOp_1@__inference_forward_5013"(#loc2))
#loc118 = loc("resnet50/conv2_block3_1_bn/ReadVariableOp@__inference_forward_5013"(#loc2))
#loc119 = loc("resnet50/conv2_block3_1_conv/BiasAdd/ReadVariableOp@__inference_forward_5013"(#loc2))
#loc121 = loc("resnet50/conv2_block3_1_conv/Conv2D@__inference_forward_5013"(#loc2))
#loc122 = loc("resnet50/conv2_block3_1_conv/BiasAdd@__inference_forward_5013"(#loc2))
#loc123 = loc("resnet50/conv2_block3_1_bn/FusedBatchNormV3@__inference_forward_5013"(#loc2))
#loc124 = loc("resnet50/conv2_block3_1_relu/Relu@__inference_forward_5013"(#loc2))
#loc125 = loc("resnet50/conv2_block3_2_bn/FusedBatchNormV3/ReadVariableOp_1@__inference_forward_5013"(#loc2))
#loc126 = loc("resnet50/conv2_block3_2_bn/FusedBatchNormV3/ReadVariableOp@__inference_forward_5013"(#loc2))
#loc127 = loc("resnet50/conv2_block3_2_bn/ReadVariableOp_1@__inference_forward_5013"(#loc2))
#loc128 = loc("resnet50/conv2_block3_2_bn/ReadVariableOp@__inference_forward_5013"(#loc2))
#loc129 = loc("resnet50/conv2_block3_2_conv/BiasAdd/ReadVariableOp@__inference_forward_5013"(#loc2))
#loc131 = loc("resnet50/conv2_block3_2_conv/Conv2D@__inference_forward_5013"(#loc2))
#loc132 = loc("resnet50/conv2_block3_2_conv/BiasAdd@__inference_forward_5013"(#loc2))
#loc133 = loc("resnet50/conv2_block3_2_relu/Relu@__inference_forward_5013"(#loc2))
#loc134 = loc("resnet50/conv2_block3_3_bn/FusedBatchNormV3/ReadVariableOp_1@__inference_forward_5013"(#loc2))
#loc135 = loc("resnet50/conv2_block3_3_bn/FusedBatchNormV3/ReadVariableOp@__inference_forward_5013"(#loc2))
#loc136 = loc("resnet50/conv2_block3_3_bn/ReadVariableOp_1@__inference_forward_5013"(#loc2))
#loc137 = loc("resnet50/conv2_block3_3_bn/ReadVariableOp@__inference_forward_5013"(#loc2))
#loc138 = loc("resnet50/conv2_block3_3_conv/BiasAdd/ReadVariableOp@__inference_forward_5013"(#loc2))
#loc140 = loc("resnet50/conv2_block3_3_conv/Conv2D@__inference_forward_5013"(#loc2))
#loc141 = loc("resnet50/conv2_block3_3_conv/BiasAdd@__inference_forward_5013"(#loc2))
#loc142 = loc("resnet50/conv2_block3_3_bn/FusedBatchNormV3@__inference_forward_5013"(#loc2))
#loc143 = loc("resnet50/conv2_block3_add/add@__inference_forward_5013"(#loc2))
#loc144 = loc("resnet50/conv2_block3_out/Relu@__inference_forward_5013"(#loc2))
#loc145 = loc("resnet50/conv3_block1_0_bn/FusedBatchNormV3/ReadVariableOp_1@__inference_forward_5013"(#loc2))
#loc146 = loc("resnet50/conv3_block1_0_bn/FusedBatchNormV3/ReadVariableOp@__inference_forward_5013"(#loc2))
#loc147 = loc("resnet50/conv3_block1_0_bn/ReadVariableOp_1@__inference_forward_5013"(#loc2))
#loc148 = loc("resnet50/conv3_block1_0_bn/ReadVariableOp@__inference_forward_5013"(#loc2))
#loc149 = loc("resnet50/conv3_block1_0_conv/BiasAdd/ReadVariableOp@__inference_forward_5013"(#loc2))
#loc151 = loc("resnet50/conv3_block1_0_conv/Conv2D@__inference_forward_5013"(#loc2))
#loc152 = loc("resnet50/conv3_block1_0_conv/BiasAdd@__inference_forward_5013"(#loc2))
#loc153 = loc("resnet50/conv3_block1_0_bn/FusedBatchNormV3@__inference_forward_5013"(#loc2))
#loc154 = loc("resnet50/conv3_block1_1_bn/FusedBatchNormV3/ReadVariableOp_1@__inference_forward_5013"(#loc2))
#loc155 = loc("resnet50/conv3_block1_1_bn/FusedBatchNormV3/ReadVariableOp@__inference_forward_5013"(#loc2))
#loc156 = loc("resnet50/conv3_block1_1_bn/ReadVariableOp_1@__inference_forward_5013"(#loc2))
#loc157 = loc("resnet50/conv3_block1_1_bn/ReadVariableOp@__inference_forward_5013"(#loc2))
#loc158 = loc("resnet50/conv3_block1_1_conv/BiasAdd/ReadVariableOp@__inference_forward_5013"(#loc2))
#loc160 = loc("resnet50/conv3_block1_1_conv/Conv2D@__inference_forward_5013"(#loc2))
#loc161 = loc("resnet50/conv3_block1_1_conv/BiasAdd@__inference_forward_5013"(#loc2))
#loc162 = loc("resnet50/conv3_block1_1_bn/FusedBatchNormV3@__inference_forward_5013"(#loc2))
#loc163 = loc("resnet50/conv3_block1_1_relu/Relu@__inference_forward_5013"(#loc2))
#loc164 = loc("resnet50/conv3_block1_2_bn/FusedBatchNormV3/ReadVariableOp_1@__inference_forward_5013"(#loc2))
#loc165 = loc("resnet50/conv3_block1_2_bn/FusedBatchNormV3/ReadVariableOp@__inference_forward_5013"(#loc2))
#loc166 = loc("resnet50/conv3_block1_2_bn/ReadVariableOp_1@__inference_forward_5013"(#loc2))
#loc167 = loc("resnet50/conv3_block1_2_bn/ReadVariableOp@__inference_forward_5013"(#loc2))
#loc168 = loc("resnet50/conv3_block1_2_conv/BiasAdd/ReadVariableOp@__inference_forward_5013"(#loc2))
#loc170 = loc("resnet50/conv3_block1_2_conv/Conv2D@__inference_forward_5013"(#loc2))
#loc171 = loc("resnet50/conv3_block1_2_conv/BiasAdd@__inference_forward_5013"(#loc2))
#loc172 = loc("resnet50/conv3_block1_2_bn/FusedBatchNormV3@__inference_forward_5013"(#loc2))
#loc173 = loc("resnet50/conv3_block1_2_relu/Relu@__inference_forward_5013"(#loc2))
#loc174 = loc("resnet50/conv3_block1_3_bn/FusedBatchNormV3/ReadVariableOp_1@__inference_forward_5013"(#loc2))
#loc175 = loc("resnet50/conv3_block1_3_bn/FusedBatchNormV3/ReadVariableOp@__inference_forward_5013"(#loc2))
#loc176 = loc("resnet50/conv3_block1_3_bn/ReadVariableOp_1@__inference_forward_5013"(#loc2))
#loc177 = loc("resnet50/conv3_block1_3_bn/ReadVariableOp@__inference_forward_5013"(#loc2))
#loc178 = loc("resnet50/conv3_block1_3_conv/BiasAdd/ReadVariableOp@__inference_forward_5013"(#loc2))
#loc180 = loc("resnet50/conv3_block1_3_conv/Conv2D@__inference_forward_5013"(#loc2))
#loc181 = loc("resnet50/conv3_block1_3_conv/BiasAdd@__inference_forward_5013"(#loc2))
#loc182 = loc("resnet50/conv3_block1_3_bn/FusedBatchNormV3@__inference_forward_5013"(#loc2))
#loc183 = loc("resnet50/conv3_block1_add/add@__inference_forward_5013"(#loc2))
#loc184 = loc("resnet50/conv3_block1_out/Relu@__inference_forward_5013"(#loc2))
#loc185 = loc("resnet50/conv3_block2_1_bn/FusedBatchNormV3/ReadVariableOp_1@__inference_forward_5013"(#loc2))
#loc186 = loc("resnet50/conv3_block2_1_bn/FusedBatchNormV3/ReadVariableOp@__inference_forward_5013"(#loc2))
#loc187 = loc("resnet50/conv3_block2_1_bn/ReadVariableOp_1@__inference_forward_5013"(#loc2))
#loc188 = loc("resnet50/conv3_block2_1_bn/ReadVariableOp@__inference_forward_5013"(#loc2))
#loc189 = loc("resnet50/conv3_block2_1_conv/BiasAdd/ReadVariableOp@__inference_forward_5013"(#loc2))
#loc191 = loc("resnet50/conv3_block2_1_conv/Conv2D@__inference_forward_5013"(#loc2))
#loc192 = loc("resnet50/conv3_block2_1_conv/BiasAdd@__inference_forward_5013"(#loc2))
#loc193 = loc("resnet50/conv3_block2_1_bn/FusedBatchNormV3@__inference_forward_5013"(#loc2))
#loc194 = loc("resnet50/conv3_block2_1_relu/Relu@__inference_forward_5013"(#loc2))
#loc195 = loc("resnet50/conv3_block2_2_bn/FusedBatchNormV3/ReadVariableOp_1@__inference_forward_5013"(#loc2))
#loc196 = loc("resnet50/conv3_block2_2_bn/FusedBatchNormV3/ReadVariableOp@__inference_forward_5013"(#loc2))
#loc197 = loc("resnet50/conv3_block2_2_bn/ReadVariableOp_1@__inference_forward_5013"(#loc2))
#loc198 = loc("resnet50/conv3_block2_2_bn/ReadVariableOp@__inference_forward_5013"(#loc2))
#loc199 = loc("resnet50/conv3_block2_2_conv/BiasAdd/ReadVariableOp@__inference_forward_5013"(#loc2))
#loc201 = loc("resnet50/conv3_block2_2_conv/Conv2D@__inference_forward_5013"(#loc2))
#loc202 = loc("resnet50/conv3_block2_2_conv/BiasAdd@__inference_forward_5013"(#loc2))
#loc203 = loc("resnet50/conv3_block2_2_bn/FusedBatchNormV3@__inference_forward_5013"(#loc2))
#loc204 = loc("resnet50/conv3_block2_2_relu/Relu@__inference_forward_5013"(#loc2))
#loc205 = loc("resnet50/conv3_block2_3_bn/FusedBatchNormV3/ReadVariableOp_1@__inference_forward_5013"(#loc2))
#loc206 = loc("resnet50/conv3_block2_3_bn/FusedBatchNormV3/ReadVariableOp@__inference_forward_5013"(#loc2))
#loc207 = loc("resnet50/conv3_block2_3_bn/ReadVariableOp_1@__inference_forward_5013"(#loc2))
#loc208 = loc("resnet50/conv3_block2_3_bn/ReadVariableOp@__inference_forward_5013"(#loc2))
#loc209 = loc("resnet50/conv3_block2_3_conv/BiasAdd/ReadVariableOp@__inference_forward_5013"(#loc2))
#loc211 = loc("resnet50/conv3_block2_3_conv/Conv2D@__inference_forward_5013"(#loc2))
#loc212 = loc("resnet50/conv3_block2_3_conv/BiasAdd@__inference_forward_5013"(#loc2))
#loc213 = loc("resnet50/conv3_block2_3_bn/FusedBatchNormV3@__inference_forward_5013"(#loc2))
#loc214 = loc("resnet50/conv3_block2_add/add@__inference_forward_5013"(#loc2))
#loc215 = loc("resnet50/conv3_block2_out/Relu@__inference_forward_5013"(#loc2))
#loc216 = loc("resnet50/conv3_block3_1_bn/FusedBatchNormV3/ReadVariableOp_1@__inference_forward_5013"(#loc2))
#loc217 = loc("resnet50/conv3_block3_1_bn/FusedBatchNormV3/ReadVariableOp@__inference_forward_5013"(#loc2))
#loc218 = loc("resnet50/conv3_block3_1_bn/ReadVariableOp_1@__inference_forward_5013"(#loc2))
#loc219 = loc("resnet50/conv3_block3_1_bn/ReadVariableOp@__inference_forward_5013"(#loc2))
#loc220 = loc("resnet50/conv3_block3_1_conv/BiasAdd/ReadVariableOp@__inference_forward_5013"(#loc2))
#loc222 = loc("resnet50/conv3_block3_1_conv/Conv2D@__inference_forward_5013"(#loc2))
#loc223 = loc("resnet50/conv3_block3_1_conv/BiasAdd@__inference_forward_5013"(#loc2))
#loc224 = loc("resnet50/conv3_block3_1_bn/FusedBatchNormV3@__inference_forward_5013"(#loc2))
#loc225 = loc("resnet50/conv3_block3_1_relu/Relu@__inference_forward_5013"(#loc2))
#loc226 = loc("resnet50/conv3_block3_2_bn/FusedBatchNormV3/ReadVariableOp_1@__inference_forward_5013"(#loc2))
#loc227 = loc("resnet50/conv3_block3_2_bn/FusedBatchNormV3/ReadVariableOp@__inference_forward_5013"(#loc2))
#loc228 = loc("resnet50/conv3_block3_2_bn/ReadVariableOp_1@__inference_forward_5013"(#loc2))
#loc229 = loc("resnet50/conv3_block3_2_bn/ReadVariableOp@__inference_forward_5013"(#loc2))
#loc230 = loc("resnet50/conv3_block3_2_conv/BiasAdd/ReadVariableOp@__inference_forward_5013"(#loc2))
#loc232 = loc("resnet50/conv3_block3_2_conv/Conv2D@__inference_forward_5013"(#loc2))
#loc233 = loc("resnet50/conv3_block3_2_conv/BiasAdd@__inference_forward_5013"(#loc2))
#loc234 = loc("resnet50/conv3_block3_2_bn/FusedBatchNormV3@__inference_forward_5013"(#loc2))
#loc235 = loc("resnet50/conv3_block3_2_relu/Relu@__inference_forward_5013"(#loc2))
#loc236 = loc("resnet50/conv3_block3_3_bn/FusedBatchNormV3/ReadVariableOp_1@__inference_forward_5013"(#loc2))
#loc237 = loc("resnet50/conv3_block3_3_bn/FusedBatchNormV3/ReadVariableOp@__inference_forward_5013"(#loc2))
#loc238 = loc("resnet50/conv3_block3_3_bn/ReadVariableOp_1@__inference_forward_5013"(#loc2))
#loc239 = loc("resnet50/conv3_block3_3_bn/ReadVariableOp@__inference_forward_5013"(#loc2))
#loc240 = loc("resnet50/conv3_block3_3_conv/BiasAdd/ReadVariableOp@__inference_forward_5013"(#loc2))
#loc242 = loc("resnet50/conv3_block3_3_conv/Conv2D@__inference_forward_5013"(#loc2))
#loc243 = loc("resnet50/conv3_block3_3_conv/BiasAdd@__inference_forward_5013"(#loc2))
#loc244 = loc("resnet50/conv3_block3_3_bn/FusedBatchNormV3@__inference_forward_5013"(#loc2))
#loc245 = loc("resnet50/conv3_block3_add/add@__inference_forward_5013"(#loc2))
#loc246 = loc("resnet50/conv3_block3_out/Relu@__inference_forward_5013"(#loc2))
#loc247 = loc("resnet50/conv3_block4_1_bn/FusedBatchNormV3/ReadVariableOp_1@__inference_forward_5013"(#loc2))
#loc248 = loc("resnet50/conv3_block4_1_bn/FusedBatchNormV3/ReadVariableOp@__inference_forward_5013"(#loc2))
#loc249 = loc("resnet50/conv3_block4_1_bn/ReadVariableOp_1@__inference_forward_5013"(#loc2))
#loc250 = loc("resnet50/conv3_block4_1_bn/ReadVariableOp@__inference_forward_5013"(#loc2))
#loc251 = loc("resnet50/conv3_block4_1_conv/BiasAdd/ReadVariableOp@__inference_forward_5013"(#loc2))
#loc253 = loc("resnet50/conv3_block4_1_conv/Conv2D@__inference_forward_5013"(#loc2))
#loc254 = loc("resnet50/conv3_block4_1_conv/BiasAdd@__inference_forward_5013"(#loc2))
#loc255 = loc("resnet50/conv3_block4_1_bn/FusedBatchNormV3@__inference_forward_5013"(#loc2))
#loc256 = loc("resnet50/conv3_block4_1_relu/Relu@__inference_forward_5013"(#loc2))
#loc257 = loc("resnet50/conv3_block4_2_bn/FusedBatchNormV3/ReadVariableOp_1@__inference_forward_5013"(#loc2))
#loc258 = loc("resnet50/conv3_block4_2_bn/FusedBatchNormV3/ReadVariableOp@__inference_forward_5013"(#loc2))
#loc259 = loc("resnet50/conv3_block4_2_bn/ReadVariableOp_1@__inference_forward_5013"(#loc2))
#loc260 = loc("resnet50/conv3_block4_2_bn/ReadVariableOp@__inference_forward_5013"(#loc2))
#loc261 = loc("resnet50/conv3_block4_2_conv/BiasAdd/ReadVariableOp@__inference_forward_5013"(#loc2))
#loc263 = loc("resnet50/conv3_block4_2_conv/Conv2D@__inference_forward_5013"(#loc2))
#loc264 = loc("resnet50/conv3_block4_2_conv/BiasAdd@__inference_forward_5013"(#loc2))
#loc265 = loc("resnet50/conv3_block4_2_relu/Relu@__inference_forward_5013"(#loc2))
#loc266 = loc("resnet50/conv3_block4_3_bn/FusedBatchNormV3/ReadVariableOp_1@__inference_forward_5013"(#loc2))
#loc267 = loc("resnet50/conv3_block4_3_bn/FusedBatchNormV3/ReadVariableOp@__inference_forward_5013"(#loc2))
#loc268 = loc("resnet50/conv3_block4_3_bn/ReadVariableOp_1@__inference_forward_5013"(#loc2))
#loc269 = loc("resnet50/conv3_block4_3_bn/ReadVariableOp@__inference_forward_5013"(#loc2))
#loc270 = loc("resnet50/conv3_block4_3_conv/BiasAdd/ReadVariableOp@__inference_forward_5013"(#loc2))
#loc272 = loc("resnet50/conv3_block4_3_conv/Conv2D@__inference_forward_5013"(#loc2))
#loc273 = loc("resnet50/conv3_block4_3_conv/BiasAdd@__inference_forward_5013"(#loc2))
#loc274 = loc("resnet50/conv3_block4_3_bn/FusedBatchNormV3@__inference_forward_5013"(#loc2))
#loc275 = loc("resnet50/conv3_block4_add/add@__inference_forward_5013"(#loc2))
#loc276 = loc("resnet50/conv3_block4_out/Relu@__inference_forward_5013"(#loc2))
#loc277 = loc("resnet50/conv4_block1_0_bn/FusedBatchNormV3/ReadVariableOp_1@__inference_forward_5013"(#loc2))
#loc278 = loc("resnet50/conv4_block1_0_bn/FusedBatchNormV3/ReadVariableOp@__inference_forward_5013"(#loc2))
#loc279 = loc("resnet50/conv4_block1_0_bn/ReadVariableOp_1@__inference_forward_5013"(#loc2))
#loc280 = loc("resnet50/conv4_block1_0_bn/ReadVariableOp@__inference_forward_5013"(#loc2))
#loc281 = loc("resnet50/conv4_block1_0_conv/BiasAdd/ReadVariableOp@__inference_forward_5013"(#loc2))
#loc283 = loc("resnet50/conv4_block1_0_conv/Conv2D@__inference_forward_5013"(#loc2))
#loc284 = loc("resnet50/conv4_block1_0_conv/BiasAdd@__inference_forward_5013"(#loc2))
#loc285 = loc("resnet50/conv4_block1_0_bn/FusedBatchNormV3@__inference_forward_5013"(#loc2))
#loc286 = loc("resnet50/conv4_block1_1_bn/FusedBatchNormV3/ReadVariableOp_1@__inference_forward_5013"(#loc2))
#loc287 = loc("resnet50/conv4_block1_1_bn/FusedBatchNormV3/ReadVariableOp@__inference_forward_5013"(#loc2))
#loc288 = loc("resnet50/conv4_block1_1_bn/ReadVariableOp_1@__inference_forward_5013"(#loc2))
#loc289 = loc("resnet50/conv4_block1_1_bn/ReadVariableOp@__inference_forward_5013"(#loc2))
#loc290 = loc("resnet50/conv4_block1_1_conv/BiasAdd/ReadVariableOp@__inference_forward_5013"(#loc2))
#loc292 = loc("resnet50/conv4_block1_1_conv/Conv2D@__inference_forward_5013"(#loc2))
#loc293 = loc("resnet50/conv4_block1_1_conv/BiasAdd@__inference_forward_5013"(#loc2))
#loc294 = loc("resnet50/conv4_block1_1_bn/FusedBatchNormV3@__inference_forward_5013"(#loc2))
#loc295 = loc("resnet50/conv4_block1_1_relu/Relu@__inference_forward_5013"(#loc2))
#loc296 = loc("resnet50/conv4_block1_2_bn/FusedBatchNormV3/ReadVariableOp_1@__inference_forward_5013"(#loc2))
#loc297 = loc("resnet50/conv4_block1_2_bn/FusedBatchNormV3/ReadVariableOp@__inference_forward_5013"(#loc2))
#loc298 = loc("resnet50/conv4_block1_2_bn/ReadVariableOp_1@__inference_forward_5013"(#loc2))
#loc299 = loc("resnet50/conv4_block1_2_bn/ReadVariableOp@__inference_forward_5013"(#loc2))
#loc300 = loc("resnet50/conv4_block1_2_conv/BiasAdd/ReadVariableOp@__inference_forward_5013"(#loc2))
#loc302 = loc("resnet50/conv4_block1_2_conv/Conv2D@__inference_forward_5013"(#loc2))
#loc303 = loc("resnet50/conv4_block1_2_conv/BiasAdd@__inference_forward_5013"(#loc2))
#loc304 = loc("resnet50/conv4_block1_2_bn/FusedBatchNormV3@__inference_forward_5013"(#loc2))
#loc305 = loc("resnet50/conv4_block1_2_relu/Relu@__inference_forward_5013"(#loc2))
#loc306 = loc("resnet50/conv4_block1_3_bn/FusedBatchNormV3/ReadVariableOp_1@__inference_forward_5013"(#loc2))
#loc307 = loc("resnet50/conv4_block1_3_bn/FusedBatchNormV3/ReadVariableOp@__inference_forward_5013"(#loc2))
#loc308 = loc("resnet50/conv4_block1_3_bn/ReadVariableOp_1@__inference_forward_5013"(#loc2))
#loc309 = loc("resnet50/conv4_block1_3_bn/ReadVariableOp@__inference_forward_5013"(#loc2))
#loc310 = loc("resnet50/conv4_block1_3_conv/BiasAdd/ReadVariableOp@__inference_forward_5013"(#loc2))
#loc312 = loc("resnet50/conv4_block1_3_conv/Conv2D@__inference_forward_5013"(#loc2))
#loc313 = loc("resnet50/conv4_block1_3_conv/BiasAdd@__inference_forward_5013"(#loc2))
#loc314 = loc("resnet50/conv4_block1_3_bn/FusedBatchNormV3@__inference_forward_5013"(#loc2))
#loc315 = loc("resnet50/conv4_block1_add/add@__inference_forward_5013"(#loc2))
#loc316 = loc("resnet50/conv4_block1_out/Relu@__inference_forward_5013"(#loc2))
#loc317 = loc("resnet50/conv4_block2_1_bn/FusedBatchNormV3/ReadVariableOp_1@__inference_forward_5013"(#loc2))
#loc318 = loc("resnet50/conv4_block2_1_bn/FusedBatchNormV3/ReadVariableOp@__inference_forward_5013"(#loc2))
#loc319 = loc("resnet50/conv4_block2_1_bn/ReadVariableOp_1@__inference_forward_5013"(#loc2))
#loc320 = loc("resnet50/conv4_block2_1_bn/ReadVariableOp@__inference_forward_5013"(#loc2))
#loc321 = loc("resnet50/conv4_block2_1_conv/BiasAdd/ReadVariableOp@__inference_forward_5013"(#loc2))
#loc323 = loc("resnet50/conv4_block2_1_conv/Conv2D@__inference_forward_5013"(#loc2))
#loc324 = loc("resnet50/conv4_block2_1_conv/BiasAdd@__inference_forward_5013"(#loc2))
#loc325 = loc("resnet50/conv4_block2_1_bn/FusedBatchNormV3@__inference_forward_5013"(#loc2))
#loc326 = loc("resnet50/conv4_block2_1_relu/Relu@__inference_forward_5013"(#loc2))
#loc327 = loc("resnet50/conv4_block2_2_bn/FusedBatchNormV3/ReadVariableOp_1@__inference_forward_5013"(#loc2))
#loc328 = loc("resnet50/conv4_block2_2_bn/FusedBatchNormV3/ReadVariableOp@__inference_forward_5013"(#loc2))
#loc329 = loc("resnet50/conv4_block2_2_bn/ReadVariableOp_1@__inference_forward_5013"(#loc2))
#loc330 = loc("resnet50/conv4_block2_2_bn/ReadVariableOp@__inference_forward_5013"(#loc2))
#loc331 = loc("resnet50/conv4_block2_2_conv/BiasAdd/ReadVariableOp@__inference_forward_5013"(#loc2))
#loc333 = loc("resnet50/conv4_block2_2_conv/Conv2D@__inference_forward_5013"(#loc2))
#loc334 = loc("resnet50/conv4_block2_2_conv/BiasAdd@__inference_forward_5013"(#loc2))
#loc335 = loc("resnet50/conv4_block2_2_bn/FusedBatchNormV3@__inference_forward_5013"(#loc2))
#loc336 = loc("resnet50/conv4_block2_2_relu/Relu@__inference_forward_5013"(#loc2))
#loc337 = loc("resnet50/conv4_block2_3_bn/FusedBatchNormV3/ReadVariableOp_1@__inference_forward_5013"(#loc2))
#loc338 = loc("resnet50/conv4_block2_3_bn/FusedBatchNormV3/ReadVariableOp@__inference_forward_5013"(#loc2))
#loc339 = loc("resnet50/conv4_block2_3_bn/ReadVariableOp_1@__inference_forward_5013"(#loc2))
#loc340 = loc("resnet50/conv4_block2_3_bn/ReadVariableOp@__inference_forward_5013"(#loc2))
#loc341 = loc("resnet50/conv4_block2_3_conv/BiasAdd/ReadVariableOp@__inference_forward_5013"(#loc2))
#loc343 = loc("resnet50/conv4_block2_3_conv/Conv2D@__inference_forward_5013"(#loc2))
#loc344 = loc("resnet50/conv4_block2_3_conv/BiasAdd@__inference_forward_5013"(#loc2))
#loc345 = loc("resnet50/conv4_block2_3_bn/FusedBatchNormV3@__inference_forward_5013"(#loc2))
#loc346 = loc("resnet50/conv4_block2_add/add@__inference_forward_5013"(#loc2))
#loc347 = loc("resnet50/conv4_block2_out/Relu@__inference_forward_5013"(#loc2))
#loc348 = loc("resnet50/conv4_block3_1_bn/FusedBatchNormV3/ReadVariableOp_1@__inference_forward_5013"(#loc2))
#loc349 = loc("resnet50/conv4_block3_1_bn/FusedBatchNormV3/ReadVariableOp@__inference_forward_5013"(#loc2))
#loc350 = loc("resnet50/conv4_block3_1_bn/ReadVariableOp_1@__inference_forward_5013"(#loc2))
#loc351 = loc("resnet50/conv4_block3_1_bn/ReadVariableOp@__inference_forward_5013"(#loc2))
#loc352 = loc("resnet50/conv4_block3_1_conv/BiasAdd/ReadVariableOp@__inference_forward_5013"(#loc2))
#loc354 = loc("resnet50/conv4_block3_1_conv/Conv2D@__inference_forward_5013"(#loc2))
#loc355 = loc("resnet50/conv4_block3_1_conv/BiasAdd@__inference_forward_5013"(#loc2))
#loc356 = loc("resnet50/conv4_block3_1_bn/FusedBatchNormV3@__inference_forward_5013"(#loc2))
#loc357 = loc("resnet50/conv4_block3_1_relu/Relu@__inference_forward_5013"(#loc2))
#loc358 = loc("resnet50/conv4_block3_2_bn/FusedBatchNormV3/ReadVariableOp_1@__inference_forward_5013"(#loc2))
#loc359 = loc("resnet50/conv4_block3_2_bn/FusedBatchNormV3/ReadVariableOp@__inference_forward_5013"(#loc2))
#loc360 = loc("resnet50/conv4_block3_2_bn/ReadVariableOp_1@__inference_forward_5013"(#loc2))
#loc361 = loc("resnet50/conv4_block3_2_bn/ReadVariableOp@__inference_forward_5013"(#loc2))
#loc362 = loc("resnet50/conv4_block3_2_conv/BiasAdd/ReadVariableOp@__inference_forward_5013"(#loc2))
#loc364 = loc("resnet50/conv4_block3_2_conv/Conv2D@__inference_forward_5013"(#loc2))
#loc365 = loc("resnet50/conv4_block3_2_conv/BiasAdd@__inference_forward_5013"(#loc2))
#loc366 = loc("resnet50/conv4_block3_2_bn/FusedBatchNormV3@__inference_forward_5013"(#loc2))
#loc367 = loc("resnet50/conv4_block3_2_relu/Relu@__inference_forward_5013"(#loc2))
#loc368 = loc("resnet50/conv4_block3_3_bn/FusedBatchNormV3/ReadVariableOp_1@__inference_forward_5013"(#loc2))
#loc369 = loc("resnet50/conv4_block3_3_bn/FusedBatchNormV3/ReadVariableOp@__inference_forward_5013"(#loc2))
#loc370 = loc("resnet50/conv4_block3_3_bn/ReadVariableOp_1@__inference_forward_5013"(#loc2))
#loc371 = loc("resnet50/conv4_block3_3_bn/ReadVariableOp@__inference_forward_5013"(#loc2))
#loc372 = loc("resnet50/conv4_block3_3_conv/BiasAdd/ReadVariableOp@__inference_forward_5013"(#loc2))
#loc374 = loc("resnet50/conv4_block3_3_conv/Conv2D@__inference_forward_5013"(#loc2))
#loc375 = loc("resnet50/conv4_block3_3_conv/BiasAdd@__inference_forward_5013"(#loc2))
#loc376 = loc("resnet50/conv4_block3_3_bn/FusedBatchNormV3@__inference_forward_5013"(#loc2))
#loc377 = loc("resnet50/conv4_block3_add/add@__inference_forward_5013"(#loc2))
#loc378 = loc("resnet50/conv4_block3_out/Relu@__inference_forward_5013"(#loc2))
#loc379 = loc("resnet50/conv4_block4_1_bn/FusedBatchNormV3/ReadVariableOp_1@__inference_forward_5013"(#loc2))
#loc380 = loc("resnet50/conv4_block4_1_bn/FusedBatchNormV3/ReadVariableOp@__inference_forward_5013"(#loc2))
#loc381 = loc("resnet50/conv4_block4_1_bn/ReadVariableOp_1@__inference_forward_5013"(#loc2))
#loc382 = loc("resnet50/conv4_block4_1_bn/ReadVariableOp@__inference_forward_5013"(#loc2))
#loc383 = loc("resnet50/conv4_block4_1_conv/BiasAdd/ReadVariableOp@__inference_forward_5013"(#loc2))
#loc385 = loc("resnet50/conv4_block4_1_conv/Conv2D@__inference_forward_5013"(#loc2))
#loc386 = loc("resnet50/conv4_block4_1_conv/BiasAdd@__inference_forward_5013"(#loc2))
#loc387 = loc("resnet50/conv4_block4_1_bn/FusedBatchNormV3@__inference_forward_5013"(#loc2))
#loc388 = loc("resnet50/conv4_block4_1_relu/Relu@__inference_forward_5013"(#loc2))
#loc389 = loc("resnet50/conv4_block4_2_bn/FusedBatchNormV3/ReadVariableOp_1@__inference_forward_5013"(#loc2))
#loc390 = loc("resnet50/conv4_block4_2_bn/FusedBatchNormV3/ReadVariableOp@__inference_forward_5013"(#loc2))
#loc391 = loc("resnet50/conv4_block4_2_bn/ReadVariableOp_1@__inference_forward_5013"(#loc2))
#loc392 = loc("resnet50/conv4_block4_2_bn/ReadVariableOp@__inference_forward_5013"(#loc2))
#loc393 = loc("resnet50/conv4_block4_2_conv/BiasAdd/ReadVariableOp@__inference_forward_5013"(#loc2))
#loc395 = loc("resnet50/conv4_block4_2_conv/Conv2D@__inference_forward_5013"(#loc2))
#loc396 = loc("resnet50/conv4_block4_2_conv/BiasAdd@__inference_forward_5013"(#loc2))
#loc397 = loc("resnet50/conv4_block4_2_bn/FusedBatchNormV3@__inference_forward_5013"(#loc2))
#loc398 = loc("resnet50/conv4_block4_2_relu/Relu@__inference_forward_5013"(#loc2))
#loc399 = loc("resnet50/conv4_block4_3_bn/FusedBatchNormV3/ReadVariableOp_1@__inference_forward_5013"(#loc2))
#loc400 = loc("resnet50/conv4_block4_3_bn/FusedBatchNormV3/ReadVariableOp@__inference_forward_5013"(#loc2))
#loc401 = loc("resnet50/conv4_block4_3_bn/ReadVariableOp_1@__inference_forward_5013"(#loc2))
#loc402 = loc("resnet50/conv4_block4_3_bn/ReadVariableOp@__inference_forward_5013"(#loc2))
#loc403 = loc("resnet50/conv4_block4_3_conv/BiasAdd/ReadVariableOp@__inference_forward_5013"(#loc2))
#loc405 = loc("resnet50/conv4_block4_3_conv/Conv2D@__inference_forward_5013"(#loc2))
#loc406 = loc("resnet50/conv4_block4_3_conv/BiasAdd@__inference_forward_5013"(#loc2))
#loc407 = loc("resnet50/conv4_block4_3_bn/FusedBatchNormV3@__inference_forward_5013"(#loc2))
#loc408 = loc("resnet50/conv4_block4_add/add@__inference_forward_5013"(#loc2))
#loc409 = loc("resnet50/conv4_block4_out/Relu@__inference_forward_5013"(#loc2))
#loc410 = loc("resnet50/conv4_block5_1_bn/FusedBatchNormV3/ReadVariableOp_1@__inference_forward_5013"(#loc2))
#loc411 = loc("resnet50/conv4_block5_1_bn/FusedBatchNormV3/ReadVariableOp@__inference_forward_5013"(#loc2))
#loc412 = loc("resnet50/conv4_block5_1_bn/ReadVariableOp_1@__inference_forward_5013"(#loc2))
#loc413 = loc("resnet50/conv4_block5_1_bn/ReadVariableOp@__inference_forward_5013"(#loc2))
#loc414 = loc("resnet50/conv4_block5_1_conv/BiasAdd/ReadVariableOp@__inference_forward_5013"(#loc2))
#loc416 = loc("resnet50/conv4_block5_1_conv/Conv2D@__inference_forward_5013"(#loc2))
#loc417 = loc("resnet50/conv4_block5_1_conv/BiasAdd@__inference_forward_5013"(#loc2))
#loc418 = loc("resnet50/conv4_block5_1_bn/FusedBatchNormV3@__inference_forward_5013"(#loc2))
#loc419 = loc("resnet50/conv4_block5_1_relu/Relu@__inference_forward_5013"(#loc2))
#loc420 = loc("resnet50/conv4_block5_2_bn/FusedBatchNormV3/ReadVariableOp_1@__inference_forward_5013"(#loc2))
#loc421 = loc("resnet50/conv4_block5_2_bn/FusedBatchNormV3/ReadVariableOp@__inference_forward_5013"(#loc2))
#loc422 = loc("resnet50/conv4_block5_2_bn/ReadVariableOp_1@__inference_forward_5013"(#loc2))
#loc423 = loc("resnet50/conv4_block5_2_bn/ReadVariableOp@__inference_forward_5013"(#loc2))
#loc424 = loc("resnet50/conv4_block5_2_conv/BiasAdd/ReadVariableOp@__inference_forward_5013"(#loc2))
#loc426 = loc("resnet50/conv4_block5_2_conv/Conv2D@__inference_forward_5013"(#loc2))
#loc427 = loc("resnet50/conv4_block5_2_conv/BiasAdd@__inference_forward_5013"(#loc2))
#loc428 = loc("resnet50/conv4_block5_2_bn/FusedBatchNormV3@__inference_forward_5013"(#loc2))
#loc429 = loc("resnet50/conv4_block5_2_relu/Relu@__inference_forward_5013"(#loc2))
#loc430 = loc("resnet50/conv4_block5_3_bn/FusedBatchNormV3/ReadVariableOp_1@__inference_forward_5013"(#loc2))
#loc431 = loc("resnet50/conv4_block5_3_bn/FusedBatchNormV3/ReadVariableOp@__inference_forward_5013"(#loc2))
#loc432 = loc("resnet50/conv4_block5_3_bn/ReadVariableOp_1@__inference_forward_5013"(#loc2))
#loc433 = loc("resnet50/conv4_block5_3_bn/ReadVariableOp@__inference_forward_5013"(#loc2))
#loc434 = loc("resnet50/conv4_block5_3_conv/BiasAdd/ReadVariableOp@__inference_forward_5013"(#loc2))
#loc436 = loc("resnet50/conv4_block5_3_conv/Conv2D@__inference_forward_5013"(#loc2))
#loc437 = loc("resnet50/conv4_block5_3_conv/BiasAdd@__inference_forward_5013"(#loc2))
#loc438 = loc("resnet50/conv4_block5_3_bn/FusedBatchNormV3@__inference_forward_5013"(#loc2))
#loc439 = loc("resnet50/conv4_block5_add/add@__inference_forward_5013"(#loc2))
#loc440 = loc("resnet50/conv4_block5_out/Relu@__inference_forward_5013"(#loc2))
#loc441 = loc("resnet50/conv4_block6_1_bn/FusedBatchNormV3/ReadVariableOp_1@__inference_forward_5013"(#loc2))
#loc442 = loc("resnet50/conv4_block6_1_bn/FusedBatchNormV3/ReadVariableOp@__inference_forward_5013"(#loc2))
#loc443 = loc("resnet50/conv4_block6_1_bn/ReadVariableOp_1@__inference_forward_5013"(#loc2))
#loc444 = loc("resnet50/conv4_block6_1_bn/ReadVariableOp@__inference_forward_5013"(#loc2))
#loc445 = loc("resnet50/conv4_block6_1_conv/BiasAdd/ReadVariableOp@__inference_forward_5013"(#loc2))
#loc447 = loc("resnet50/conv4_block6_1_conv/Conv2D@__inference_forward_5013"(#loc2))
#loc448 = loc("resnet50/conv4_block6_1_conv/BiasAdd@__inference_forward_5013"(#loc2))
#loc449 = loc("resnet50/conv4_block6_1_bn/FusedBatchNormV3@__inference_forward_5013"(#loc2))
#loc450 = loc("resnet50/conv4_block6_1_relu/Relu@__inference_forward_5013"(#loc2))
#loc451 = loc("resnet50/conv4_block6_2_bn/FusedBatchNormV3/ReadVariableOp_1@__inference_forward_5013"(#loc2))
#loc452 = loc("resnet50/conv4_block6_2_bn/FusedBatchNormV3/ReadVariableOp@__inference_forward_5013"(#loc2))
#loc453 = loc("resnet50/conv4_block6_2_bn/ReadVariableOp_1@__inference_forward_5013"(#loc2))
#loc454 = loc("resnet50/conv4_block6_2_bn/ReadVariableOp@__inference_forward_5013"(#loc2))
#loc455 = loc("resnet50/conv4_block6_2_conv/BiasAdd/ReadVariableOp@__inference_forward_5013"(#loc2))
#loc457 = loc("resnet50/conv4_block6_2_conv/Conv2D@__inference_forward_5013"(#loc2))
#loc458 = loc("resnet50/conv4_block6_2_conv/BiasAdd@__inference_forward_5013"(#loc2))
#loc459 = loc("resnet50/conv4_block6_2_relu/Relu@__inference_forward_5013"(#loc2))
#loc460 = loc("resnet50/conv4_block6_3_bn/FusedBatchNormV3/ReadVariableOp_1@__inference_forward_5013"(#loc2))
#loc461 = loc("resnet50/conv4_block6_3_bn/FusedBatchNormV3/ReadVariableOp@__inference_forward_5013"(#loc2))
#loc462 = loc("resnet50/conv4_block6_3_bn/ReadVariableOp_1@__inference_forward_5013"(#loc2))
#loc463 = loc("resnet50/conv4_block6_3_bn/ReadVariableOp@__inference_forward_5013"(#loc2))
#loc464 = loc("resnet50/conv4_block6_3_conv/BiasAdd/ReadVariableOp@__inference_forward_5013"(#loc2))
#loc466 = loc("resnet50/conv4_block6_3_conv/Conv2D@__inference_forward_5013"(#loc2))
#loc467 = loc("resnet50/conv4_block6_3_conv/BiasAdd@__inference_forward_5013"(#loc2))
#loc468 = loc("resnet50/conv4_block6_add/add@__inference_forward_5013"(#loc2))
#loc469 = loc("resnet50/conv4_block6_out/Relu@__inference_forward_5013"(#loc2))
#loc470 = loc("resnet50/conv5_block1_0_bn/FusedBatchNormV3/ReadVariableOp_1@__inference_forward_5013"(#loc2))
#loc471 = loc("resnet50/conv5_block1_0_bn/FusedBatchNormV3/ReadVariableOp@__inference_forward_5013"(#loc2))
#loc472 = loc("resnet50/conv5_block1_0_bn/ReadVariableOp_1@__inference_forward_5013"(#loc2))
#loc473 = loc("resnet50/conv5_block1_0_bn/ReadVariableOp@__inference_forward_5013"(#loc2))
#loc474 = loc("resnet50/conv5_block1_0_conv/BiasAdd/ReadVariableOp@__inference_forward_5013"(#loc2))
#loc476 = loc("resnet50/conv5_block1_0_conv/Conv2D@__inference_forward_5013"(#loc2))
#loc477 = loc("resnet50/conv5_block1_0_conv/BiasAdd@__inference_forward_5013"(#loc2))
#loc478 = loc("resnet50/conv5_block1_0_bn/FusedBatchNormV3@__inference_forward_5013"(#loc2))
#loc479 = loc("resnet50/conv5_block1_1_bn/FusedBatchNormV3/ReadVariableOp_1@__inference_forward_5013"(#loc2))
#loc480 = loc("resnet50/conv5_block1_1_bn/FusedBatchNormV3/ReadVariableOp@__inference_forward_5013"(#loc2))
#loc481 = loc("resnet50/conv5_block1_1_bn/ReadVariableOp_1@__inference_forward_5013"(#loc2))
#loc482 = loc("resnet50/conv5_block1_1_bn/ReadVariableOp@__inference_forward_5013"(#loc2))
#loc483 = loc("resnet50/conv5_block1_1_conv/BiasAdd/ReadVariableOp@__inference_forward_5013"(#loc2))
#loc485 = loc("resnet50/conv5_block1_1_conv/Conv2D@__inference_forward_5013"(#loc2))
#loc486 = loc("resnet50/conv5_block1_1_conv/BiasAdd@__inference_forward_5013"(#loc2))
#loc487 = loc("resnet50/conv5_block1_1_bn/FusedBatchNormV3@__inference_forward_5013"(#loc2))
#loc488 = loc("resnet50/conv5_block1_1_relu/Relu@__inference_forward_5013"(#loc2))
#loc489 = loc("resnet50/conv5_block1_2_bn/FusedBatchNormV3/ReadVariableOp_1@__inference_forward_5013"(#loc2))
#loc490 = loc("resnet50/conv5_block1_2_bn/FusedBatchNormV3/ReadVariableOp@__inference_forward_5013"(#loc2))
#loc491 = loc("resnet50/conv5_block1_2_bn/ReadVariableOp_1@__inference_forward_5013"(#loc2))
#loc492 = loc("resnet50/conv5_block1_2_bn/ReadVariableOp@__inference_forward_5013"(#loc2))
#loc493 = loc("resnet50/conv5_block1_2_conv/BiasAdd/ReadVariableOp@__inference_forward_5013"(#loc2))
#loc495 = loc("resnet50/conv5_block1_2_conv/Conv2D@__inference_forward_5013"(#loc2))
#loc496 = loc("resnet50/conv5_block1_2_conv/BiasAdd@__inference_forward_5013"(#loc2))
#loc497 = loc("resnet50/conv5_block1_2_bn/FusedBatchNormV3@__inference_forward_5013"(#loc2))
#loc498 = loc("resnet50/conv5_block1_2_relu/Relu@__inference_forward_5013"(#loc2))
#loc499 = loc("resnet50/conv5_block1_3_bn/FusedBatchNormV3/ReadVariableOp_1@__inference_forward_5013"(#loc2))
#loc500 = loc("resnet50/conv5_block1_3_bn/FusedBatchNormV3/ReadVariableOp@__inference_forward_5013"(#loc2))
#loc501 = loc("resnet50/conv5_block1_3_bn/ReadVariableOp_1@__inference_forward_5013"(#loc2))
#loc502 = loc("resnet50/conv5_block1_3_bn/ReadVariableOp@__inference_forward_5013"(#loc2))
#loc503 = loc("resnet50/conv5_block1_3_conv/BiasAdd/ReadVariableOp@__inference_forward_5013"(#loc2))
#loc505 = loc("resnet50/conv5_block1_3_conv/Conv2D@__inference_forward_5013"(#loc2))
#loc506 = loc("resnet50/conv5_block1_3_conv/BiasAdd@__inference_forward_5013"(#loc2))
#loc507 = loc("resnet50/conv5_block1_3_bn/FusedBatchNormV3@__inference_forward_5013"(#loc2))
#loc508 = loc("resnet50/conv5_block1_add/add@__inference_forward_5013"(#loc2))
#loc509 = loc("resnet50/conv5_block1_out/Relu@__inference_forward_5013"(#loc2))
#loc510 = loc("resnet50/conv5_block2_1_bn/FusedBatchNormV3/ReadVariableOp_1@__inference_forward_5013"(#loc2))
#loc511 = loc("resnet50/conv5_block2_1_bn/FusedBatchNormV3/ReadVariableOp@__inference_forward_5013"(#loc2))
#loc512 = loc("resnet50/conv5_block2_1_bn/ReadVariableOp_1@__inference_forward_5013"(#loc2))
#loc513 = loc("resnet50/conv5_block2_1_bn/ReadVariableOp@__inference_forward_5013"(#loc2))
#loc514 = loc("resnet50/conv5_block2_1_conv/BiasAdd/ReadVariableOp@__inference_forward_5013"(#loc2))
#loc516 = loc("resnet50/conv5_block2_1_conv/Conv2D@__inference_forward_5013"(#loc2))
#loc517 = loc("resnet50/conv5_block2_1_conv/BiasAdd@__inference_forward_5013"(#loc2))
#loc518 = loc("resnet50/conv5_block2_1_bn/FusedBatchNormV3@__inference_forward_5013"(#loc2))
#loc519 = loc("resnet50/conv5_block2_1_relu/Relu@__inference_forward_5013"(#loc2))
#loc520 = loc("resnet50/conv5_block2_2_bn/FusedBatchNormV3/ReadVariableOp_1@__inference_forward_5013"(#loc2))
#loc521 = loc("resnet50/conv5_block2_2_bn/FusedBatchNormV3/ReadVariableOp@__inference_forward_5013"(#loc2))
#loc522 = loc("resnet50/conv5_block2_2_bn/ReadVariableOp_1@__inference_forward_5013"(#loc2))
#loc523 = loc("resnet50/conv5_block2_2_bn/ReadVariableOp@__inference_forward_5013"(#loc2))
#loc524 = loc("resnet50/conv5_block2_2_conv/BiasAdd/ReadVariableOp@__inference_forward_5013"(#loc2))
#loc526 = loc("resnet50/conv5_block2_2_conv/Conv2D@__inference_forward_5013"(#loc2))
#loc527 = loc("resnet50/conv5_block2_2_conv/BiasAdd@__inference_forward_5013"(#loc2))
#loc528 = loc("resnet50/conv5_block2_2_bn/FusedBatchNormV3@__inference_forward_5013"(#loc2))
#loc529 = loc("resnet50/conv5_block2_2_relu/Relu@__inference_forward_5013"(#loc2))
#loc530 = loc("resnet50/conv5_block2_3_bn/FusedBatchNormV3/ReadVariableOp_1@__inference_forward_5013"(#loc2))
#loc531 = loc("resnet50/conv5_block2_3_bn/FusedBatchNormV3/ReadVariableOp@__inference_forward_5013"(#loc2))
#loc532 = loc("resnet50/conv5_block2_3_bn/ReadVariableOp_1@__inference_forward_5013"(#loc2))
#loc533 = loc("resnet50/conv5_block2_3_bn/ReadVariableOp@__inference_forward_5013"(#loc2))
#loc534 = loc("resnet50/conv5_block2_3_conv/BiasAdd/ReadVariableOp@__inference_forward_5013"(#loc2))
#loc536 = loc("resnet50/conv5_block2_3_conv/Conv2D@__inference_forward_5013"(#loc2))
#loc537 = loc("resnet50/conv5_block2_3_conv/BiasAdd@__inference_forward_5013"(#loc2))
#loc538 = loc("resnet50/conv5_block2_3_bn/FusedBatchNormV3@__inference_forward_5013"(#loc2))
#loc539 = loc("resnet50/conv5_block2_add/add@__inference_forward_5013"(#loc2))
#loc540 = loc("resnet50/conv5_block2_out/Relu@__inference_forward_5013"(#loc2))
#loc541 = loc("resnet50/conv5_block3_1_bn/FusedBatchNormV3/ReadVariableOp_1@__inference_forward_5013"(#loc2))
#loc542 = loc("resnet50/conv5_block3_1_bn/FusedBatchNormV3/ReadVariableOp@__inference_forward_5013"(#loc2))
#loc543 = loc("resnet50/conv5_block3_1_bn/ReadVariableOp_1@__inference_forward_5013"(#loc2))
#loc544 = loc("resnet50/conv5_block3_1_bn/ReadVariableOp@__inference_forward_5013"(#loc2))
#loc545 = loc("resnet50/conv5_block3_1_conv/BiasAdd/ReadVariableOp@__inference_forward_5013"(#loc2))
#loc547 = loc("resnet50/conv5_block3_1_conv/Conv2D@__inference_forward_5013"(#loc2))
#loc548 = loc("resnet50/conv5_block3_1_conv/BiasAdd@__inference_forward_5013"(#loc2))
#loc549 = loc("resnet50/conv5_block3_1_bn/FusedBatchNormV3@__inference_forward_5013"(#loc2))
#loc550 = loc("resnet50/conv5_block3_1_relu/Relu@__inference_forward_5013"(#loc2))
#loc551 = loc("resnet50/conv5_block3_2_bn/FusedBatchNormV3/ReadVariableOp_1@__inference_forward_5013"(#loc2))
#loc552 = loc("resnet50/conv5_block3_2_bn/FusedBatchNormV3/ReadVariableOp@__inference_forward_5013"(#loc2))
#loc553 = loc("resnet50/conv5_block3_2_bn/ReadVariableOp_1@__inference_forward_5013"(#loc2))
#loc554 = loc("resnet50/conv5_block3_2_bn/ReadVariableOp@__inference_forward_5013"(#loc2))
#loc555 = loc("resnet50/conv5_block3_2_conv/BiasAdd/ReadVariableOp@__inference_forward_5013"(#loc2))
#loc557 = loc("resnet50/conv5_block3_2_conv/Conv2D@__inference_forward_5013"(#loc2))
#loc558 = loc("resnet50/conv5_block3_2_conv/BiasAdd@__inference_forward_5013"(#loc2))
#loc559 = loc("resnet50/conv5_block3_2_relu/Relu@__inference_forward_5013"(#loc2))
#loc560 = loc("resnet50/conv5_block3_3_bn/FusedBatchNormV3/ReadVariableOp_1@__inference_forward_5013"(#loc2))
#loc561 = loc("resnet50/conv5_block3_3_bn/FusedBatchNormV3/ReadVariableOp@__inference_forward_5013"(#loc2))
#loc562 = loc("resnet50/conv5_block3_3_bn/ReadVariableOp_1@__inference_forward_5013"(#loc2))
#loc563 = loc("resnet50/conv5_block3_3_bn/ReadVariableOp@__inference_forward_5013"(#loc2))
#loc564 = loc("resnet50/conv5_block3_3_conv/BiasAdd/ReadVariableOp@__inference_forward_5013"(#loc2))
#loc566 = loc("resnet50/conv5_block3_3_conv/Conv2D@__inference_forward_5013"(#loc2))
#loc567 = loc("resnet50/conv5_block3_3_conv/BiasAdd@__inference_forward_5013"(#loc2))
#loc568 = loc("resnet50/conv5_block3_add/add@__inference_forward_5013"(#loc2))
#loc569 = loc("resnet50/conv5_block3_out/Relu@__inference_forward_5013"(#loc2))
#loc572 = loc("resnet50/predictions/MatMul@__inference_forward_5013"(#loc2))
#loc573 = loc("resnet50/predictions/BiasAdd@__inference_forward_5013"(#loc2))
#loc574 = loc(callsite(#loc9 at #loc23))
#loc575 = loc(callsite(#loc8 at #loc574))
#loc576 = loc(callsite(#loc7 at #loc575))
#loc577 = loc(callsite(#loc6 at #loc576))
#loc578 = loc(callsite(#loc5 at #loc577))
#loc579 = loc(callsite(#loc4 at #loc578))
#loc580 = loc(callsite(#loc3 at #loc579))
#loc581 = loc(callsite(#loc22 at #loc580))
#loc582 = loc(callsite(#loc24 at #loc580))
#loc583 = loc(callsite(#loc25 at #loc580))
#loc584 = loc(callsite(#loc26 at #loc580))
#loc585 = loc(callsite(#loc27 at #loc580))
#loc586 = loc(callsite(#loc28 at #loc580))
#loc587 = loc(callsite(#loc29 at #loc580))
#loc588 = loc(callsite(#loc30 at #loc580))
#loc589 = loc(callsite(#loc31 at #loc580))
#loc590 = loc(callsite(#loc32 at #loc580))
#loc591 = loc(callsite(#loc33 at #loc580))
#loc592 = loc(callsite(#loc34 at #loc580))
#loc593 = loc(callsite(#loc35 at #loc580))
#loc594 = loc(callsite(#loc36 at #loc580))
#loc595 = loc(callsite(#loc37 at #loc580))
#loc597 = loc(callsite(#loc39 at #loc580))
#loc598 = loc(callsite(#loc40 at #loc580))
#loc599 = loc(callsite(#loc41 at #loc580))
#loc600 = loc(callsite(#loc42 at #loc580))
#loc602 = loc(callsite(#loc44 at #loc580))
#loc603 = loc(callsite(#loc45 at #loc580))
#loc604 = loc(callsite(#loc46 at #loc580))
#loc605 = loc(callsite(#loc47 at #loc580))
#loc606 = loc(callsite(#loc48 at #loc580))
#loc608 = loc(callsite(#loc50 at #loc580))
#loc609 = loc(callsite(#loc51 at #loc580))
#loc610 = loc(callsite(#loc52 at #loc580))
#loc611 = loc(callsite(#loc53 at #loc580))
#loc612 = loc(callsite(#loc54 at #loc580))
#loc613 = loc(callsite(#loc55 at #loc580))
#loc614 = loc(callsite(#loc56 at #loc580))
#loc615 = loc(callsite(#loc57 at #loc580))
#loc617 = loc(callsite(#loc59 at #loc580))
#loc618 = loc(callsite(#loc60 at #loc580))
#loc619 = loc(callsite(#loc61 at #loc580))
#loc620 = loc(callsite(#loc62 at #loc580))
#loc621 = loc(callsite(#loc63 at #loc580))
#loc622 = loc(callsite(#loc64 at #loc580))
#loc623 = loc(callsite(#loc65 at #loc580))
#loc624 = loc(callsite(#loc66 at #loc580))
#loc625 = loc(callsite(#loc67 at #loc580))
#loc627 = loc(callsite(#loc69 at #loc580))
#loc628 = loc(callsite(#loc70 at #loc580))
#loc629 = loc(callsite(#loc71 at #loc580))
#loc630 = loc(callsite(#loc72 at #loc580))
#loc631 = loc(callsite(#loc73 at #loc580))
#loc632 = loc(callsite(#loc74 at #loc580))
#loc633 = loc(callsite(#loc75 at #loc580))
#loc634 = loc(callsite(#loc76 at #loc580))
#loc635 = loc(callsite(#loc77 at #loc580))
#loc637 = loc(callsite(#loc79 at #loc580))
#loc638 = loc(callsite(#loc80 at #loc580))
#loc639 = loc(callsite(#loc81 at #loc580))
#loc640 = loc(callsite(#loc82 at #loc580))
#loc641 = loc(callsite(#loc83 at #loc580))
#loc642 = loc(callsite(#loc84 at #loc580))
#loc643 = loc(callsite(#loc85 at #loc580))
#loc644 = loc(callsite(#loc86 at #loc580))
#loc645 = loc(callsite(#loc87 at #loc580))
#loc646 = loc(callsite(#loc88 at #loc580))
#loc648 = loc(callsite(#loc90 at #loc580))
#loc649 = loc(callsite(#loc91 at #loc580))
#loc650 = loc(callsite(#loc92 at #loc580))
#loc651 = loc(callsite(#loc93 at #loc580))
#loc652 = loc(callsite(#loc94 at #loc580))
#loc653 = loc(callsite(#loc95 at #loc580))
#loc654 = loc(callsite(#loc96 at #loc580))
#loc655 = loc(callsite(#loc97 at #loc580))
#loc656 = loc(callsite(#loc98 at #loc580))
#loc658 = loc(callsite(#loc100 at #loc580))
#loc659 = loc(callsite(#loc101 at #loc580))
#loc660 = loc(callsite(#loc102 at #loc580))
#loc661 = loc(callsite(#loc103 at #loc580))
#loc662 = loc(callsite(#loc104 at #loc580))
#loc663 = loc(callsite(#loc105 at #loc580))
#loc664 = loc(callsite(#loc106 at #loc580))
#loc665 = loc(callsite(#loc107 at #loc580))
#loc666 = loc(callsite(#loc108 at #loc580))
#loc668 = loc(callsite(#loc110 at #loc580))
#loc669 = loc(callsite(#loc111 at #loc580))
#loc670 = loc(callsite(#loc112 at #loc580))
#loc671 = loc(callsite(#loc113 at #loc580))
#loc672 = loc(callsite(#loc114 at #loc580))
#loc673 = loc(callsite(#loc115 at #loc580))
#loc674 = loc(callsite(#loc116 at #loc580))
#loc675 = loc(callsite(#loc117 at #loc580))
#loc676 = loc(callsite(#loc118 at #loc580))
#loc677 = loc(callsite(#loc119 at #loc580))
#loc679 = loc(callsite(#loc121 at #loc580))
#loc680 = loc(callsite(#loc122 at #loc580))
#loc681 = loc(callsite(#loc123 at #loc580))
#loc682 = loc(callsite(#loc124 at #loc580))
#loc683 = loc(callsite(#loc125 at #loc580))
#loc684 = loc(callsite(#loc126 at #loc580))
#loc685 = loc(callsite(#loc127 at #loc580))
#loc686 = loc(callsite(#loc128 at #loc580))
#loc687 = loc(callsite(#loc129 at #loc580))
#loc689 = loc(callsite(#loc131 at #loc580))
#loc690 = loc(callsite(#loc132 at #loc580))
#loc691 = loc(callsite(#loc133 at #loc580))
#loc692 = loc(callsite(#loc134 at #loc580))
#loc693 = loc(callsite(#loc135 at #loc580))
#loc694 = loc(callsite(#loc136 at #loc580))
#loc695 = loc(callsite(#loc137 at #loc580))
#loc696 = loc(callsite(#loc138 at #loc580))
#loc698 = loc(callsite(#loc140 at #loc580))
#loc699 = loc(callsite(#loc141 at #loc580))
#loc700 = loc(callsite(#loc142 at #loc580))
#loc701 = loc(callsite(#loc143 at #loc580))
#loc702 = loc(callsite(#loc144 at #loc580))
#loc703 = loc(callsite(#loc145 at #loc580))
#loc704 = loc(callsite(#loc146 at #loc580))
#loc705 = loc(callsite(#loc147 at #loc580))
#loc706 = loc(callsite(#loc148 at #loc580))
#loc707 = loc(callsite(#loc149 at #loc580))
#loc709 = loc(callsite(#loc151 at #loc580))
#loc710 = loc(callsite(#loc152 at #loc580))
#loc711 = loc(callsite(#loc153 at #loc580))
#loc712 = loc(callsite(#loc154 at #loc580))
#loc713 = loc(callsite(#loc155 at #loc580))
#loc714 = loc(callsite(#loc156 at #loc580))
#loc715 = loc(callsite(#loc157 at #loc580))
#loc716 = loc(callsite(#loc158 at #loc580))
#loc718 = loc(callsite(#loc160 at #loc580))
#loc719 = loc(callsite(#loc161 at #loc580))
#loc720 = loc(callsite(#loc162 at #loc580))
#loc721 = loc(callsite(#loc163 at #loc580))
#loc722 = loc(callsite(#loc164 at #loc580))
#loc723 = loc(callsite(#loc165 at #loc580))
#loc724 = loc(callsite(#loc166 at #loc580))
#loc725 = loc(callsite(#loc167 at #loc580))
#loc726 = loc(callsite(#loc168 at #loc580))
#loc728 = loc(callsite(#loc170 at #loc580))
#loc729 = loc(callsite(#loc171 at #loc580))
#loc730 = loc(callsite(#loc172 at #loc580))
#loc731 = loc(callsite(#loc173 at #loc580))
#loc732 = loc(callsite(#loc174 at #loc580))
#loc733 = loc(callsite(#loc175 at #loc580))
#loc734 = loc(callsite(#loc176 at #loc580))
#loc735 = loc(callsite(#loc177 at #loc580))
#loc736 = loc(callsite(#loc178 at #loc580))
#loc738 = loc(callsite(#loc180 at #loc580))
#loc739 = loc(callsite(#loc181 at #loc580))
#loc740 = loc(callsite(#loc182 at #loc580))
#loc741 = loc(callsite(#loc183 at #loc580))
#loc742 = loc(callsite(#loc184 at #loc580))
#loc743 = loc(callsite(#loc185 at #loc580))
#loc744 = loc(callsite(#loc186 at #loc580))
#loc745 = loc(callsite(#loc187 at #loc580))
#loc746 = loc(callsite(#loc188 at #loc580))
#loc747 = loc(callsite(#loc189 at #loc580))
#loc749 = loc(callsite(#loc191 at #loc580))
#loc750 = loc(callsite(#loc192 at #loc580))
#loc751 = loc(callsite(#loc193 at #loc580))
#loc752 = loc(callsite(#loc194 at #loc580))
#loc753 = loc(callsite(#loc195 at #loc580))
#loc754 = loc(callsite(#loc196 at #loc580))
#loc755 = loc(callsite(#loc197 at #loc580))
#loc756 = loc(callsite(#loc198 at #loc580))
#loc757 = loc(callsite(#loc199 at #loc580))
#loc759 = loc(callsite(#loc201 at #loc580))
#loc760 = loc(callsite(#loc202 at #loc580))
#loc761 = loc(callsite(#loc203 at #loc580))
#loc762 = loc(callsite(#loc204 at #loc580))
#loc763 = loc(callsite(#loc205 at #loc580))
#loc764 = loc(callsite(#loc206 at #loc580))
#loc765 = loc(callsite(#loc207 at #loc580))
#loc766 = loc(callsite(#loc208 at #loc580))
#loc767 = loc(callsite(#loc209 at #loc580))
#loc769 = loc(callsite(#loc211 at #loc580))
#loc770 = loc(callsite(#loc212 at #loc580))
#loc771 = loc(callsite(#loc213 at #loc580))
#loc772 = loc(callsite(#loc214 at #loc580))
#loc773 = loc(callsite(#loc215 at #loc580))
#loc774 = loc(callsite(#loc216 at #loc580))
#loc775 = loc(callsite(#loc217 at #loc580))
#loc776 = loc(callsite(#loc218 at #loc580))
#loc777 = loc(callsite(#loc219 at #loc580))
#loc778 = loc(callsite(#loc220 at #loc580))
#loc780 = loc(callsite(#loc222 at #loc580))
#loc781 = loc(callsite(#loc223 at #loc580))
#loc782 = loc(callsite(#loc224 at #loc580))
#loc783 = loc(callsite(#loc225 at #loc580))
#loc784 = loc(callsite(#loc226 at #loc580))
#loc785 = loc(callsite(#loc227 at #loc580))
#loc786 = loc(callsite(#loc228 at #loc580))
#loc787 = loc(callsite(#loc229 at #loc580))
#loc788 = loc(callsite(#loc230 at #loc580))
#loc790 = loc(callsite(#loc232 at #loc580))
#loc791 = loc(callsite(#loc233 at #loc580))
#loc792 = loc(callsite(#loc234 at #loc580))
#loc793 = loc(callsite(#loc235 at #loc580))
#loc794 = loc(callsite(#loc236 at #loc580))
#loc795 = loc(callsite(#loc237 at #loc580))
#loc796 = loc(callsite(#loc238 at #loc580))
#loc797 = loc(callsite(#loc239 at #loc580))
#loc798 = loc(callsite(#loc240 at #loc580))
#loc800 = loc(callsite(#loc242 at #loc580))
#loc801 = loc(callsite(#loc243 at #loc580))
#loc802 = loc(callsite(#loc244 at #loc580))
#loc803 = loc(callsite(#loc245 at #loc580))
#loc804 = loc(callsite(#loc246 at #loc580))
#loc805 = loc(callsite(#loc247 at #loc580))
#loc806 = loc(callsite(#loc248 at #loc580))
#loc807 = loc(callsite(#loc249 at #loc580))
#loc808 = loc(callsite(#loc250 at #loc580))
#loc809 = loc(callsite(#loc251 at #loc580))
#loc811 = loc(callsite(#loc253 at #loc580))
#loc812 = loc(callsite(#loc254 at #loc580))
#loc813 = loc(callsite(#loc255 at #loc580))
#loc814 = loc(callsite(#loc256 at #loc580))
#loc815 = loc(callsite(#loc257 at #loc580))
#loc816 = loc(callsite(#loc258 at #loc580))
#loc817 = loc(callsite(#loc259 at #loc580))
#loc818 = loc(callsite(#loc260 at #loc580))
#loc819 = loc(callsite(#loc261 at #loc580))
#loc821 = loc(callsite(#loc263 at #loc580))
#loc822 = loc(callsite(#loc264 at #loc580))
#loc823 = loc(callsite(#loc265 at #loc580))
#loc824 = loc(callsite(#loc266 at #loc580))
#loc825 = loc(callsite(#loc267 at #loc580))
#loc826 = loc(callsite(#loc268 at #loc580))
#loc827 = loc(callsite(#loc269 at #loc580))
#loc828 = loc(callsite(#loc270 at #loc580))
#loc830 = loc(callsite(#loc272 at #loc580))
#loc831 = loc(callsite(#loc273 at #loc580))
#loc832 = loc(callsite(#loc274 at #loc580))
#loc833 = loc(callsite(#loc275 at #loc580))
#loc834 = loc(callsite(#loc276 at #loc580))
#loc835 = loc(callsite(#loc277 at #loc580))
#loc836 = loc(callsite(#loc278 at #loc580))
#loc837 = loc(callsite(#loc279 at #loc580))
#loc838 = loc(callsite(#loc280 at #loc580))
#loc839 = loc(callsite(#loc281 at #loc580))
#loc841 = loc(callsite(#loc283 at #loc580))
#loc842 = loc(callsite(#loc284 at #loc580))
#loc843 = loc(callsite(#loc285 at #loc580))
#loc844 = loc(callsite(#loc286 at #loc580))
#loc845 = loc(callsite(#loc287 at #loc580))
#loc846 = loc(callsite(#loc288 at #loc580))
#loc847 = loc(callsite(#loc289 at #loc580))
#loc848 = loc(callsite(#loc290 at #loc580))
#loc850 = loc(callsite(#loc292 at #loc580))
#loc851 = loc(callsite(#loc293 at #loc580))
#loc852 = loc(callsite(#loc294 at #loc580))
#loc853 = loc(callsite(#loc295 at #loc580))
#loc854 = loc(callsite(#loc296 at #loc580))
#loc855 = loc(callsite(#loc297 at #loc580))
#loc856 = loc(callsite(#loc298 at #loc580))
#loc857 = loc(callsite(#loc299 at #loc580))
#loc858 = loc(callsite(#loc300 at #loc580))
#loc860 = loc(callsite(#loc302 at #loc580))
#loc861 = loc(callsite(#loc303 at #loc580))
#loc862 = loc(callsite(#loc304 at #loc580))
#loc863 = loc(callsite(#loc305 at #loc580))
#loc864 = loc(callsite(#loc306 at #loc580))
#loc865 = loc(callsite(#loc307 at #loc580))
#loc866 = loc(callsite(#loc308 at #loc580))
#loc867 = loc(callsite(#loc309 at #loc580))
#loc868 = loc(callsite(#loc310 at #loc580))
#loc870 = loc(callsite(#loc312 at #loc580))
#loc871 = loc(callsite(#loc313 at #loc580))
#loc872 = loc(callsite(#loc314 at #loc580))
#loc873 = loc(callsite(#loc315 at #loc580))
#loc874 = loc(callsite(#loc316 at #loc580))
#loc875 = loc(callsite(#loc317 at #loc580))
#loc876 = loc(callsite(#loc318 at #loc580))
#loc877 = loc(callsite(#loc319 at #loc580))
#loc878 = loc(callsite(#loc320 at #loc580))
#loc879 = loc(callsite(#loc321 at #loc580))
#loc881 = loc(callsite(#loc323 at #loc580))
#loc882 = loc(callsite(#loc324 at #loc580))
#loc883 = loc(callsite(#loc325 at #loc580))
#loc884 = loc(callsite(#loc326 at #loc580))
#loc885 = loc(callsite(#loc327 at #loc580))
#loc886 = loc(callsite(#loc328 at #loc580))
#loc887 = loc(callsite(#loc329 at #loc580))
#loc888 = loc(callsite(#loc330 at #loc580))
#loc889 = loc(callsite(#loc331 at #loc580))
#loc891 = loc(callsite(#loc333 at #loc580))
#loc892 = loc(callsite(#loc334 at #loc580))
#loc893 = loc(callsite(#loc335 at #loc580))
#loc894 = loc(callsite(#loc336 at #loc580))
#loc895 = loc(callsite(#loc337 at #loc580))
#loc896 = loc(callsite(#loc338 at #loc580))
#loc897 = loc(callsite(#loc339 at #loc580))
#loc898 = loc(callsite(#loc340 at #loc580))
#loc899 = loc(callsite(#loc341 at #loc580))
#loc901 = loc(callsite(#loc343 at #loc580))
#loc902 = loc(callsite(#loc344 at #loc580))
#loc903 = loc(callsite(#loc345 at #loc580))
#loc904 = loc(callsite(#loc346 at #loc580))
#loc905 = loc(callsite(#loc347 at #loc580))
#loc906 = loc(callsite(#loc348 at #loc580))
#loc907 = loc(callsite(#loc349 at #loc580))
#loc908 = loc(callsite(#loc350 at #loc580))
#loc909 = loc(callsite(#loc351 at #loc580))
#loc910 = loc(callsite(#loc352 at #loc580))
#loc912 = loc(callsite(#loc354 at #loc580))
#loc913 = loc(callsite(#loc355 at #loc580))
#loc914 = loc(callsite(#loc356 at #loc580))
#loc915 = loc(callsite(#loc357 at #loc580))
#loc916 = loc(callsite(#loc358 at #loc580))
#loc917 = loc(callsite(#loc359 at #loc580))
#loc918 = loc(callsite(#loc360 at #loc580))
#loc919 = loc(callsite(#loc361 at #loc580))
#loc920 = loc(callsite(#loc362 at #loc580))
#loc922 = loc(callsite(#loc364 at #loc580))
#loc923 = loc(callsite(#loc365 at #loc580))
#loc924 = loc(callsite(#loc366 at #loc580))
#loc925 = loc(callsite(#loc367 at #loc580))
#loc926 = loc(callsite(#loc368 at #loc580))
#loc927 = loc(callsite(#loc369 at #loc580))
#loc928 = loc(callsite(#loc370 at #loc580))
#loc929 = loc(callsite(#loc371 at #loc580))
#loc930 = loc(callsite(#loc372 at #loc580))
#loc932 = loc(callsite(#loc374 at #loc580))
#loc933 = loc(callsite(#loc375 at #loc580))
#loc934 = loc(callsite(#loc376 at #loc580))
#loc935 = loc(callsite(#loc377 at #loc580))
#loc936 = loc(callsite(#loc378 at #loc580))
#loc937 = loc(callsite(#loc379 at #loc580))
#loc938 = loc(callsite(#loc380 at #loc580))
#loc939 = loc(callsite(#loc381 at #loc580))
#loc940 = loc(callsite(#loc382 at #loc580))
#loc941 = loc(callsite(#loc383 at #loc580))
#loc943 = loc(callsite(#loc385 at #loc580))
#loc944 = loc(callsite(#loc386 at #loc580))
#loc945 = loc(callsite(#loc387 at #loc580))
#loc946 = loc(callsite(#loc388 at #loc580))
#loc947 = loc(callsite(#loc389 at #loc580))
#loc948 = loc(callsite(#loc390 at #loc580))
#loc949 = loc(callsite(#loc391 at #loc580))
#loc950 = loc(callsite(#loc392 at #loc580))
#loc951 = loc(callsite(#loc393 at #loc580))
#loc953 = loc(callsite(#loc395 at #loc580))
#loc954 = loc(callsite(#loc396 at #loc580))
#loc955 = loc(callsite(#loc397 at #loc580))
#loc956 = loc(callsite(#loc398 at #loc580))
#loc957 = loc(callsite(#loc399 at #loc580))
#loc958 = loc(callsite(#loc400 at #loc580))
#loc959 = loc(callsite(#loc401 at #loc580))
#loc960 = loc(callsite(#loc402 at #loc580))
#loc961 = loc(callsite(#loc403 at #loc580))
#loc963 = loc(callsite(#loc405 at #loc580))
#loc964 = loc(callsite(#loc406 at #loc580))
#loc965 = loc(callsite(#loc407 at #loc580))
#loc966 = loc(callsite(#loc408 at #loc580))
#loc967 = loc(callsite(#loc409 at #loc580))
#loc968 = loc(callsite(#loc410 at #loc580))
#loc969 = loc(callsite(#loc411 at #loc580))
#loc970 = loc(callsite(#loc412 at #loc580))
#loc971 = loc(callsite(#loc413 at #loc580))
#loc972 = loc(callsite(#loc414 at #loc580))
#loc974 = loc(callsite(#loc416 at #loc580))
#loc975 = loc(callsite(#loc417 at #loc580))
#loc976 = loc(callsite(#loc418 at #loc580))
#loc977 = loc(callsite(#loc419 at #loc580))
#loc978 = loc(callsite(#loc420 at #loc580))
#loc979 = loc(callsite(#loc421 at #loc580))
#loc980 = loc(callsite(#loc422 at #loc580))
#loc981 = loc(callsite(#loc423 at #loc580))
#loc982 = loc(callsite(#loc424 at #loc580))
#loc984 = loc(callsite(#loc426 at #loc580))
#loc985 = loc(callsite(#loc427 at #loc580))
#loc986 = loc(callsite(#loc428 at #loc580))
#loc987 = loc(callsite(#loc429 at #loc580))
#loc988 = loc(callsite(#loc430 at #loc580))
#loc989 = loc(callsite(#loc431 at #loc580))
#loc990 = loc(callsite(#loc432 at #loc580))
#loc991 = loc(callsite(#loc433 at #loc580))
#loc992 = loc(callsite(#loc434 at #loc580))
#loc994 = loc(callsite(#loc436 at #loc580))
#loc995 = loc(callsite(#loc437 at #loc580))
#loc996 = loc(callsite(#loc438 at #loc580))
#loc997 = loc(callsite(#loc439 at #loc580))
#loc998 = loc(callsite(#loc440 at #loc580))
#loc999 = loc(callsite(#loc441 at #loc580))
#loc1000 = loc(callsite(#loc442 at #loc580))
#loc1001 = loc(callsite(#loc443 at #loc580))
#loc1002 = loc(callsite(#loc444 at #loc580))
#loc1003 = loc(callsite(#loc445 at #loc580))
#loc1005 = loc(callsite(#loc447 at #loc580))
#loc1006 = loc(callsite(#loc448 at #loc580))
#loc1007 = loc(callsite(#loc449 at #loc580))
#loc1008 = loc(callsite(#loc450 at #loc580))
#loc1009 = loc(callsite(#loc451 at #loc580))
#loc1010 = loc(callsite(#loc452 at #loc580))
#loc1011 = loc(callsite(#loc453 at #loc580))
#loc1012 = loc(callsite(#loc454 at #loc580))
#loc1013 = loc(callsite(#loc455 at #loc580))
#loc1015 = loc(callsite(#loc457 at #loc580))
#loc1016 = loc(callsite(#loc458 at #loc580))
#loc1017 = loc(callsite(#loc459 at #loc580))
#loc1018 = loc(callsite(#loc460 at #loc580))
#loc1019 = loc(callsite(#loc461 at #loc580))
#loc1020 = loc(callsite(#loc462 at #loc580))
#loc1021 = loc(callsite(#loc463 at #loc580))
#loc1022 = loc(callsite(#loc464 at #loc580))
#loc1024 = loc(callsite(#loc466 at #loc580))
#loc1025 = loc(callsite(#loc467 at #loc580))
#loc1026 = loc(callsite(#loc468 at #loc580))
#loc1027 = loc(callsite(#loc469 at #loc580))
#loc1028 = loc(callsite(#loc470 at #loc580))
#loc1029 = loc(callsite(#loc471 at #loc580))
#loc1030 = loc(callsite(#loc472 at #loc580))
#loc1031 = loc(callsite(#loc473 at #loc580))
#loc1032 = loc(callsite(#loc474 at #loc580))
#loc1034 = loc(callsite(#loc476 at #loc580))
#loc1035 = loc(callsite(#loc477 at #loc580))
#loc1036 = loc(callsite(#loc478 at #loc580))
#loc1037 = loc(callsite(#loc479 at #loc580))
#loc1038 = loc(callsite(#loc480 at #loc580))
#loc1039 = loc(callsite(#loc481 at #loc580))
#loc1040 = loc(callsite(#loc482 at #loc580))
#loc1041 = loc(callsite(#loc483 at #loc580))
#loc1043 = loc(callsite(#loc485 at #loc580))
#loc1044 = loc(callsite(#loc486 at #loc580))
#loc1045 = loc(callsite(#loc487 at #loc580))
#loc1046 = loc(callsite(#loc488 at #loc580))
#loc1047 = loc(callsite(#loc489 at #loc580))
#loc1048 = loc(callsite(#loc490 at #loc580))
#loc1049 = loc(callsite(#loc491 at #loc580))
#loc1050 = loc(callsite(#loc492 at #loc580))
#loc1051 = loc(callsite(#loc493 at #loc580))
#loc1053 = loc(callsite(#loc495 at #loc580))
#loc1054 = loc(callsite(#loc496 at #loc580))
#loc1055 = loc(callsite(#loc497 at #loc580))
#loc1056 = loc(callsite(#loc498 at #loc580))
#loc1057 = loc(callsite(#loc499 at #loc580))
#loc1058 = loc(callsite(#loc500 at #loc580))
#loc1059 = loc(callsite(#loc501 at #loc580))
#loc1060 = loc(callsite(#loc502 at #loc580))
#loc1061 = loc(callsite(#loc503 at #loc580))
#loc1063 = loc(callsite(#loc505 at #loc580))
#loc1064 = loc(callsite(#loc506 at #loc580))
#loc1065 = loc(callsite(#loc507 at #loc580))
#loc1066 = loc(callsite(#loc508 at #loc580))
#loc1067 = loc(callsite(#loc509 at #loc580))
#loc1068 = loc(callsite(#loc510 at #loc580))
#loc1069 = loc(callsite(#loc511 at #loc580))
#loc1070 = loc(callsite(#loc512 at #loc580))
#loc1071 = loc(callsite(#loc513 at #loc580))
#loc1072 = loc(callsite(#loc514 at #loc580))
#loc1074 = loc(callsite(#loc516 at #loc580))
#loc1075 = loc(callsite(#loc517 at #loc580))
#loc1076 = loc(callsite(#loc518 at #loc580))
#loc1077 = loc(callsite(#loc519 at #loc580))
#loc1078 = loc(callsite(#loc520 at #loc580))
#loc1079 = loc(callsite(#loc521 at #loc580))
#loc1080 = loc(callsite(#loc522 at #loc580))
#loc1081 = loc(callsite(#loc523 at #loc580))
#loc1082 = loc(callsite(#loc524 at #loc580))
#loc1084 = loc(callsite(#loc526 at #loc580))
#loc1085 = loc(callsite(#loc527 at #loc580))
#loc1086 = loc(callsite(#loc528 at #loc580))
#loc1087 = loc(callsite(#loc529 at #loc580))
#loc1088 = loc(callsite(#loc530 at #loc580))
#loc1089 = loc(callsite(#loc531 at #loc580))
#loc1090 = loc(callsite(#loc532 at #loc580))
#loc1091 = loc(callsite(#loc533 at #loc580))
#loc1092 = loc(callsite(#loc534 at #loc580))
#loc1094 = loc(callsite(#loc536 at #loc580))
#loc1095 = loc(callsite(#loc537 at #loc580))
#loc1096 = loc(callsite(#loc538 at #loc580))
#loc1097 = loc(callsite(#loc539 at #loc580))
#loc1098 = loc(callsite(#loc540 at #loc580))
#loc1099 = loc(callsite(#loc541 at #loc580))
#loc1100 = loc(callsite(#loc542 at #loc580))
#loc1101 = loc(callsite(#loc543 at #loc580))
#loc1102 = loc(callsite(#loc544 at #loc580))
#loc1103 = loc(callsite(#loc545 at #loc580))
#loc1105 = loc(callsite(#loc547 at #loc580))
#loc1106 = loc(callsite(#loc548 at #loc580))
#loc1107 = loc(callsite(#loc549 at #loc580))
#loc1108 = loc(callsite(#loc550 at #loc580))
#loc1109 = loc(callsite(#loc551 at #loc580))
#loc1110 = loc(callsite(#loc552 at #loc580))
#loc1111 = loc(callsite(#loc553 at #loc580))
#loc1112 = loc(callsite(#loc554 at #loc580))
#loc1113 = loc(callsite(#loc555 at #loc580))
#loc1115 = loc(callsite(#loc557 at #loc580))
#loc1116 = loc(callsite(#loc558 at #loc580))
#loc1117 = loc(callsite(#loc559 at #loc580))
#loc1118 = loc(callsite(#loc560 at #loc580))
#loc1119 = loc(callsite(#loc561 at #loc580))
#loc1120 = loc(callsite(#loc562 at #loc580))
#loc1121 = loc(callsite(#loc563 at #loc580))
#loc1122 = loc(callsite(#loc564 at #loc580))
#loc1124 = loc(callsite(#loc566 at #loc580))
#loc1125 = loc(callsite(#loc567 at #loc580))
#loc1126 = loc(callsite(#loc568 at #loc580))
#loc1127 = loc(callsite(#loc569 at #loc580))
#loc1130 = loc(callsite(#loc572 at #loc580))
#loc1131 = loc(callsite(#loc573 at #loc580))
#loc1132 = loc(fused[#loc1, #loc581])
#loc1133 = loc(fused[#loc12, #loc582])
#loc1134 = loc(fused[#loc13, #loc583])
#loc1135 = loc(fused[#loc13, #loc584])
#loc1136 = loc(fused[#loc13, #loc585])
#loc1137 = loc(fused[#loc13, #loc586])
#loc1138 = loc(fused[#loc13, #loc587])
#loc1139 = loc(fused[#loc13, #loc588])
#loc1140 = loc(fused[#loc14, #loc589])
#loc1141 = loc(fused[#loc14, #loc590])
#loc1142 = loc(fused[#loc15, #loc591])
#loc1143 = loc(fused[#loc15, #loc592])
#loc1144 = loc(fused[#loc15, #loc593])
#loc1145 = loc(fused[#loc15, #loc594])
#loc1146 = loc(fused[#loc15, #loc595])
#loc1148 = loc(fused[#loc16, #loc597])
#loc1149 = loc(fused[#loc17, #loc598])
#loc1150 = loc(fused[#loc13, #loc599])
#loc1151 = loc(fused[#loc18, #loc600])
#loc1153 = loc(fused[#loc15, #loc602])
#loc1154 = loc(fused[#loc15, #loc603])
#loc1155 = loc(fused[#loc15, #loc604])
#loc1156 = loc(fused[#loc15, #loc605])
#loc1157 = loc(fused[#loc15, #loc606])
#loc1159 = loc(fused[#loc16, #loc608])
#loc1160 = loc(fused[#loc17, #loc609])
#loc1161 = loc(fused[#loc13, #loc610])
#loc1162 = loc(fused[#loc15, #loc611])
#loc1163 = loc(fused[#loc15, #loc612])
#loc1164 = loc(fused[#loc15, #loc613])
#loc1165 = loc(fused[#loc15, #loc614])
#loc1166 = loc(fused[#loc15, #loc615])
#loc1168 = loc(fused[#loc16, #loc617])
#loc1169 = loc(fused[#loc17, #loc618])
#loc1170 = loc(fused[#loc13, #loc619])
#loc1171 = loc(fused[#loc18, #loc620])
#loc1172 = loc(fused[#loc15, #loc621])
#loc1173 = loc(fused[#loc15, #loc622])
#loc1174 = loc(fused[#loc15, #loc623])
#loc1175 = loc(fused[#loc15, #loc624])
#loc1176 = loc(fused[#loc15, #loc625])
#loc1178 = loc(fused[#loc16, #loc627])
#loc1179 = loc(fused[#loc17, #loc628])
#loc1180 = loc(fused[#loc13, #loc629])
#loc1181 = loc(fused[#loc18, #loc630])
#loc1182 = loc(fused[#loc15, #loc631])
#loc1183 = loc(fused[#loc15, #loc632])
#loc1184 = loc(fused[#loc15, #loc633])
#loc1185 = loc(fused[#loc15, #loc634])
#loc1186 = loc(fused[#loc15, #loc635])
#loc1188 = loc(fused[#loc16, #loc637])
#loc1189 = loc(fused[#loc17, #loc638])
#loc1190 = loc(fused[#loc13, #loc639])
#loc1191 = loc(fused[#loc20, #loc640])
#loc1192 = loc(fused[#loc18, #loc641])
#loc1193 = loc(fused[#loc15, #loc642])
#loc1194 = loc(fused[#loc15, #loc643])
#loc1195 = loc(fused[#loc15, #loc644])
#loc1196 = loc(fused[#loc15, #loc645])
#loc1197 = loc(fused[#loc15, #loc646])
#loc1199 = loc(fused[#loc16, #loc648])
#loc1200 = loc(fused[#loc17, #loc649])
#loc1201 = loc(fused[#loc13, #loc650])
#loc1202 = loc(fused[#loc18, #loc651])
#loc1203 = loc(fused[#loc15, #loc652])
#loc1204 = loc(fused[#loc15, #loc653])
#loc1205 = loc(fused[#loc15, #loc654])
#loc1206 = loc(fused[#loc15, #loc655])
#loc1207 = loc(fused[#loc15, #loc656])
#loc1209 = loc(fused[#loc16, #loc658])
#loc1210 = loc(fused[#loc17, #loc659])
#loc1211 = loc(fused[#loc13, #loc660])
#loc1212 = loc(fused[#loc18, #loc661])
#loc1213 = loc(fused[#loc15, #loc662])
#loc1214 = loc(fused[#loc15, #loc663])
#loc1215 = loc(fused[#loc15, #loc664])
#loc1216 = loc(fused[#loc15, #loc665])
#loc1217 = loc(fused[#loc15, #loc666])
#loc1219 = loc(fused[#loc16, #loc668])
#loc1220 = loc(fused[#loc17, #loc669])
#loc1221 = loc(fused[#loc13, #loc670])
#loc1222 = loc(fused[#loc20, #loc671])
#loc1223 = loc(fused[#loc18, #loc672])
#loc1224 = loc(fused[#loc15, #loc673])
#loc1225 = loc(fused[#loc15, #loc674])
#loc1226 = loc(fused[#loc15, #loc675])
#loc1227 = loc(fused[#loc15, #loc676])
#loc1228 = loc(fused[#loc15, #loc677])
#loc1230 = loc(fused[#loc16, #loc679])
#loc1231 = loc(fused[#loc17, #loc680])
#loc1232 = loc(fused[#loc13, #loc681])
#loc1233 = loc(fused[#loc18, #loc682])
#loc1234 = loc(fused[#loc15, #loc683])
#loc1235 = loc(fused[#loc15, #loc684])
#loc1236 = loc(fused[#loc15, #loc685])
#loc1237 = loc(fused[#loc15, #loc686])
#loc1238 = loc(fused[#loc15, #loc687])
#loc1240 = loc(fused[#loc16, #loc689])
#loc1241 = loc(fused[#loc17, #loc690])
#loc1242 = loc(fused[#loc18, #loc691])
#loc1243 = loc(fused[#loc15, #loc692])
#loc1244 = loc(fused[#loc15, #loc693])
#loc1245 = loc(fused[#loc15, #loc694])
#loc1246 = loc(fused[#loc15, #loc695])
#loc1247 = loc(fused[#loc15, #loc696])
#loc1249 = loc(fused[#loc16, #loc698])
#loc1250 = loc(fused[#loc17, #loc699])
#loc1251 = loc(fused[#loc13, #loc700])
#loc1252 = loc(fused[#loc20, #loc701])
#loc1253 = loc(fused[#loc18, #loc702])
#loc1254 = loc(fused[#loc15, #loc703])
#loc1255 = loc(fused[#loc15, #loc704])
#loc1256 = loc(fused[#loc15, #loc705])
#loc1257 = loc(fused[#loc15, #loc706])
#loc1258 = loc(fused[#loc15, #loc707])
#loc1260 = loc(fused[#loc16, #loc709])
#loc1261 = loc(fused[#loc17, #loc710])
#loc1262 = loc(fused[#loc13, #loc711])
#loc1263 = loc(fused[#loc15, #loc712])
#loc1264 = loc(fused[#loc15, #loc713])
#loc1265 = loc(fused[#loc15, #loc714])
#loc1266 = loc(fused[#loc15, #loc715])
#loc1267 = loc(fused[#loc15, #loc716])
#loc1269 = loc(fused[#loc16, #loc718])
#loc1270 = loc(fused[#loc17, #loc719])
#loc1271 = loc(fused[#loc13, #loc720])
#loc1272 = loc(fused[#loc18, #loc721])
#loc1273 = loc(fused[#loc15, #loc722])
#loc1274 = loc(fused[#loc15, #loc723])
#loc1275 = loc(fused[#loc15, #loc724])
#loc1276 = loc(fused[#loc15, #loc725])
#loc1277 = loc(fused[#loc15, #loc726])
#loc1279 = loc(fused[#loc16, #loc728])
#loc1280 = loc(fused[#loc17, #loc729])
#loc1281 = loc(fused[#loc13, #loc730])
#loc1282 = loc(fused[#loc18, #loc731])
#loc1283 = loc(fused[#loc15, #loc732])
#loc1284 = loc(fused[#loc15, #loc733])
#loc1285 = loc(fused[#loc15, #loc734])
#loc1286 = loc(fused[#loc15, #loc735])
#loc1287 = loc(fused[#loc15, #loc736])
#loc1289 = loc(fused[#loc16, #loc738])
#loc1290 = loc(fused[#loc17, #loc739])
#loc1291 = loc(fused[#loc13, #loc740])
#loc1292 = loc(fused[#loc20, #loc741])
#loc1293 = loc(fused[#loc18, #loc742])
#loc1294 = loc(fused[#loc15, #loc743])
#loc1295 = loc(fused[#loc15, #loc744])
#loc1296 = loc(fused[#loc15, #loc745])
#loc1297 = loc(fused[#loc15, #loc746])
#loc1298 = loc(fused[#loc15, #loc747])
#loc1300 = loc(fused[#loc16, #loc749])
#loc1301 = loc(fused[#loc17, #loc750])
#loc1302 = loc(fused[#loc13, #loc751])
#loc1303 = loc(fused[#loc18, #loc752])
#loc1304 = loc(fused[#loc15, #loc753])
#loc1305 = loc(fused[#loc15, #loc754])
#loc1306 = loc(fused[#loc15, #loc755])
#loc1307 = loc(fused[#loc15, #loc756])
#loc1308 = loc(fused[#loc15, #loc757])
#loc1310 = loc(fused[#loc16, #loc759])
#loc1311 = loc(fused[#loc17, #loc760])
#loc1312 = loc(fused[#loc13, #loc761])
#loc1313 = loc(fused[#loc18, #loc762])
#loc1314 = loc(fused[#loc15, #loc763])
#loc1315 = loc(fused[#loc15, #loc764])
#loc1316 = loc(fused[#loc15, #loc765])
#loc1317 = loc(fused[#loc15, #loc766])
#loc1318 = loc(fused[#loc15, #loc767])
#loc1320 = loc(fused[#loc16, #loc769])
#loc1321 = loc(fused[#loc17, #loc770])
#loc1322 = loc(fused[#loc13, #loc771])
#loc1323 = loc(fused[#loc20, #loc772])
#loc1324 = loc(fused[#loc18, #loc773])
#loc1325 = loc(fused[#loc15, #loc774])
#loc1326 = loc(fused[#loc15, #loc775])
#loc1327 = loc(fused[#loc15, #loc776])
#loc1328 = loc(fused[#loc15, #loc777])
#loc1329 = loc(fused[#loc15, #loc778])
#loc1331 = loc(fused[#loc16, #loc780])
#loc1332 = loc(fused[#loc17, #loc781])
#loc1333 = loc(fused[#loc13, #loc782])
#loc1334 = loc(fused[#loc18, #loc783])
#loc1335 = loc(fused[#loc15, #loc784])
#loc1336 = loc(fused[#loc15, #loc785])
#loc1337 = loc(fused[#loc15, #loc786])
#loc1338 = loc(fused[#loc15, #loc787])
#loc1339 = loc(fused[#loc15, #loc788])
#loc1341 = loc(fused[#loc16, #loc790])
#loc1342 = loc(fused[#loc17, #loc791])
#loc1343 = loc(fused[#loc13, #loc792])
#loc1344 = loc(fused[#loc18, #loc793])
#loc1345 = loc(fused[#loc15, #loc794])
#loc1346 = loc(fused[#loc15, #loc795])
#loc1347 = loc(fused[#loc15, #loc796])
#loc1348 = loc(fused[#loc15, #loc797])
#loc1349 = loc(fused[#loc15, #loc798])
#loc1351 = loc(fused[#loc16, #loc800])
#loc1352 = loc(fused[#loc17, #loc801])
#loc1353 = loc(fused[#loc13, #loc802])
#loc1354 = loc(fused[#loc20, #loc803])
#loc1355 = loc(fused[#loc18, #loc804])
#loc1356 = loc(fused[#loc15, #loc805])
#loc1357 = loc(fused[#loc15, #loc806])
#loc1358 = loc(fused[#loc15, #loc807])
#loc1359 = loc(fused[#loc15, #loc808])
#loc1360 = loc(fused[#loc15, #loc809])
#loc1362 = loc(fused[#loc16, #loc811])
#loc1363 = loc(fused[#loc17, #loc812])
#loc1364 = loc(fused[#loc13, #loc813])
#loc1365 = loc(fused[#loc18, #loc814])
#loc1366 = loc(fused[#loc15, #loc815])
#loc1367 = loc(fused[#loc15, #loc816])
#loc1368 = loc(fused[#loc15, #loc817])
#loc1369 = loc(fused[#loc15, #loc818])
#loc1370 = loc(fused[#loc15, #loc819])
#loc1372 = loc(fused[#loc16, #loc821])
#loc1373 = loc(fused[#loc17, #loc822])
#loc1374 = loc(fused[#loc18, #loc823])
#loc1375 = loc(fused[#loc15, #loc824])
#loc1376 = loc(fused[#loc15, #loc825])
#loc1377 = loc(fused[#loc15, #loc826])
#loc1378 = loc(fused[#loc15, #loc827])
#loc1379 = loc(fused[#loc15, #loc828])
#loc1381 = loc(fused[#loc16, #loc830])
#loc1382 = loc(fused[#loc17, #loc831])
#loc1383 = loc(fused[#loc13, #loc832])
#loc1384 = loc(fused[#loc20, #loc833])
#loc1385 = loc(fused[#loc18, #loc834])
#loc1386 = loc(fused[#loc15, #loc835])
#loc1387 = loc(fused[#loc15, #loc836])
#loc1388 = loc(fused[#loc15, #loc837])
#loc1389 = loc(fused[#loc15, #loc838])
#loc1390 = loc(fused[#loc15, #loc839])
#loc1392 = loc(fused[#loc16, #loc841])
#loc1393 = loc(fused[#loc17, #loc842])
#loc1394 = loc(fused[#loc13, #loc843])
#loc1395 = loc(fused[#loc15, #loc844])
#loc1396 = loc(fused[#loc15, #loc845])
#loc1397 = loc(fused[#loc15, #loc846])
#loc1398 = loc(fused[#loc15, #loc847])
#loc1399 = loc(fused[#loc15, #loc848])
#loc1401 = loc(fused[#loc16, #loc850])
#loc1402 = loc(fused[#loc17, #loc851])
#loc1403 = loc(fused[#loc13, #loc852])
#loc1404 = loc(fused[#loc18, #loc853])
#loc1405 = loc(fused[#loc15, #loc854])
#loc1406 = loc(fused[#loc15, #loc855])
#loc1407 = loc(fused[#loc15, #loc856])
#loc1408 = loc(fused[#loc15, #loc857])
#loc1409 = loc(fused[#loc15, #loc858])
#loc1411 = loc(fused[#loc16, #loc860])
#loc1412 = loc(fused[#loc17, #loc861])
#loc1413 = loc(fused[#loc13, #loc862])
#loc1414 = loc(fused[#loc18, #loc863])
#loc1415 = loc(fused[#loc15, #loc864])
#loc1416 = loc(fused[#loc15, #loc865])
#loc1417 = loc(fused[#loc15, #loc866])
#loc1418 = loc(fused[#loc15, #loc867])
#loc1419 = loc(fused[#loc15, #loc868])
#loc1421 = loc(fused[#loc16, #loc870])
#loc1422 = loc(fused[#loc17, #loc871])
#loc1423 = loc(fused[#loc13, #loc872])
#loc1424 = loc(fused[#loc20, #loc873])
#loc1425 = loc(fused[#loc18, #loc874])
#loc1426 = loc(fused[#loc15, #loc875])
#loc1427 = loc(fused[#loc15, #loc876])
#loc1428 = loc(fused[#loc15, #loc877])
#loc1429 = loc(fused[#loc15, #loc878])
#loc1430 = loc(fused[#loc15, #loc879])
#loc1432 = loc(fused[#loc16, #loc881])
#loc1433 = loc(fused[#loc17, #loc882])
#loc1434 = loc(fused[#loc13, #loc883])
#loc1435 = loc(fused[#loc18, #loc884])
#loc1436 = loc(fused[#loc15, #loc885])
#loc1437 = loc(fused[#loc15, #loc886])
#loc1438 = loc(fused[#loc15, #loc887])
#loc1439 = loc(fused[#loc15, #loc888])
#loc1440 = loc(fused[#loc15, #loc889])
#loc1442 = loc(fused[#loc16, #loc891])
#loc1443 = loc(fused[#loc17, #loc892])
#loc1444 = loc(fused[#loc13, #loc893])
#loc1445 = loc(fused[#loc18, #loc894])
#loc1446 = loc(fused[#loc15, #loc895])
#loc1447 = loc(fused[#loc15, #loc896])
#loc1448 = loc(fused[#loc15, #loc897])
#loc1449 = loc(fused[#loc15, #loc898])
#loc1450 = loc(fused[#loc15, #loc899])
#loc1452 = loc(fused[#loc16, #loc901])
#loc1453 = loc(fused[#loc17, #loc902])
#loc1454 = loc(fused[#loc13, #loc903])
#loc1455 = loc(fused[#loc20, #loc904])
#loc1456 = loc(fused[#loc18, #loc905])
#loc1457 = loc(fused[#loc15, #loc906])
#loc1458 = loc(fused[#loc15, #loc907])
#loc1459 = loc(fused[#loc15, #loc908])
#loc1460 = loc(fused[#loc15, #loc909])
#loc1461 = loc(fused[#loc15, #loc910])
#loc1463 = loc(fused[#loc16, #loc912])
#loc1464 = loc(fused[#loc17, #loc913])
#loc1465 = loc(fused[#loc13, #loc914])
#loc1466 = loc(fused[#loc18, #loc915])
#loc1467 = loc(fused[#loc15, #loc916])
#loc1468 = loc(fused[#loc15, #loc917])
#loc1469 = loc(fused[#loc15, #loc918])
#loc1470 = loc(fused[#loc15, #loc919])
#loc1471 = loc(fused[#loc15, #loc920])
#loc1473 = loc(fused[#loc16, #loc922])
#loc1474 = loc(fused[#loc17, #loc923])
#loc1475 = loc(fused[#loc13, #loc924])
#loc1476 = loc(fused[#loc18, #loc925])
#loc1477 = loc(fused[#loc15, #loc926])
#loc1478 = loc(fused[#loc15, #loc927])
#loc1479 = loc(fused[#loc15, #loc928])
#loc1480 = loc(fused[#loc15, #loc929])
#loc1481 = loc(fused[#loc15, #loc930])
#loc1483 = loc(fused[#loc16, #loc932])
#loc1484 = loc(fused[#loc17, #loc933])
#loc1485 = loc(fused[#loc13, #loc934])
#loc1486 = loc(fused[#loc20, #loc935])
#loc1487 = loc(fused[#loc18, #loc936])
#loc1488 = loc(fused[#loc15, #loc937])
#loc1489 = loc(fused[#loc15, #loc938])
#loc1490 = loc(fused[#loc15, #loc939])
#loc1491 = loc(fused[#loc15, #loc940])
#loc1492 = loc(fused[#loc15, #loc941])
#loc1494 = loc(fused[#loc16, #loc943])
#loc1495 = loc(fused[#loc17, #loc944])
#loc1496 = loc(fused[#loc13, #loc945])
#loc1497 = loc(fused[#loc18, #loc946])
#loc1498 = loc(fused[#loc15, #loc947])
#loc1499 = loc(fused[#loc15, #loc948])
#loc1500 = loc(fused[#loc15, #loc949])
#loc1501 = loc(fused[#loc15, #loc950])
#loc1502 = loc(fused[#loc15, #loc951])
#loc1504 = loc(fused[#loc16, #loc953])
#loc1505 = loc(fused[#loc17, #loc954])
#loc1506 = loc(fused[#loc13, #loc955])
#loc1507 = loc(fused[#loc18, #loc956])
#loc1508 = loc(fused[#loc15, #loc957])
#loc1509 = loc(fused[#loc15, #loc958])
#loc1510 = loc(fused[#loc15, #loc959])
#loc1511 = loc(fused[#loc15, #loc960])
#loc1512 = loc(fused[#loc15, #loc961])
#loc1514 = loc(fused[#loc16, #loc963])
#loc1515 = loc(fused[#loc17, #loc964])
#loc1516 = loc(fused[#loc13, #loc965])
#loc1517 = loc(fused[#loc20, #loc966])
#loc1518 = loc(fused[#loc18, #loc967])
#loc1519 = loc(fused[#loc15, #loc968])
#loc1520 = loc(fused[#loc15, #loc969])
#loc1521 = loc(fused[#loc15, #loc970])
#loc1522 = loc(fused[#loc15, #loc971])
#loc1523 = loc(fused[#loc15, #loc972])
#loc1525 = loc(fused[#loc16, #loc974])
#loc1526 = loc(fused[#loc17, #loc975])
#loc1527 = loc(fused[#loc13, #loc976])
#loc1528 = loc(fused[#loc18, #loc977])
#loc1529 = loc(fused[#loc15, #loc978])
#loc1530 = loc(fused[#loc15, #loc979])
#loc1531 = loc(fused[#loc15, #loc980])
#loc1532 = loc(fused[#loc15, #loc981])
#loc1533 = loc(fused[#loc15, #loc982])
#loc1535 = loc(fused[#loc16, #loc984])
#loc1536 = loc(fused[#loc17, #loc985])
#loc1537 = loc(fused[#loc13, #loc986])
#loc1538 = loc(fused[#loc18, #loc987])
#loc1539 = loc(fused[#loc15, #loc988])
#loc1540 = loc(fused[#loc15, #loc989])
#loc1541 = loc(fused[#loc15, #loc990])
#loc1542 = loc(fused[#loc15, #loc991])
#loc1543 = loc(fused[#loc15, #loc992])
#loc1545 = loc(fused[#loc16, #loc994])
#loc1546 = loc(fused[#loc17, #loc995])
#loc1547 = loc(fused[#loc13, #loc996])
#loc1548 = loc(fused[#loc20, #loc997])
#loc1549 = loc(fused[#loc18, #loc998])
#loc1550 = loc(fused[#loc15, #loc999])
#loc1551 = loc(fused[#loc15, #loc1000])
#loc1552 = loc(fused[#loc15, #loc1001])
#loc1553 = loc(fused[#loc15, #loc1002])
#loc1554 = loc(fused[#loc15, #loc1003])
#loc1556 = loc(fused[#loc16, #loc1005])
#loc1557 = loc(fused[#loc17, #loc1006])
#loc1558 = loc(fused[#loc13, #loc1007])
#loc1559 = loc(fused[#loc18, #loc1008])
#loc1560 = loc(fused[#loc15, #loc1009])
#loc1561 = loc(fused[#loc15, #loc1010])
#loc1562 = loc(fused[#loc15, #loc1011])
#loc1563 = loc(fused[#loc15, #loc1012])
#loc1564 = loc(fused[#loc15, #loc1013])
#loc1566 = loc(fused[#loc16, #loc1015])
#loc1567 = loc(fused[#loc17, #loc1016])
#loc1568 = loc(fused[#loc18, #loc1017])
#loc1569 = loc(fused[#loc15, #loc1018])
#loc1570 = loc(fused[#loc15, #loc1019])
#loc1571 = loc(fused[#loc15, #loc1020])
#loc1572 = loc(fused[#loc15, #loc1021])
#loc1573 = loc(fused[#loc15, #loc1022])
#loc1575 = loc(fused[#loc16, #loc1024])
#loc1576 = loc(fused[#loc17, #loc1025])
#loc1577 = loc(fused[#loc20, #loc1026])
#loc1578 = loc(fused[#loc18, #loc1027])
#loc1579 = loc(fused[#loc15, #loc1028])
#loc1580 = loc(fused[#loc15, #loc1029])
#loc1581 = loc(fused[#loc15, #loc1030])
#loc1582 = loc(fused[#loc15, #loc1031])
#loc1583 = loc(fused[#loc15, #loc1032])
#loc1585 = loc(fused[#loc16, #loc1034])
#loc1586 = loc(fused[#loc17, #loc1035])
#loc1587 = loc(fused[#loc13, #loc1036])
#loc1588 = loc(fused[#loc15, #loc1037])
#loc1589 = loc(fused[#loc15, #loc1038])
#loc1590 = loc(fused[#loc15, #loc1039])
#loc1591 = loc(fused[#loc15, #loc1040])
#loc1592 = loc(fused[#loc15, #loc1041])
#loc1594 = loc(fused[#loc16, #loc1043])
#loc1595 = loc(fused[#loc17, #loc1044])
#loc1596 = loc(fused[#loc13, #loc1045])
#loc1597 = loc(fused[#loc18, #loc1046])
#loc1598 = loc(fused[#loc15, #loc1047])
#loc1599 = loc(fused[#loc15, #loc1048])
#loc1600 = loc(fused[#loc15, #loc1049])
#loc1601 = loc(fused[#loc15, #loc1050])
#loc1602 = loc(fused[#loc15, #loc1051])
#loc1604 = loc(fused[#loc16, #loc1053])
#loc1605 = loc(fused[#loc17, #loc1054])
#loc1606 = loc(fused[#loc13, #loc1055])
#loc1607 = loc(fused[#loc18, #loc1056])
#loc1608 = loc(fused[#loc15, #loc1057])
#loc1609 = loc(fused[#loc15, #loc1058])
#loc1610 = loc(fused[#loc15, #loc1059])
#loc1611 = loc(fused[#loc15, #loc1060])
#loc1612 = loc(fused[#loc15, #loc1061])
#loc1614 = loc(fused[#loc16, #loc1063])
#loc1615 = loc(fused[#loc17, #loc1064])
#loc1616 = loc(fused[#loc13, #loc1065])
#loc1617 = loc(fused[#loc20, #loc1066])
#loc1618 = loc(fused[#loc18, #loc1067])
#loc1619 = loc(fused[#loc15, #loc1068])
#loc1620 = loc(fused[#loc15, #loc1069])
#loc1621 = loc(fused[#loc15, #loc1070])
#loc1622 = loc(fused[#loc15, #loc1071])
#loc1623 = loc(fused[#loc15, #loc1072])
#loc1625 = loc(fused[#loc16, #loc1074])
#loc1626 = loc(fused[#loc17, #loc1075])
#loc1627 = loc(fused[#loc13, #loc1076])
#loc1628 = loc(fused[#loc18, #loc1077])
#loc1629 = loc(fused[#loc15, #loc1078])
#loc1630 = loc(fused[#loc15, #loc1079])
#loc1631 = loc(fused[#loc15, #loc1080])
#loc1632 = loc(fused[#loc15, #loc1081])
#loc1633 = loc(fused[#loc15, #loc1082])
#loc1635 = loc(fused[#loc16, #loc1084])
#loc1636 = loc(fused[#loc17, #loc1085])
#loc1637 = loc(fused[#loc13, #loc1086])
#loc1638 = loc(fused[#loc18, #loc1087])
#loc1639 = loc(fused[#loc15, #loc1088])
#loc1640 = loc(fused[#loc15, #loc1089])
#loc1641 = loc(fused[#loc15, #loc1090])
#loc1642 = loc(fused[#loc15, #loc1091])
#loc1643 = loc(fused[#loc15, #loc1092])
#loc1645 = loc(fused[#loc16, #loc1094])
#loc1646 = loc(fused[#loc17, #loc1095])
#loc1647 = loc(fused[#loc13, #loc1096])
#loc1648 = loc(fused[#loc20, #loc1097])
#loc1649 = loc(fused[#loc18, #loc1098])
#loc1650 = loc(fused[#loc15, #loc1099])
#loc1651 = loc(fused[#loc15, #loc1100])
#loc1652 = loc(fused[#loc15, #loc1101])
#loc1653 = loc(fused[#loc15, #loc1102])
#loc1654 = loc(fused[#loc15, #loc1103])
#loc1656 = loc(fused[#loc16, #loc1105])
#loc1657 = loc(fused[#loc17, #loc1106])
#loc1658 = loc(fused[#loc13, #loc1107])
#loc1659 = loc(fused[#loc18, #loc1108])
#loc1660 = loc(fused[#loc15, #loc1109])
#loc1661 = loc(fused[#loc15, #loc1110])
#loc1662 = loc(fused[#loc15, #loc1111])
#loc1663 = loc(fused[#loc15, #loc1112])
#loc1664 = loc(fused[#loc15, #loc1113])
#loc1666 = loc(fused[#loc16, #loc1115])
#loc1667 = loc(fused[#loc17, #loc1116])
#loc1668 = loc(fused[#loc18, #loc1117])
#loc1669 = loc(fused[#loc15, #loc1118])
#loc1670 = loc(fused[#loc15, #loc1119])
#loc1671 = loc(fused[#loc15, #loc1120])
#loc1672 = loc(fused[#loc15, #loc1121])
#loc1673 = loc(fused[#loc15, #loc1122])
#loc1675 = loc(fused[#loc16, #loc1124])
#loc1676 = loc(fused[#loc17, #loc1125])
#loc1677 = loc(fused[#loc20, #loc1126])
#loc1678 = loc(fused[#loc18, #loc1127])
#loc1681 = loc(fused[#loc21, #loc1130])
#loc1682 = loc(fused[#loc17, #loc1131])
module {
  ml_program.global private @"__sm_node202__resnet50.layer-2.kernel"(dense_resource<__elided__> : tensor<7x7x3x64xf32>) : tensor<7x7x3x64xf32> loc(#loc)
  ml_program.global private @"__sm_node203__resnet50.layer-2.bias"(dense_resource<__elided__> : tensor<64xf32>) : tensor<64xf32> loc(#loc)
  ml_program.global private @"__sm_node212__resnet50.layer-3.gamma"(dense_resource<__elided__> : tensor<64xf32>) : tensor<64xf32> loc(#loc)
  ml_program.global private @"__sm_node213__resnet50.layer-3.beta"(dense_resource<__elided__> : tensor<64xf32>) : tensor<64xf32> loc(#loc)
  ml_program.global private @"__sm_node214__resnet50.layer-3.moving_mean"(dense_resource<__elided__> : tensor<64xf32>) : tensor<64xf32> loc(#loc)
  ml_program.global private @"__sm_node215__resnet50.layer-3.moving_variance"(dense_resource<__elided__> : tensor<64xf32>) : tensor<64xf32> loc(#loc)
  ml_program.global private @"__sm_node240__resnet50.layer-7.kernel"(dense_resource<__elided__> : tensor<1x1x64x64xf32>) : tensor<1x1x64x64xf32> loc(#loc)
  ml_program.global private @"__sm_node241__resnet50.layer-7.bias"(dense<0.000000e+00> : tensor<64xf32>) : tensor<64xf32> loc(#loc)
  ml_program.global private @"__sm_node250__resnet50.layer-8.gamma"(dense_resource<__elided__> : tensor<64xf32>) : tensor<64xf32> loc(#loc)
  ml_program.global private @"__sm_node251__resnet50.layer-8.beta"(dense_resource<__elided__> : tensor<64xf32>) : tensor<64xf32> loc(#loc)
  ml_program.global private @"__sm_node252__resnet50.layer-8.moving_mean"(dense_resource<__elided__> : tensor<64xf32>) : tensor<64xf32> loc(#loc)
  ml_program.global private @"__sm_node253__resnet50.layer-8.moving_variance"(dense_resource<__elided__> : tensor<64xf32>) : tensor<64xf32> loc(#loc)
  ml_program.global private @"__sm_node266__resnet50.layer-10.kernel"(dense_resource<__elided__> : tensor<3x3x64x64xf32>) : tensor<3x3x64x64xf32> loc(#loc)
  ml_program.global private @"__sm_node267__resnet50.layer-10.bias"(dense<0.000000e+00> : tensor<64xf32>) : tensor<64xf32> loc(#loc)
  ml_program.global private @"__sm_node276__resnet50.layer-11.gamma"(dense_resource<__elided__> : tensor<64xf32>) : tensor<64xf32> loc(#loc)
  ml_program.global private @"__sm_node277__resnet50.layer-11.beta"(dense_resource<__elided__> : tensor<64xf32>) : tensor<64xf32> loc(#loc)
  ml_program.global private @"__sm_node278__resnet50.layer-11.moving_mean"(dense_resource<__elided__> : tensor<64xf32>) : tensor<64xf32> loc(#loc)
  ml_program.global private @"__sm_node279__resnet50.layer-11.moving_variance"(dense_resource<__elided__> : tensor<64xf32>) : tensor<64xf32> loc(#loc)
  ml_program.global private @"__sm_node292__resnet50.layer-13.kernel"(dense_resource<__elided__> : tensor<1x1x64x256xf32>) : tensor<1x1x64x256xf32> loc(#loc)
  ml_program.global private @"__sm_node293__resnet50.layer-13.bias"(dense<0.000000e+00> : tensor<256xf32>) : tensor<256xf32> loc(#loc)
  ml_program.global private @"__sm_node301__resnet50.layer-14.kernel"(dense_resource<__elided__> : tensor<1x1x64x256xf32>) : tensor<1x1x64x256xf32> loc(#loc)
  ml_program.global private @"__sm_node302__resnet50.layer-14.bias"(dense<0.000000e+00> : tensor<256xf32>) : tensor<256xf32> loc(#loc)
  ml_program.global private @"__sm_node311__resnet50.layer-15.gamma"(dense_resource<__elided__> : tensor<256xf32>) : tensor<256xf32> loc(#loc)
  ml_program.global private @"__sm_node312__resnet50.layer-15.beta"(dense_resource<__elided__> : tensor<256xf32>) : tensor<256xf32> loc(#loc)
  ml_program.global private @"__sm_node313__resnet50.layer-15.moving_mean"(dense_resource<__elided__> : tensor<256xf32>) : tensor<256xf32> loc(#loc)
  ml_program.global private @"__sm_node314__resnet50.layer-15.moving_variance"(dense_resource<__elided__> : tensor<256xf32>) : tensor<256xf32> loc(#loc)
  ml_program.global private @"__sm_node322__resnet50.layer-16.gamma"(dense_resource<__elided__> : tensor<256xf32>) : tensor<256xf32> loc(#loc)
  ml_program.global private @"__sm_node323__resnet50.layer-16.beta"(dense_resource<__elided__> : tensor<256xf32>) : tensor<256xf32> loc(#loc)
  ml_program.global private @"__sm_node324__resnet50.layer-16.moving_mean"(dense_resource<__elided__> : tensor<256xf32>) : tensor<256xf32> loc(#loc)
  ml_program.global private @"__sm_node325__resnet50.layer-16.moving_variance"(dense_resource<__elided__> : tensor<256xf32>) : tensor<256xf32> loc(#loc)
  ml_program.global private @"__sm_node344__resnet50.layer-19.kernel"(dense_resource<__elided__> : tensor<1x1x256x64xf32>) : tensor<1x1x256x64xf32> loc(#loc)
  ml_program.global private @"__sm_node345__resnet50.layer-19.bias"(dense<0.000000e+00> : tensor<64xf32>) : tensor<64xf32> loc(#loc)
  ml_program.global private @"__sm_node354__resnet50.layer-20.gamma"(dense_resource<__elided__> : tensor<64xf32>) : tensor<64xf32> loc(#loc)
  ml_program.global private @"__sm_node355__resnet50.layer-20.beta"(dense_resource<__elided__> : tensor<64xf32>) : tensor<64xf32> loc(#loc)
  ml_program.global private @"__sm_node356__resnet50.layer-20.moving_mean"(dense_resource<__elided__> : tensor<64xf32>) : tensor<64xf32> loc(#loc)
  ml_program.global private @"__sm_node357__resnet50.layer-20.moving_variance"(dense_resource<__elided__> : tensor<64xf32>) : tensor<64xf32> loc(#loc)
  ml_program.global private @"__sm_node370__resnet50.layer-22.kernel"(dense_resource<__elided__> : tensor<3x3x64x64xf32>) : tensor<3x3x64x64xf32> loc(#loc)
  ml_program.global private @"__sm_node371__resnet50.layer-22.bias"(dense<0.000000e+00> : tensor<64xf32>) : tensor<64xf32> loc(#loc)
  ml_program.global private @"__sm_node380__resnet50.layer-23.gamma"(dense_resource<__elided__> : tensor<64xf32>) : tensor<64xf32> loc(#loc)
  ml_program.global private @"__sm_node381__resnet50.layer-23.beta"(dense_resource<__elided__> : tensor<64xf32>) : tensor<64xf32> loc(#loc)
  ml_program.global private @"__sm_node382__resnet50.layer-23.moving_mean"(dense_resource<__elided__> : tensor<64xf32>) : tensor<64xf32> loc(#loc)
  ml_program.global private @"__sm_node383__resnet50.layer-23.moving_variance"(dense_resource<__elided__> : tensor<64xf32>) : tensor<64xf32> loc(#loc)
  ml_program.global private @"__sm_node396__resnet50.layer-25.kernel"(dense_resource<__elided__> : tensor<1x1x64x256xf32>) : tensor<1x1x64x256xf32> loc(#loc)
  ml_program.global private @"__sm_node397__resnet50.layer-25.bias"(dense<0.000000e+00> : tensor<256xf32>) : tensor<256xf32> loc(#loc)
  ml_program.global private @"__sm_node406__resnet50.layer-26.gamma"(dense_resource<__elided__> : tensor<256xf32>) : tensor<256xf32> loc(#loc)
  ml_program.global private @"__sm_node407__resnet50.layer-26.beta"(dense_resource<__elided__> : tensor<256xf32>) : tensor<256xf32> loc(#loc)
  ml_program.global private @"__sm_node408__resnet50.layer-26.moving_mean"(dense_resource<__elided__> : tensor<256xf32>) : tensor<256xf32> loc(#loc)
  ml_program.global private @"__sm_node409__resnet50.layer-26.moving_variance"(dense_resource<__elided__> : tensor<256xf32>) : tensor<256xf32> loc(#loc)
  ml_program.global private @"__sm_node428__resnet50.layer-29.kernel"(dense_resource<__elided__> : tensor<1x1x256x64xf32>) : tensor<1x1x256x64xf32> loc(#loc)
  ml_program.global private @"__sm_node429__resnet50.layer-29.bias"(dense<0.000000e+00> : tensor<64xf32>) : tensor<64xf32> loc(#loc)
  ml_program.global private @"__sm_node438__resnet50.layer-30.gamma"(dense_resource<__elided__> : tensor<64xf32>) : tensor<64xf32> loc(#loc)
  ml_program.global private @"__sm_node439__resnet50.layer-30.beta"(dense_resource<__elided__> : tensor<64xf32>) : tensor<64xf32> loc(#loc)
  ml_program.global private @"__sm_node440__resnet50.layer-30.moving_mean"(dense_resource<__elided__> : tensor<64xf32>) : tensor<64xf32> loc(#loc)
  ml_program.global private @"__sm_node441__resnet50.layer-30.moving_variance"(dense_resource<__elided__> : tensor<64xf32>) : tensor<64xf32> loc(#loc)
  ml_program.global private @"__sm_node454__resnet50.layer-32.kernel"(dense_resource<__elided__> : tensor<3x3x64x64xf32>) : tensor<3x3x64x64xf32> loc(#loc)
  ml_program.global private @"__sm_node455__resnet50.layer-32.bias"(dense<0.000000e+00> : tensor<64xf32>) : tensor<64xf32> loc(#loc)
  ml_program.global private @"__sm_node464__resnet50.layer-33.gamma"(dense_resource<__elided__> : tensor<64xf32>) : tensor<64xf32> loc(#loc)
  ml_program.global private @"__sm_node465__resnet50.layer-33.beta"(dense_resource<__elided__> : tensor<64xf32>) : tensor<64xf32> loc(#loc)
  ml_program.global private @"__sm_node466__resnet50.layer-33.moving_mean"(dense_resource<__elided__> : tensor<64xf32>) : tensor<64xf32> loc(#loc)
  ml_program.global private @"__sm_node467__resnet50.layer-33.moving_variance"(dense_resource<__elided__> : tensor<64xf32>) : tensor<64xf32> loc(#loc)
  ml_program.global private @"__sm_node480__resnet50.layer-35.kernel"(dense_resource<__elided__> : tensor<1x1x64x256xf32>) : tensor<1x1x64x256xf32> loc(#loc)
  ml_program.global private @"__sm_node481__resnet50.layer-35.bias"(dense<0.000000e+00> : tensor<256xf32>) : tensor<256xf32> loc(#loc)
  ml_program.global private @"__sm_node490__resnet50.layer-36.gamma"(dense_resource<__elided__> : tensor<256xf32>) : tensor<256xf32> loc(#loc)
  ml_program.global private @"__sm_node491__resnet50.layer-36.beta"(dense_resource<__elided__> : tensor<256xf32>) : tensor<256xf32> loc(#loc)
  ml_program.global private @"__sm_node492__resnet50.layer-36.moving_mean"(dense_resource<__elided__> : tensor<256xf32>) : tensor<256xf32> loc(#loc)
  ml_program.global private @"__sm_node493__resnet50.layer-36.moving_variance"(dense_resource<__elided__> : tensor<256xf32>) : tensor<256xf32> loc(#loc)
  ml_program.global private @"__sm_node512__resnet50.layer-39.kernel"(dense_resource<__elided__> : tensor<1x1x256x128xf32>) : tensor<1x1x256x128xf32> loc(#loc)
  ml_program.global private @"__sm_node513__resnet50.layer-39.bias"(dense<0.000000e+00> : tensor<128xf32>) : tensor<128xf32> loc(#loc)
  ml_program.global private @"__sm_node522__resnet50.layer-40.gamma"(dense_resource<__elided__> : tensor<128xf32>) : tensor<128xf32> loc(#loc)
  ml_program.global private @"__sm_node523__resnet50.layer-40.beta"(dense_resource<__elided__> : tensor<128xf32>) : tensor<128xf32> loc(#loc)
  ml_program.global private @"__sm_node524__resnet50.layer-40.moving_mean"(dense_resource<__elided__> : tensor<128xf32>) : tensor<128xf32> loc(#loc)
  ml_program.global private @"__sm_node525__resnet50.layer-40.moving_variance"(dense_resource<__elided__> : tensor<128xf32>) : tensor<128xf32> loc(#loc)
  ml_program.global private @"__sm_node538__resnet50.layer-42.kernel"(dense_resource<__elided__> : tensor<3x3x128x128xf32>) : tensor<3x3x128x128xf32> loc(#loc)
  ml_program.global private @"__sm_node539__resnet50.layer-42.bias"(dense<0.000000e+00> : tensor<128xf32>) : tensor<128xf32> loc(#loc)
  ml_program.global private @"__sm_node548__resnet50.layer-43.gamma"(dense_resource<__elided__> : tensor<128xf32>) : tensor<128xf32> loc(#loc)
  ml_program.global private @"__sm_node549__resnet50.layer-43.beta"(dense_resource<__elided__> : tensor<128xf32>) : tensor<128xf32> loc(#loc)
  ml_program.global private @"__sm_node550__resnet50.layer-43.moving_mean"(dense_resource<__elided__> : tensor<128xf32>) : tensor<128xf32> loc(#loc)
  ml_program.global private @"__sm_node551__resnet50.layer-43.moving_variance"(dense_resource<__elided__> : tensor<128xf32>) : tensor<128xf32> loc(#loc)
  ml_program.global private @"__sm_node564__resnet50.layer-45.kernel"(dense_resource<__elided__> : tensor<1x1x256x512xf32>) : tensor<1x1x256x512xf32> loc(#loc)
  ml_program.global private @"__sm_node565__resnet50.layer-45.bias"(dense<0.000000e+00> : tensor<512xf32>) : tensor<512xf32> loc(#loc)
  ml_program.global private @"__sm_node573__resnet50.layer-46.kernel"(dense_resource<__elided__> : tensor<1x1x128x512xf32>) : tensor<1x1x128x512xf32> loc(#loc)
  ml_program.global private @"__sm_node574__resnet50.layer-46.bias"(dense<0.000000e+00> : tensor<512xf32>) : tensor<512xf32> loc(#loc)
  ml_program.global private @"__sm_node583__resnet50.layer-47.gamma"(dense_resource<__elided__> : tensor<512xf32>) : tensor<512xf32> loc(#loc)
  ml_program.global private @"__sm_node584__resnet50.layer-47.beta"(dense_resource<__elided__> : tensor<512xf32>) : tensor<512xf32> loc(#loc)
  ml_program.global private @"__sm_node585__resnet50.layer-47.moving_mean"(dense_resource<__elided__> : tensor<512xf32>) : tensor<512xf32> loc(#loc)
  ml_program.global private @"__sm_node586__resnet50.layer-47.moving_variance"(dense_resource<__elided__> : tensor<512xf32>) : tensor<512xf32> loc(#loc)
  ml_program.global private @"__sm_node594__resnet50.layer-48.gamma"(dense_resource<__elided__> : tensor<512xf32>) : tensor<512xf32> loc(#loc)
  ml_program.global private @"__sm_node595__resnet50.layer-48.beta"(dense_resource<__elided__> : tensor<512xf32>) : tensor<512xf32> loc(#loc)
  ml_program.global private @"__sm_node596__resnet50.layer-48.moving_mean"(dense_resource<__elided__> : tensor<512xf32>) : tensor<512xf32> loc(#loc)
  ml_program.global private @"__sm_node597__resnet50.layer-48.moving_variance"(dense_resource<__elided__> : tensor<512xf32>) : tensor<512xf32> loc(#loc)
  ml_program.global private @"__sm_node616__resnet50.layer-51.kernel"(dense_resource<__elided__> : tensor<1x1x512x128xf32>) : tensor<1x1x512x128xf32> loc(#loc)
  ml_program.global private @"__sm_node617__resnet50.layer-51.bias"(dense<0.000000e+00> : tensor<128xf32>) : tensor<128xf32> loc(#loc)
  ml_program.global private @"__sm_node626__resnet50.layer-52.gamma"(dense_resource<__elided__> : tensor<128xf32>) : tensor<128xf32> loc(#loc)
  ml_program.global private @"__sm_node627__resnet50.layer-52.beta"(dense_resource<__elided__> : tensor<128xf32>) : tensor<128xf32> loc(#loc)
  ml_program.global private @"__sm_node628__resnet50.layer-52.moving_mean"(dense_resource<__elided__> : tensor<128xf32>) : tensor<128xf32> loc(#loc)
  ml_program.global private @"__sm_node629__resnet50.layer-52.moving_variance"(dense_resource<__elided__> : tensor<128xf32>) : tensor<128xf32> loc(#loc)
  ml_program.global private @"__sm_node642__resnet50.layer-54.kernel"(dense_resource<__elided__> : tensor<3x3x128x128xf32>) : tensor<3x3x128x128xf32> loc(#loc)
  ml_program.global private @"__sm_node643__resnet50.layer-54.bias"(dense<0.000000e+00> : tensor<128xf32>) : tensor<128xf32> loc(#loc)
  ml_program.global private @"__sm_node652__resnet50.layer-55.gamma"(dense_resource<__elided__> : tensor<128xf32>) : tensor<128xf32> loc(#loc)
  ml_program.global private @"__sm_node653__resnet50.layer-55.beta"(dense_resource<__elided__> : tensor<128xf32>) : tensor<128xf32> loc(#loc)
  ml_program.global private @"__sm_node654__resnet50.layer-55.moving_mean"(dense_resource<__elided__> : tensor<128xf32>) : tensor<128xf32> loc(#loc)
  ml_program.global private @"__sm_node655__resnet50.layer-55.moving_variance"(dense_resource<__elided__> : tensor<128xf32>) : tensor<128xf32> loc(#loc)
  ml_program.global private @"__sm_node668__resnet50.layer-57.kernel"(dense_resource<__elided__> : tensor<1x1x128x512xf32>) : tensor<1x1x128x512xf32> loc(#loc)
  ml_program.global private @"__sm_node669__resnet50.layer-57.bias"(dense<0.000000e+00> : tensor<512xf32>) : tensor<512xf32> loc(#loc)
  ml_program.global private @"__sm_node678__resnet50.layer-58.gamma"(dense_resource<__elided__> : tensor<512xf32>) : tensor<512xf32> loc(#loc)
  ml_program.global private @"__sm_node679__resnet50.layer-58.beta"(dense_resource<__elided__> : tensor<512xf32>) : tensor<512xf32> loc(#loc)
  ml_program.global private @"__sm_node680__resnet50.layer-58.moving_mean"(dense_resource<__elided__> : tensor<512xf32>) : tensor<512xf32> loc(#loc)
  ml_program.global private @"__sm_node681__resnet50.layer-58.moving_variance"(dense_resource<__elided__> : tensor<512xf32>) : tensor<512xf32> loc(#loc)
  ml_program.global private @"__sm_node700__resnet50.layer-61.kernel"(dense_resource<__elided__> : tensor<1x1x512x128xf32>) : tensor<1x1x512x128xf32> loc(#loc)
  ml_program.global private @"__sm_node701__resnet50.layer-61.bias"(dense<0.000000e+00> : tensor<128xf32>) : tensor<128xf32> loc(#loc)
  ml_program.global private @"__sm_node710__resnet50.layer-62.gamma"(dense_resource<__elided__> : tensor<128xf32>) : tensor<128xf32> loc(#loc)
  ml_program.global private @"__sm_node711__resnet50.layer-62.beta"(dense_resource<__elided__> : tensor<128xf32>) : tensor<128xf32> loc(#loc)
  ml_program.global private @"__sm_node712__resnet50.layer-62.moving_mean"(dense_resource<__elided__> : tensor<128xf32>) : tensor<128xf32> loc(#loc)
  ml_program.global private @"__sm_node713__resnet50.layer-62.moving_variance"(dense_resource<__elided__> : tensor<128xf32>) : tensor<128xf32> loc(#loc)
  ml_program.global private @"__sm_node726__resnet50.layer-64.kernel"(dense_resource<__elided__> : tensor<3x3x128x128xf32>) : tensor<3x3x128x128xf32> loc(#loc)
  ml_program.global private @"__sm_node727__resnet50.layer-64.bias"(dense<0.000000e+00> : tensor<128xf32>) : tensor<128xf32> loc(#loc)
  ml_program.global private @"__sm_node736__resnet50.layer-65.gamma"(dense_resource<__elided__> : tensor<128xf32>) : tensor<128xf32> loc(#loc)
  ml_program.global private @"__sm_node737__resnet50.layer-65.beta"(dense_resource<__elided__> : tensor<128xf32>) : tensor<128xf32> loc(#loc)
  ml_program.global private @"__sm_node738__resnet50.layer-65.moving_mean"(dense_resource<__elided__> : tensor<128xf32>) : tensor<128xf32> loc(#loc)
  ml_program.global private @"__sm_node739__resnet50.layer-65.moving_variance"(dense_resource<__elided__> : tensor<128xf32>) : tensor<128xf32> loc(#loc)
  ml_program.global private @"__sm_node752__resnet50.layer-67.kernel"(dense_resource<__elided__> : tensor<1x1x128x512xf32>) : tensor<1x1x128x512xf32> loc(#loc)
  ml_program.global private @"__sm_node753__resnet50.layer-67.bias"(dense<0.000000e+00> : tensor<512xf32>) : tensor<512xf32> loc(#loc)
  ml_program.global private @"__sm_node762__resnet50.layer-68.gamma"(dense_resource<__elided__> : tensor<512xf32>) : tensor<512xf32> loc(#loc)
  ml_program.global private @"__sm_node763__resnet50.layer-68.beta"(dense_resource<__elided__> : tensor<512xf32>) : tensor<512xf32> loc(#loc)
  ml_program.global private @"__sm_node764__resnet50.layer-68.moving_mean"(dense_resource<__elided__> : tensor<512xf32>) : tensor<512xf32> loc(#loc)
  ml_program.global private @"__sm_node765__resnet50.layer-68.moving_variance"(dense_resource<__elided__> : tensor<512xf32>) : tensor<512xf32> loc(#loc)
  ml_program.global private @"__sm_node784__resnet50.layer-71.kernel"(dense_resource<__elided__> : tensor<1x1x512x128xf32>) : tensor<1x1x512x128xf32> loc(#loc)
  ml_program.global private @"__sm_node785__resnet50.layer-71.bias"(dense<0.000000e+00> : tensor<128xf32>) : tensor<128xf32> loc(#loc)
  ml_program.global private @"__sm_node794__resnet50.layer-72.gamma"(dense_resource<__elided__> : tensor<128xf32>) : tensor<128xf32> loc(#loc)
  ml_program.global private @"__sm_node795__resnet50.layer-72.beta"(dense_resource<__elided__> : tensor<128xf32>) : tensor<128xf32> loc(#loc)
  ml_program.global private @"__sm_node796__resnet50.layer-72.moving_mean"(dense_resource<__elided__> : tensor<128xf32>) : tensor<128xf32> loc(#loc)
  ml_program.global private @"__sm_node797__resnet50.layer-72.moving_variance"(dense_resource<__elided__> : tensor<128xf32>) : tensor<128xf32> loc(#loc)
  ml_program.global private @"__sm_node810__resnet50.layer-74.kernel"(dense_resource<__elided__> : tensor<3x3x128x128xf32>) : tensor<3x3x128x128xf32> loc(#loc)
  ml_program.global private @"__sm_node811__resnet50.layer-74.bias"(dense<0.000000e+00> : tensor<128xf32>) : tensor<128xf32> loc(#loc)
  ml_program.global private @"__sm_node820__resnet50.layer-75.gamma"(dense_resource<__elided__> : tensor<128xf32>) : tensor<128xf32> loc(#loc)
  ml_program.global private @"__sm_node821__resnet50.layer-75.beta"(dense_resource<__elided__> : tensor<128xf32>) : tensor<128xf32> loc(#loc)
  ml_program.global private @"__sm_node822__resnet50.layer-75.moving_mean"(dense_resource<__elided__> : tensor<128xf32>) : tensor<128xf32> loc(#loc)
  ml_program.global private @"__sm_node823__resnet50.layer-75.moving_variance"(dense_resource<__elided__> : tensor<128xf32>) : tensor<128xf32> loc(#loc)
  ml_program.global private @"__sm_node836__resnet50.layer-77.kernel"(dense_resource<__elided__> : tensor<1x1x128x512xf32>) : tensor<1x1x128x512xf32> loc(#loc)
  ml_program.global private @"__sm_node837__resnet50.layer-77.bias"(dense<0.000000e+00> : tensor<512xf32>) : tensor<512xf32> loc(#loc)
  ml_program.global private @"__sm_node846__resnet50.layer-78.gamma"(dense_resource<__elided__> : tensor<512xf32>) : tensor<512xf32> loc(#loc)
  ml_program.global private @"__sm_node847__resnet50.layer-78.beta"(dense_resource<__elided__> : tensor<512xf32>) : tensor<512xf32> loc(#loc)
  ml_program.global private @"__sm_node848__resnet50.layer-78.moving_mean"(dense_resource<__elided__> : tensor<512xf32>) : tensor<512xf32> loc(#loc)
  ml_program.global private @"__sm_node849__resnet50.layer-78.moving_variance"(dense_resource<__elided__> : tensor<512xf32>) : tensor<512xf32> loc(#loc)
  ml_program.global private @"__sm_node868__resnet50.layer-81.kernel"(dense_resource<__elided__> : tensor<1x1x512x256xf32>) : tensor<1x1x512x256xf32> loc(#loc)
  ml_program.global private @"__sm_node869__resnet50.layer-81.bias"(dense<0.000000e+00> : tensor<256xf32>) : tensor<256xf32> loc(#loc)
  ml_program.global private @"__sm_node878__resnet50.layer-82.gamma"(dense_resource<__elided__> : tensor<256xf32>) : tensor<256xf32> loc(#loc)
  ml_program.global private @"__sm_node879__resnet50.layer-82.beta"(dense_resource<__elided__> : tensor<256xf32>) : tensor<256xf32> loc(#loc)
  ml_program.global private @"__sm_node880__resnet50.layer-82.moving_mean"(dense_resource<__elided__> : tensor<256xf32>) : tensor<256xf32> loc(#loc)
  ml_program.global private @"__sm_node881__resnet50.layer-82.moving_variance"(dense_resource<__elided__> : tensor<256xf32>) : tensor<256xf32> loc(#loc)
  ml_program.global private @"__sm_node894__resnet50.layer-84.kernel"(dense_resource<__elided__> : tensor<3x3x256x256xf32>) : tensor<3x3x256x256xf32> loc(#loc)
  ml_program.global private @"__sm_node895__resnet50.layer-84.bias"(dense<0.000000e+00> : tensor<256xf32>) : tensor<256xf32> loc(#loc)
  ml_program.global private @"__sm_node904__resnet50.layer-85.gamma"(dense_resource<__elided__> : tensor<256xf32>) : tensor<256xf32> loc(#loc)
  ml_program.global private @"__sm_node905__resnet50.layer-85.beta"(dense_resource<__elided__> : tensor<256xf32>) : tensor<256xf32> loc(#loc)
  ml_program.global private @"__sm_node906__resnet50.layer-85.moving_mean"(dense_resource<__elided__> : tensor<256xf32>) : tensor<256xf32> loc(#loc)
  ml_program.global private @"__sm_node907__resnet50.layer-85.moving_variance"(dense_resource<__elided__> : tensor<256xf32>) : tensor<256xf32> loc(#loc)
  ml_program.global private @"__sm_node920__resnet50.layer-87.kernel"(dense_resource<__elided__> : tensor<1x1x512x1024xf32>) : tensor<1x1x512x1024xf32> loc(#loc)
  ml_program.global private @"__sm_node921__resnet50.layer-87.bias"(dense<0.000000e+00> : tensor<1024xf32>) : tensor<1024xf32> loc(#loc)
  ml_program.global private @"__sm_node929__resnet50.layer-88.kernel"(dense_resource<__elided__> : tensor<1x1x256x1024xf32>) : tensor<1x1x256x1024xf32> loc(#loc)
  ml_program.global private @"__sm_node930__resnet50.layer-88.bias"(dense<0.000000e+00> : tensor<1024xf32>) : tensor<1024xf32> loc(#loc)
  ml_program.global private @"__sm_node939__resnet50.layer-89.gamma"(dense_resource<__elided__> : tensor<1024xf32>) : tensor<1024xf32> loc(#loc)
  ml_program.global private @"__sm_node940__resnet50.layer-89.beta"(dense_resource<__elided__> : tensor<1024xf32>) : tensor<1024xf32> loc(#loc)
  ml_program.global private @"__sm_node941__resnet50.layer-89.moving_mean"(dense_resource<__elided__> : tensor<1024xf32>) : tensor<1024xf32> loc(#loc)
  ml_program.global private @"__sm_node942__resnet50.layer-89.moving_variance"(dense_resource<__elided__> : tensor<1024xf32>) : tensor<1024xf32> loc(#loc)
  ml_program.global private @"__sm_node950__resnet50.layer-90.gamma"(dense_resource<__elided__> : tensor<1024xf32>) : tensor<1024xf32> loc(#loc)
  ml_program.global private @"__sm_node951__resnet50.layer-90.beta"(dense_resource<__elided__> : tensor<1024xf32>) : tensor<1024xf32> loc(#loc)
  ml_program.global private @"__sm_node952__resnet50.layer-90.moving_mean"(dense_resource<__elided__> : tensor<1024xf32>) : tensor<1024xf32> loc(#loc)
  ml_program.global private @"__sm_node953__resnet50.layer-90.moving_variance"(dense_resource<__elided__> : tensor<1024xf32>) : tensor<1024xf32> loc(#loc)
  ml_program.global private @"__sm_node972__resnet50.layer-93.kernel"(dense_resource<__elided__> : tensor<1x1x1024x256xf32>) : tensor<1x1x1024x256xf32> loc(#loc)
  ml_program.global private @"__sm_node973__resnet50.layer-93.bias"(dense<0.000000e+00> : tensor<256xf32>) : tensor<256xf32> loc(#loc)
  ml_program.global private @"__sm_node982__resnet50.layer-94.gamma"(dense_resource<__elided__> : tensor<256xf32>) : tensor<256xf32> loc(#loc)
  ml_program.global private @"__sm_node983__resnet50.layer-94.beta"(dense_resource<__elided__> : tensor<256xf32>) : tensor<256xf32> loc(#loc)
  ml_program.global private @"__sm_node984__resnet50.layer-94.moving_mean"(dense_resource<__elided__> : tensor<256xf32>) : tensor<256xf32> loc(#loc)
  ml_program.global private @"__sm_node985__resnet50.layer-94.moving_variance"(dense_resource<__elided__> : tensor<256xf32>) : tensor<256xf32> loc(#loc)
  ml_program.global private @"__sm_node998__resnet50.layer-96.kernel"(dense_resource<__elided__> : tensor<3x3x256x256xf32>) : tensor<3x3x256x256xf32> loc(#loc)
  ml_program.global private @"__sm_node999__resnet50.layer-96.bias"(dense<0.000000e+00> : tensor<256xf32>) : tensor<256xf32> loc(#loc)
  ml_program.global private @"__sm_node1008__resnet50.layer-97.gamma"(dense_resource<__elided__> : tensor<256xf32>) : tensor<256xf32> loc(#loc)
  ml_program.global private @"__sm_node1009__resnet50.layer-97.beta"(dense_resource<__elided__> : tensor<256xf32>) : tensor<256xf32> loc(#loc)
  ml_program.global private @"__sm_node1010__resnet50.layer-97.moving_mean"(dense_resource<__elided__> : tensor<256xf32>) : tensor<256xf32> loc(#loc)
  ml_program.global private @"__sm_node1011__resnet50.layer-97.moving_variance"(dense_resource<__elided__> : tensor<256xf32>) : tensor<256xf32> loc(#loc)
  ml_program.global private @"__sm_node1024__resnet50.layer-99.kernel"(dense_resource<__elided__> : tensor<1x1x256x1024xf32>) : tensor<1x1x256x1024xf32> loc(#loc)
  ml_program.global private @"__sm_node1025__resnet50.layer-99.bias"(dense<0.000000e+00> : tensor<1024xf32>) : tensor<1024xf32> loc(#loc)
  ml_program.global private @"__sm_node1034__resnet50.layer-100.gamma"(dense_resource<__elided__> : tensor<1024xf32>) : tensor<1024xf32> loc(#loc)
  ml_program.global private @"__sm_node1035__resnet50.layer-100.beta"(dense_resource<__elided__> : tensor<1024xf32>) : tensor<1024xf32> loc(#loc)
  ml_program.global private @"__sm_node1036__resnet50.layer-100.moving_mean"(dense_resource<__elided__> : tensor<1024xf32>) : tensor<1024xf32> loc(#loc)
  ml_program.global private @"__sm_node1037__resnet50.layer-100.moving_variance"(dense_resource<__elided__> : tensor<1024xf32>) : tensor<1024xf32> loc(#loc)
  ml_program.global private @"__sm_node1056__resnet50.layer-103.kernel"(dense_resource<__elided__> : tensor<1x1x1024x256xf32>) : tensor<1x1x1024x256xf32> loc(#loc)
  ml_program.global private @"__sm_node1057__resnet50.layer-103.bias"(dense<0.000000e+00> : tensor<256xf32>) : tensor<256xf32> loc(#loc)
  ml_program.global private @"__sm_node1066__resnet50.layer-104.gamma"(dense_resource<__elided__> : tensor<256xf32>) : tensor<256xf32> loc(#loc)
  ml_program.global private @"__sm_node1067__resnet50.layer-104.beta"(dense_resource<__elided__> : tensor<256xf32>) : tensor<256xf32> loc(#loc)
  ml_program.global private @"__sm_node1068__resnet50.layer-104.moving_mean"(dense_resource<__elided__> : tensor<256xf32>) : tensor<256xf32> loc(#loc)
  ml_program.global private @"__sm_node1069__resnet50.layer-104.moving_variance"(dense_resource<__elided__> : tensor<256xf32>) : tensor<256xf32> loc(#loc)
  ml_program.global private @"__sm_node1082__resnet50.layer-106.kernel"(dense_resource<__elided__> : tensor<3x3x256x256xf32>) : tensor<3x3x256x256xf32> loc(#loc)
  ml_program.global private @"__sm_node1083__resnet50.layer-106.bias"(dense<0.000000e+00> : tensor<256xf32>) : tensor<256xf32> loc(#loc)
  ml_program.global private @"__sm_node1092__resnet50.layer-107.gamma"(dense_resource<__elided__> : tensor<256xf32>) : tensor<256xf32> loc(#loc)
  ml_program.global private @"__sm_node1093__resnet50.layer-107.beta"(dense_resource<__elided__> : tensor<256xf32>) : tensor<256xf32> loc(#loc)
  ml_program.global private @"__sm_node1094__resnet50.layer-107.moving_mean"(dense_resource<__elided__> : tensor<256xf32>) : tensor<256xf32> loc(#loc)
  ml_program.global private @"__sm_node1095__resnet50.layer-107.moving_variance"(dense_resource<__elided__> : tensor<256xf32>) : tensor<256xf32> loc(#loc)
  ml_program.global private @"__sm_node1108__resnet50.layer-109.kernel"(dense_resource<__elided__> : tensor<1x1x256x1024xf32>) : tensor<1x1x256x1024xf32> loc(#loc)
  ml_program.global private @"__sm_node1109__resnet50.layer-109.bias"(dense<0.000000e+00> : tensor<1024xf32>) : tensor<1024xf32> loc(#loc)
  ml_program.global private @"__sm_node1118__resnet50.layer-110.gamma"(dense_resource<__elided__> : tensor<1024xf32>) : tensor<1024xf32> loc(#loc)
  ml_program.global private @"__sm_node1119__resnet50.layer-110.beta"(dense_resource<__elided__> : tensor<1024xf32>) : tensor<1024xf32> loc(#loc)
  ml_program.global private @"__sm_node1120__resnet50.layer-110.moving_mean"(dense_resource<__elided__> : tensor<1024xf32>) : tensor<1024xf32> loc(#loc)
  ml_program.global private @"__sm_node1121__resnet50.layer-110.moving_variance"(dense_resource<__elided__> : tensor<1024xf32>) : tensor<1024xf32> loc(#loc)
  ml_program.global private @"__sm_node1140__resnet50.layer-113.kernel"(dense_resource<__elided__> : tensor<1x1x1024x256xf32>) : tensor<1x1x1024x256xf32> loc(#loc)
  ml_program.global private @"__sm_node1141__resnet50.layer-113.bias"(dense<0.000000e+00> : tensor<256xf32>) : tensor<256xf32> loc(#loc)
  ml_program.global private @"__sm_node1150__resnet50.layer-114.gamma"(dense_resource<__elided__> : tensor<256xf32>) : tensor<256xf32> loc(#loc)
  ml_program.global private @"__sm_node1151__resnet50.layer-114.beta"(dense_resource<__elided__> : tensor<256xf32>) : tensor<256xf32> loc(#loc)
  ml_program.global private @"__sm_node1152__resnet50.layer-114.moving_mean"(dense_resource<__elided__> : tensor<256xf32>) : tensor<256xf32> loc(#loc)
  ml_program.global private @"__sm_node1153__resnet50.layer-114.moving_variance"(dense_resource<__elided__> : tensor<256xf32>) : tensor<256xf32> loc(#loc)
  ml_program.global private @"__sm_node1166__resnet50.layer-116.kernel"(dense_resource<__elided__> : tensor<3x3x256x256xf32>) : tensor<3x3x256x256xf32> loc(#loc)
  ml_program.global private @"__sm_node1167__resnet50.layer-116.bias"(dense<0.000000e+00> : tensor<256xf32>) : tensor<256xf32> loc(#loc)
  ml_program.global private @"__sm_node1176__resnet50.layer-117.gamma"(dense_resource<__elided__> : tensor<256xf32>) : tensor<256xf32> loc(#loc)
  ml_program.global private @"__sm_node1177__resnet50.layer-117.beta"(dense_resource<__elided__> : tensor<256xf32>) : tensor<256xf32> loc(#loc)
  ml_program.global private @"__sm_node1178__resnet50.layer-117.moving_mean"(dense_resource<__elided__> : tensor<256xf32>) : tensor<256xf32> loc(#loc)
  ml_program.global private @"__sm_node1179__resnet50.layer-117.moving_variance"(dense_resource<__elided__> : tensor<256xf32>) : tensor<256xf32> loc(#loc)
  ml_program.global private @"__sm_node1192__resnet50.layer-119.kernel"(dense_resource<__elided__> : tensor<1x1x256x1024xf32>) : tensor<1x1x256x1024xf32> loc(#loc)
  ml_program.global private @"__sm_node1193__resnet50.layer-119.bias"(dense<0.000000e+00> : tensor<1024xf32>) : tensor<1024xf32> loc(#loc)
  ml_program.global private @"__sm_node1202__resnet50.layer-120.gamma"(dense_resource<__elided__> : tensor<1024xf32>) : tensor<1024xf32> loc(#loc)
  ml_program.global private @"__sm_node1203__resnet50.layer-120.beta"(dense_resource<__elided__> : tensor<1024xf32>) : tensor<1024xf32> loc(#loc)
  ml_program.global private @"__sm_node1204__resnet50.layer-120.moving_mean"(dense_resource<__elided__> : tensor<1024xf32>) : tensor<1024xf32> loc(#loc)
  ml_program.global private @"__sm_node1205__resnet50.layer-120.moving_variance"(dense_resource<__elided__> : tensor<1024xf32>) : tensor<1024xf32> loc(#loc)
  ml_program.global private @"__sm_node1224__resnet50.layer-123.kernel"(dense_resource<__elided__> : tensor<1x1x1024x256xf32>) : tensor<1x1x1024x256xf32> loc(#loc)
  ml_program.global private @"__sm_node1225__resnet50.layer-123.bias"(dense<0.000000e+00> : tensor<256xf32>) : tensor<256xf32> loc(#loc)
  ml_program.global private @"__sm_node1234__resnet50.layer-124.gamma"(dense_resource<__elided__> : tensor<256xf32>) : tensor<256xf32> loc(#loc)
  ml_program.global private @"__sm_node1235__resnet50.layer-124.beta"(dense_resource<__elided__> : tensor<256xf32>) : tensor<256xf32> loc(#loc)
  ml_program.global private @"__sm_node1236__resnet50.layer-124.moving_mean"(dense_resource<__elided__> : tensor<256xf32>) : tensor<256xf32> loc(#loc)
  ml_program.global private @"__sm_node1237__resnet50.layer-124.moving_variance"(dense_resource<__elided__> : tensor<256xf32>) : tensor<256xf32> loc(#loc)
  ml_program.global private @"__sm_node1250__resnet50.layer-126.kernel"(dense_resource<__elided__> : tensor<3x3x256x256xf32>) : tensor<3x3x256x256xf32> loc(#loc)
  ml_program.global private @"__sm_node1251__resnet50.layer-126.bias"(dense<0.000000e+00> : tensor<256xf32>) : tensor<256xf32> loc(#loc)
  ml_program.global private @"__sm_node1260__resnet50.layer-127.gamma"(dense_resource<__elided__> : tensor<256xf32>) : tensor<256xf32> loc(#loc)
  ml_program.global private @"__sm_node1261__resnet50.layer-127.beta"(dense_resource<__elided__> : tensor<256xf32>) : tensor<256xf32> loc(#loc)
  ml_program.global private @"__sm_node1262__resnet50.layer-127.moving_mean"(dense_resource<__elided__> : tensor<256xf32>) : tensor<256xf32> loc(#loc)
  ml_program.global private @"__sm_node1263__resnet50.layer-127.moving_variance"(dense_resource<__elided__> : tensor<256xf32>) : tensor<256xf32> loc(#loc)
  ml_program.global private @"__sm_node1276__resnet50.layer-129.kernel"(dense_resource<__elided__> : tensor<1x1x256x1024xf32>) : tensor<1x1x256x1024xf32> loc(#loc)
  ml_program.global private @"__sm_node1277__resnet50.layer-129.bias"(dense<0.000000e+00> : tensor<1024xf32>) : tensor<1024xf32> loc(#loc)
  ml_program.global private @"__sm_node1286__resnet50.layer-130.gamma"(dense_resource<__elided__> : tensor<1024xf32>) : tensor<1024xf32> loc(#loc)
  ml_program.global private @"__sm_node1287__resnet50.layer-130.beta"(dense_resource<__elided__> : tensor<1024xf32>) : tensor<1024xf32> loc(#loc)
  ml_program.global private @"__sm_node1288__resnet50.layer-130.moving_mean"(dense_resource<__elided__> : tensor<1024xf32>) : tensor<1024xf32> loc(#loc)
  ml_program.global private @"__sm_node1289__resnet50.layer-130.moving_variance"(dense_resource<__elided__> : tensor<1024xf32>) : tensor<1024xf32> loc(#loc)
  ml_program.global private @"__sm_node1308__resnet50.layer-133.kernel"(dense_resource<__elided__> : tensor<1x1x1024x256xf32>) : tensor<1x1x1024x256xf32> loc(#loc)
  ml_program.global private @"__sm_node1309__resnet50.layer-133.bias"(dense<0.000000e+00> : tensor<256xf32>) : tensor<256xf32> loc(#loc)
  ml_program.global private @"__sm_node1318__resnet50.layer-134.gamma"(dense_resource<__elided__> : tensor<256xf32>) : tensor<256xf32> loc(#loc)
  ml_program.global private @"__sm_node1319__resnet50.layer-134.beta"(dense_resource<__elided__> : tensor<256xf32>) : tensor<256xf32> loc(#loc)
  ml_program.global private @"__sm_node1320__resnet50.layer-134.moving_mean"(dense_resource<__elided__> : tensor<256xf32>) : tensor<256xf32> loc(#loc)
  ml_program.global private @"__sm_node1321__resnet50.layer-134.moving_variance"(dense_resource<__elided__> : tensor<256xf32>) : tensor<256xf32> loc(#loc)
  ml_program.global private @"__sm_node1334__resnet50.layer-136.kernel"(dense_resource<__elided__> : tensor<3x3x256x256xf32>) : tensor<3x3x256x256xf32> loc(#loc)
  ml_program.global private @"__sm_node1335__resnet50.layer-136.bias"(dense<0.000000e+00> : tensor<256xf32>) : tensor<256xf32> loc(#loc)
  ml_program.global private @"__sm_node1344__resnet50.layer-137.gamma"(dense_resource<__elided__> : tensor<256xf32>) : tensor<256xf32> loc(#loc)
  ml_program.global private @"__sm_node1345__resnet50.layer-137.beta"(dense_resource<__elided__> : tensor<256xf32>) : tensor<256xf32> loc(#loc)
  ml_program.global private @"__sm_node1346__resnet50.layer-137.moving_mean"(dense_resource<__elided__> : tensor<256xf32>) : tensor<256xf32> loc(#loc)
  ml_program.global private @"__sm_node1347__resnet50.layer-137.moving_variance"(dense_resource<__elided__> : tensor<256xf32>) : tensor<256xf32> loc(#loc)
  ml_program.global private @"__sm_node1360__resnet50.layer-139.kernel"(dense_resource<__elided__> : tensor<1x1x256x1024xf32>) : tensor<1x1x256x1024xf32> loc(#loc)
  ml_program.global private @"__sm_node1361__resnet50.layer-139.bias"(dense<0.000000e+00> : tensor<1024xf32>) : tensor<1024xf32> loc(#loc)
  ml_program.global private @"__sm_node1370__resnet50.layer-140.gamma"(dense_resource<__elided__> : tensor<1024xf32>) : tensor<1024xf32> loc(#loc)
  ml_program.global private @"__sm_node1371__resnet50.layer-140.beta"(dense_resource<__elided__> : tensor<1024xf32>) : tensor<1024xf32> loc(#loc)
  ml_program.global private @"__sm_node1372__resnet50.layer-140.moving_mean"(dense_resource<__elided__> : tensor<1024xf32>) : tensor<1024xf32> loc(#loc)
  ml_program.global private @"__sm_node1373__resnet50.layer-140.moving_variance"(dense_resource<__elided__> : tensor<1024xf32>) : tensor<1024xf32> loc(#loc)
  ml_program.global private @"__sm_node1392__resnet50.layer-143.kernel"(dense_resource<__elided__> : tensor<1x1x1024x512xf32>) : tensor<1x1x1024x512xf32> loc(#loc)
  ml_program.global private @"__sm_node1393__resnet50.layer-143.bias"(dense<0.000000e+00> : tensor<512xf32>) : tensor<512xf32> loc(#loc)
  ml_program.global private @"__sm_node1402__resnet50.layer-144.gamma"(dense_resource<__elided__> : tensor<512xf32>) : tensor<512xf32> loc(#loc)
  ml_program.global private @"__sm_node1403__resnet50.layer-144.beta"(dense_resource<__elided__> : tensor<512xf32>) : tensor<512xf32> loc(#loc)
  ml_program.global private @"__sm_node1404__resnet50.layer-144.moving_mean"(dense_resource<__elided__> : tensor<512xf32>) : tensor<512xf32> loc(#loc)
  ml_program.global private @"__sm_node1405__resnet50.layer-144.moving_variance"(dense_resource<__elided__> : tensor<512xf32>) : tensor<512xf32> loc(#loc)
  ml_program.global private @"__sm_node1418__resnet50.layer-146.kernel"(dense_resource<__elided__> : tensor<3x3x512x512xf32>) : tensor<3x3x512x512xf32> loc(#loc)
  ml_program.global private @"__sm_node1419__resnet50.layer-146.bias"(dense<0.000000e+00> : tensor<512xf32>) : tensor<512xf32> loc(#loc)
  ml_program.global private @"__sm_node1428__resnet50.layer-147.gamma"(dense_resource<__elided__> : tensor<512xf32>) : tensor<512xf32> loc(#loc)
  ml_program.global private @"__sm_node1429__resnet50.layer-147.beta"(dense_resource<__elided__> : tensor<512xf32>) : tensor<512xf32> loc(#loc)
  ml_program.global private @"__sm_node1430__resnet50.layer-147.moving_mean"(dense_resource<__elided__> : tensor<512xf32>) : tensor<512xf32> loc(#loc)
  ml_program.global private @"__sm_node1431__resnet50.layer-147.moving_variance"(dense_resource<__elided__> : tensor<512xf32>) : tensor<512xf32> loc(#loc)
  ml_program.global private @"__sm_node1444__resnet50.layer-149.kernel"(dense_resource<__elided__> : tensor<1x1x1024x2048xf32>) : tensor<1x1x1024x2048xf32> loc(#loc)
  ml_program.global private @"__sm_node1445__resnet50.layer-149.bias"(dense<0.000000e+00> : tensor<2048xf32>) : tensor<2048xf32> loc(#loc)
  ml_program.global private @"__sm_node1453__resnet50.layer-150.kernel"(dense_resource<__elided__> : tensor<1x1x512x2048xf32>) : tensor<1x1x512x2048xf32> loc(#loc)
  ml_program.global private @"__sm_node1454__resnet50.layer-150.bias"(dense<0.000000e+00> : tensor<2048xf32>) : tensor<2048xf32> loc(#loc)
  ml_program.global private @"__sm_node1463__resnet50.layer-151.gamma"(dense_resource<__elided__> : tensor<2048xf32>) : tensor<2048xf32> loc(#loc)
  ml_program.global private @"__sm_node1464__resnet50.layer-151.beta"(dense_resource<__elided__> : tensor<2048xf32>) : tensor<2048xf32> loc(#loc)
  ml_program.global private @"__sm_node1465__resnet50.layer-151.moving_mean"(dense_resource<__elided__> : tensor<2048xf32>) : tensor<2048xf32> loc(#loc)
  ml_program.global private @"__sm_node1466__resnet50.layer-151.moving_variance"(dense_resource<__elided__> : tensor<2048xf32>) : tensor<2048xf32> loc(#loc)
  ml_program.global private @"__sm_node1474__resnet50.layer-152.gamma"(dense_resource<__elided__> : tensor<2048xf32>) : tensor<2048xf32> loc(#loc)
  ml_program.global private @"__sm_node1475__resnet50.layer-152.beta"(dense_resource<__elided__> : tensor<2048xf32>) : tensor<2048xf32> loc(#loc)
  ml_program.global private @"__sm_node1476__resnet50.layer-152.moving_mean"(dense_resource<__elided__> : tensor<2048xf32>) : tensor<2048xf32> loc(#loc)
  ml_program.global private @"__sm_node1477__resnet50.layer-152.moving_variance"(dense_resource<__elided__> : tensor<2048xf32>) : tensor<2048xf32> loc(#loc)
  ml_program.global private @"__sm_node1496__resnet50.layer-155.kernel"(dense_resource<__elided__> : tensor<1x1x2048x512xf32>) : tensor<1x1x2048x512xf32> loc(#loc)
  ml_program.global private @"__sm_node1497__resnet50.layer-155.bias"(dense<0.000000e+00> : tensor<512xf32>) : tensor<512xf32> loc(#loc)
  ml_program.global private @"__sm_node1506__resnet50.layer-156.gamma"(dense_resource<__elided__> : tensor<512xf32>) : tensor<512xf32> loc(#loc)
  ml_program.global private @"__sm_node1507__resnet50.layer-156.beta"(dense_resource<__elided__> : tensor<512xf32>) : tensor<512xf32> loc(#loc)
  ml_program.global private @"__sm_node1508__resnet50.layer-156.moving_mean"(dense_resource<__elided__> : tensor<512xf32>) : tensor<512xf32> loc(#loc)
  ml_program.global private @"__sm_node1509__resnet50.layer-156.moving_variance"(dense_resource<__elided__> : tensor<512xf32>) : tensor<512xf32> loc(#loc)
  ml_program.global private @"__sm_node1522__resnet50.layer-158.kernel"(dense_resource<__elided__> : tensor<3x3x512x512xf32>) : tensor<3x3x512x512xf32> loc(#loc)
  ml_program.global private @"__sm_node1523__resnet50.layer-158.bias"(dense<0.000000e+00> : tensor<512xf32>) : tensor<512xf32> loc(#loc)
  ml_program.global private @"__sm_node1532__resnet50.layer-159.gamma"(dense_resource<__elided__> : tensor<512xf32>) : tensor<512xf32> loc(#loc)
  ml_program.global private @"__sm_node1533__resnet50.layer-159.beta"(dense_resource<__elided__> : tensor<512xf32>) : tensor<512xf32> loc(#loc)
  ml_program.global private @"__sm_node1534__resnet50.layer-159.moving_mean"(dense_resource<__elided__> : tensor<512xf32>) : tensor<512xf32> loc(#loc)
  ml_program.global private @"__sm_node1535__resnet50.layer-159.moving_variance"(dense_resource<__elided__> : tensor<512xf32>) : tensor<512xf32> loc(#loc)
  ml_program.global private @"__sm_node1548__resnet50.layer-161.kernel"(dense_resource<__elided__> : tensor<1x1x512x2048xf32>) : tensor<1x1x512x2048xf32> loc(#loc)
  ml_program.global private @"__sm_node1549__resnet50.layer-161.bias"(dense<0.000000e+00> : tensor<2048xf32>) : tensor<2048xf32> loc(#loc)
  ml_program.global private @"__sm_node1558__resnet50.layer-162.gamma"(dense_resource<__elided__> : tensor<2048xf32>) : tensor<2048xf32> loc(#loc)
  ml_program.global private @"__sm_node1559__resnet50.layer-162.beta"(dense_resource<__elided__> : tensor<2048xf32>) : tensor<2048xf32> loc(#loc)
  ml_program.global private @"__sm_node1560__resnet50.layer-162.moving_mean"(dense_resource<__elided__> : tensor<2048xf32>) : tensor<2048xf32> loc(#loc)
  ml_program.global private @"__sm_node1561__resnet50.layer-162.moving_variance"(dense_resource<__elided__> : tensor<2048xf32>) : tensor<2048xf32> loc(#loc)
  ml_program.global private @"__sm_node1580__resnet50.layer-165.kernel"(dense_resource<__elided__> : tensor<1x1x2048x512xf32>) : tensor<1x1x2048x512xf32> loc(#loc)
  ml_program.global private @"__sm_node1581__resnet50.layer-165.bias"(dense<0.000000e+00> : tensor<512xf32>) : tensor<512xf32> loc(#loc)
  ml_program.global private @"__sm_node1590__resnet50.layer-166.gamma"(dense_resource<__elided__> : tensor<512xf32>) : tensor<512xf32> loc(#loc)
  ml_program.global private @"__sm_node1591__resnet50.layer-166.beta"(dense_resource<__elided__> : tensor<512xf32>) : tensor<512xf32> loc(#loc)
  ml_program.global private @"__sm_node1592__resnet50.layer-166.moving_mean"(dense_resource<__elided__> : tensor<512xf32>) : tensor<512xf32> loc(#loc)
  ml_program.global private @"__sm_node1593__resnet50.layer-166.moving_variance"(dense_resource<__elided__> : tensor<512xf32>) : tensor<512xf32> loc(#loc)
  ml_program.global private @"__sm_node1606__resnet50.layer-168.kernel"(dense_resource<__elided__> : tensor<3x3x512x512xf32>) : tensor<3x3x512x512xf32> loc(#loc)
  ml_program.global private @"__sm_node1607__resnet50.layer-168.bias"(dense<0.000000e+00> : tensor<512xf32>) : tensor<512xf32> loc(#loc)
  ml_program.global private @"__sm_node1616__resnet50.layer-169.gamma"(dense_resource<__elided__> : tensor<512xf32>) : tensor<512xf32> loc(#loc)
  ml_program.global private @"__sm_node1617__resnet50.layer-169.beta"(dense_resource<__elided__> : tensor<512xf32>) : tensor<512xf32> loc(#loc)
  ml_program.global private @"__sm_node1618__resnet50.layer-169.moving_mean"(dense_resource<__elided__> : tensor<512xf32>) : tensor<512xf32> loc(#loc)
  ml_program.global private @"__sm_node1619__resnet50.layer-169.moving_variance"(dense_resource<__elided__> : tensor<512xf32>) : tensor<512xf32> loc(#loc)
  ml_program.global private @"__sm_node1632__resnet50.layer-171.kernel"(dense_resource<__elided__> : tensor<1x1x512x2048xf32>) : tensor<1x1x512x2048xf32> loc(#loc)
  ml_program.global private @"__sm_node1633__resnet50.layer-171.bias"(dense<0.000000e+00> : tensor<2048xf32>) : tensor<2048xf32> loc(#loc)
  ml_program.global private @"__sm_node1642__resnet50.layer-172.gamma"(dense_resource<__elided__> : tensor<2048xf32>) : tensor<2048xf32> loc(#loc)
  ml_program.global private @"__sm_node1643__resnet50.layer-172.beta"(dense_resource<__elided__> : tensor<2048xf32>) : tensor<2048xf32> loc(#loc)
  ml_program.global private @"__sm_node1644__resnet50.layer-172.moving_mean"(dense_resource<__elided__> : tensor<2048xf32>) : tensor<2048xf32> loc(#loc)
  ml_program.global private @"__sm_node1645__resnet50.layer-172.moving_variance"(dense_resource<__elided__> : tensor<2048xf32>) : tensor<2048xf32> loc(#loc)
  ml_program.global private @"__sm_node1670__resnet50.layer-176.kernel"(dense_resource<__elided__> : tensor<2048x1000xf32>) : tensor<2048x1000xf32> loc(#loc)
  ml_program.global private @"__sm_node1671__resnet50.layer-176.bias"(dense_resource<__elided__> : tensor<1000xf32>) : tensor<1000xf32> loc(#loc)
  func.func @forward(%arg0: !iree_input.buffer_view loc(unknown)) -> !iree_input.buffer_view attributes {iree.abi = "{\22a\22:[[\22ndarray\22,\22f32\22,4,1,224,224,3]],\22r\22:[[\22ndarray\22,\22f32\22,2,1,1000]],\22v\22:1}"} {
    %0 = iree_input.cast.buffer_view_to_tensor %arg0 : !iree_input.buffer_view -> tensor<1x224x224x3xf32> loc(#loc)
    %1 = call @__inference_forward_50130(%0) : (tensor<1x224x224x3xf32>) -> tensor<1x1000xf32> loc(#loc)
    %2 = iree_input.cast.tensor_to_buffer_view %1 : tensor<1x1000xf32> -> !iree_input.buffer_view loc(#loc)
    return %2 : !iree_input.buffer_view loc(#loc)
  } loc(#loc)
  func.func private @__inference_forward_50130(%arg0: tensor<1x224x224x3xf32> {tf._user_specified_name = "example_input"} loc(unknown)) -> tensor<1x1000xf32> attributes {tf._construction_context = "kEagerRuntime", tf._input_shapes = [#tf_type.shape<1x224x224x3>, #tf_type.shape<>, #tf_type.shape<>, #tf_type.shape<>, #tf_type.shape<>, #tf_type.shape<>, #tf_type.shape<>, #tf_type.shape<>, #tf_type.shape<>, #tf_type.shape<>, #tf_type.shape<>, #tf_type.shape<>, #tf_type.shape<>, #tf_type.shape<>, #tf_type.shape<>, #tf_type.shape<>, #tf_type.shape<>, #tf_type.shape<>, #tf_type.shape<>, #tf_type.shape<>, #tf_type.shape<>, #tf_type.shape<>, #tf_type.shape<>, #tf_type.shape<>, #tf_type.shape<>, #tf_type.shape<>, #tf_type.shape<>, #tf_type.shape<>, #tf_type.shape<>, #tf_type.shape<>, #tf_type.shape<>, #tf_type.shape<>, #tf_type.shape<>, #tf_type.shape<>, #tf_type.shape<>, #tf_type.shape<>, #tf_type.shape<>, #tf_type.shape<>, #tf_type.shape<>, #tf_type.shape<>, #tf_type.shape<>, #tf_type.shape<>, #tf_type.shape<>, #tf_type.shape<>, #tf_type.shape<>, #tf_type.shape<>, #tf_type.shape<>, #tf_type.shape<>, #tf_type.shape<>, #tf_type.shape<>, #tf_type.shape<>, #tf_type.shape<>, #tf_type.shape<>, #tf_type.shape<>, #tf_type.shape<>, #tf_type.shape<>, #tf_type.shape<>, #tf_type.shape<>, #tf_type.shape<>, #tf_type.shape<>, #tf_type.shape<>, #tf_type.shape<>, #tf_type.shape<>, #tf_type.shape<>, #tf_type.shape<>, #tf_type.shape<>, #tf_type.shape<>, #tf_type.shape<>, #tf_type.shape<>, #tf_type.shape<>, #tf_type.shape<>, #tf_type.shape<>, #tf_type.shape<>, #tf_type.shape<>, #tf_type.shape<>, #tf_type.shape<>, #tf_type.shape<>, #tf_type.shape<>, #tf_type.shape<>, #tf_type.shape<>, #tf_type.shape<>, #tf_type.shape<>, #tf_type.shape<>, #tf_type.shape<>, #tf_type.shape<>, #tf_type.shape<>, #tf_type.shape<>, #tf_type.shape<>, #tf_type.shape<>, #tf_type.shape<>, #tf_type.shape<>, #tf_type.shape<>, #tf_type.shape<>, #tf_type.shape<>, #tf_type.shape<>, #tf_type.shape<>, #tf_type.shape<>, #tf_type.shape<>, #tf_type.shape<>, #tf_type.shape<>, #tf_type.shape<>, #tf_type.shape<>, #tf_type.shape<>, #tf_type.shape<>, #tf_type.shape<>, #tf_type.shape<>, #tf_type.shape<>, #tf_type.shape<>, #tf_type.shape<>, #tf_type.shape<>, #tf_type.shape<>, #tf_type.shape<>, #tf_type.shape<>, #tf_type.shape<>, #tf_type.shape<>, #tf_type.shape<>, #tf_type.shape<>, #tf_type.shape<>, #tf_type.shape<>, #tf_type.shape<>, #tf_type.shape<>, #tf_type.shape<>, #tf_type.shape<>, #tf_type.shape<>, #tf_type.shape<>, #tf_type.shape<>, #tf_type.shape<>, #tf_type.shape<>, #tf_type.shape<>, #tf_type.shape<>, #tf_type.shape<>, #tf_type.shape<>, #tf_type.shape<>, #tf_type.shape<>, #tf_type.shape<>, #tf_type.shape<>, #tf_type.shape<>, #tf_type.shape<>, #tf_type.shape<>, #tf_type.shape<>, #tf_type.shape<>, #tf_type.shape<>, #tf_type.shape<>, #tf_type.shape<>, #tf_type.shape<>, #tf_type.shape<>, #tf_type.shape<>, #tf_type.shape<>, #tf_type.shape<>, #tf_type.shape<>, #tf_type.shape<>, #tf_type.shape<>, #tf_type.shape<>, #tf_type.shape<>, #tf_type.shape<>, #tf_type.shape<>, #tf_type.shape<>, #tf_type.shape<>, #tf_type.shape<>, #tf_type.shape<>, #tf_type.shape<>, #tf_type.shape<>, #tf_type.shape<>, #tf_type.shape<>, #tf_type.shape<>, #tf_type.shape<>, #tf_type.shape<>, #tf_type.shape<>, #tf_type.shape<>, #tf_type.shape<>, #tf_type.shape<>, #tf_type.shape<>, #tf_type.shape<>, #tf_type.shape<>, #tf_type.shape<>, #tf_type.shape<>, #tf_type.shape<>, #tf_type.shape<>, #tf_type.shape<>, #tf_type.shape<>, #tf_type.shape<>, #tf_type.shape<>, #tf_type.shape<>, #tf_type.shape<>, #tf_type.shape<>, #tf_type.shape<>, #tf_type.shape<>, #tf_type.shape<>, #tf_type.shape<>, #tf_type.shape<>, #tf_type.shape<>, #tf_type.shape<>, #tf_type.shape<>, #tf_type.shape<>, #tf_type.shape<>, #tf_type.shape<>, #tf_type.shape<>, #tf_type.shape<>, #tf_type.shape<>, #tf_type.shape<>, #tf_type.shape<>, #tf_type.shape<>, #tf_type.shape<>, #tf_type.shape<>, #tf_type.shape<>, #tf_type.shape<>, #tf_type.shape<>, #tf_type.shape<>, #tf_type.shape<>, #tf_type.shape<>, #tf_type.shape<>, #tf_type.shape<>, #tf_type.shape<>, #tf_type.shape<>, #tf_type.shape<>, #tf_type.shape<>, #tf_type.shape<>, #tf_type.shape<>, #tf_type.shape<>, #tf_type.shape<>, #tf_type.shape<>, #tf_type.shape<>, #tf_type.shape<>, #tf_type.shape<>, #tf_type.shape<>, #tf_type.shape<>, #tf_type.shape<>, #tf_type.shape<>, #tf_type.shape<>, #tf_type.shape<>, #tf_type.shape<>, #tf_type.shape<>, #tf_type.shape<>, #tf_type.shape<>, #tf_type.shape<>, #tf_type.shape<>, #tf_type.shape<>, #tf_type.shape<>, #tf_type.shape<>, #tf_type.shape<>, #tf_type.shape<>, #tf_type.shape<>, #tf_type.shape<>, #tf_type.shape<>, #tf_type.shape<>, #tf_type.shape<>, #tf_type.shape<>, #tf_type.shape<>, #tf_type.shape<>, #tf_type.shape<>, #tf_type.shape<>, #tf_type.shape<>, #tf_type.shape<>, #tf_type.shape<>, #tf_type.shape<>, #tf_type.shape<>, #tf_type.shape<>, #tf_type.shape<>, #tf_type.shape<>, #tf_type.shape<>, #tf_type.shape<>, #tf_type.shape<>, #tf_type.shape<>, #tf_type.shape<>, #tf_type.shape<>, #tf_type.shape<>, #tf_type.shape<>, #tf_type.shape<>, #tf_type.shape<>, #tf_type.shape<>, #tf_type.shape<>, #tf_type.shape<>, #tf_type.shape<>, #tf_type.shape<>, #tf_type.shape<>, #tf_type.shape<>, #tf_type.shape<>, #tf_type.shape<>, #tf_type.shape<>, #tf_type.shape<>, #tf_type.shape<>, #tf_type.shape<>, #tf_type.shape<>, #tf_type.shape<>, #tf_type.shape<>, #tf_type.shape<>, #tf_type.shape<>, #tf_type.shape<>, #tf_type.shape<>, #tf_type.shape<>, #tf_type.shape<>, #tf_type.shape<>, #tf_type.shape<>, #tf_type.shape<>, #tf_type.shape<>, #tf_type.shape<>, #tf_type.shape<>, #tf_type.shape<>, #tf_type.shape<>, #tf_type.shape<>, #tf_type.shape<>, #tf_type.shape<>, #tf_type.shape<>, #tf_type.shape<>, #tf_type.shape<>, #tf_type.shape<>, #tf_type.shape<>, #tf_type.shape<>, #tf_type.shape<>, #tf_type.shape<>, #tf_type.shape<>, #tf_type.shape<>, #tf_type.shape<>, #tf_type.shape<>, #tf_type.shape<>, #tf_type.shape<>, #tf_type.shape<>, #tf_type.shape<>, #tf_type.shape<>, #tf_type.shape<>, #tf_type.shape<>], tf.signature.is_stateful} {
    %cst = arith.constant 0xFF800000 : f32 loc(#loc1132)
    %cst_0 = arith.constant -0.000000e+00 : f32 loc(#loc1133)
    %cst_1 = arith.constant dense<1.001000e-05> : tensor<64xf32> loc(#loc1134)
    %cst_2 = arith.constant dense<1.001000e-05> : tensor<256xf32> loc(#loc1135)
    %cst_3 = arith.constant dense<1.001000e-05> : tensor<512xf32> loc(#loc1136)
    %cst_4 = arith.constant dense<1.001000e-05> : tensor<128xf32> loc(#loc1137)
    %cst_5 = arith.constant dense<1.001000e-05> : tensor<1024xf32> loc(#loc1138)
    %cst_6 = arith.constant dense<1.001000e-05> : tensor<2048xf32> loc(#loc1139)
    %cst_7 = arith.constant dense<4.900000e+01> : tensor<f32> loc(#loc1133)
    %cst_8 = arith.constant dense<0.000000e+00> : tensor<f32> loc(#loc1140)
    %cst_9 = arith.constant 0.000000e+00 : f32 loc(#loc1141)
    %padded = tensor.pad %arg0 low[0, 3, 3, 0] high[0, 3, 3, 0] {
    ^bb0(%arg1: index loc(fused[#loc14, #loc590]), %arg2: index loc(fused[#loc14, #loc590]), %arg3: index loc(fused[#loc14, #loc590]), %arg4: index loc(fused[#loc14, #loc590])):
      tensor.yield %cst_9 : f32 loc(#loc1141)
    } : tensor<1x224x224x3xf32> to tensor<1x230x230x3xf32> loc(#loc1141)
    %0 = ml_program.global_load @"__sm_node215__resnet50.layer-3.moving_variance" : tensor<64xf32> loc(#loc1142)
    %1 = ml_program.global_load @"__sm_node214__resnet50.layer-3.moving_mean" : tensor<64xf32> loc(#loc1143)
    %2 = ml_program.global_load @"__sm_node213__resnet50.layer-3.beta" : tensor<64xf32> loc(#loc1144)
    %3 = ml_program.global_load @"__sm_node212__resnet50.layer-3.gamma" : tensor<64xf32> loc(#loc1145)
    %4 = ml_program.global_load @"__sm_node203__resnet50.layer-2.bias" : tensor<64xf32> loc(#loc1146)
    %5 = ml_program.global_load @"__sm_node202__resnet50.layer-2.kernel" : tensor<7x7x3x64xf32> loc(#loc1147)
    %6 = tensor.empty() : tensor<1x112x112x64xf32> loc(#loc1148)
    %7 = linalg.fill ins(%cst_9 : f32) outs(%6 : tensor<1x112x112x64xf32>) -> tensor<1x112x112x64xf32> loc(#loc1148)
    %8 = linalg.conv_2d_nhwc_hwcf {dilations = dense<1> : tensor<2xi64>, strides = dense<2> : tensor<2xi64>} ins(%padded, %5 : tensor<1x230x230x3xf32>, tensor<7x7x3x64xf32>) outs(%7 : tensor<1x112x112x64xf32>) -> tensor<1x112x112x64xf32> loc(#loc1148)
    %9 = tensor.empty() : tensor<1x112x112x64xf32> loc(#loc1149)
    %10 = linalg.generic {indexing_maps = [#map, #map1], iterator_types = ["parallel", "parallel", "parallel", "parallel"]} ins(%4 : tensor<64xf32>) outs(%9 : tensor<1x112x112x64xf32>) {
    ^bb0(%in: f32 loc(fused[#loc15, #loc595]), %out: f32 loc(fused[#loc17, #loc598])):
      linalg.yield %in : f32 loc(#loc1149)
    } -> tensor<1x112x112x64xf32> loc(#loc1149)
    %11 = tensor.empty() : tensor<1x112x112x64xf32> loc(#loc1149)
    %12 = linalg.generic {indexing_maps = [#map1, #map1, #map1], iterator_types = ["parallel", "parallel", "parallel", "parallel"]} ins(%8, %10 : tensor<1x112x112x64xf32>, tensor<1x112x112x64xf32>) outs(%11 : tensor<1x112x112x64xf32>) {
    ^bb0(%in: f32 loc(fused[#loc16, #loc597]), %in_29: f32 loc(fused[#loc17, #loc598]), %out: f32 loc(fused[#loc17, #loc598])):
      %2011 = arith.addf %in, %in_29 : f32 loc(#loc1149)
      linalg.yield %2011 : f32 loc(#loc1149)
    } -> tensor<1x112x112x64xf32> loc(#loc1149)
    %13 = tensor.empty() : tensor<64xf32> loc(#loc1150)
    %14 = linalg.generic {indexing_maps = [#map2, #map2, #map2], iterator_types = ["parallel"]} ins(%0, %cst_1 : tensor<64xf32>, tensor<64xf32>) outs(%13 : tensor<64xf32>) {
    ^bb0(%in: f32 loc(fused[#loc15, #loc591]), %in_29: f32 loc(fused[#loc13, #loc583]), %out: f32 loc(fused[#loc13, #loc599])):
      %2011 = arith.addf %in, %in_29 : f32 loc(#loc1150)
      linalg.yield %2011 : f32 loc(#loc1150)
    } -> tensor<64xf32> loc(#loc1150)
    %15 = tensor.empty() : tensor<64xf32> loc(#loc1150)
    %16 = linalg.generic {indexing_maps = [#map2, #map2], iterator_types = ["parallel"]} ins(%14 : tensor<64xf32>) outs(%15 : tensor<64xf32>) {
    ^bb0(%in: f32 loc(fused[#loc13, #loc599]), %out: f32 loc(fused[#loc13, #loc599])):
      %2011 = math.sqrt %in : f32 loc(#loc1150)
      linalg.yield %2011 : f32 loc(#loc1150)
    } -> tensor<64xf32> loc(#loc1150)
    %17 = tensor.empty() : tensor<1x112x112x64xf32> loc(#loc1150)
    %18 = linalg.generic {indexing_maps = [#map, #map1], iterator_types = ["parallel", "parallel", "parallel", "parallel"]} ins(%3 : tensor<64xf32>) outs(%17 : tensor<1x112x112x64xf32>) {
    ^bb0(%in: f32 loc(fused[#loc15, #loc594]), %out: f32 loc(fused[#loc13, #loc599])):
      linalg.yield %in : f32 loc(#loc1150)
    } -> tensor<1x112x112x64xf32> loc(#loc1150)
    %19 = tensor.empty() : tensor<1x112x112x64xf32> loc(#loc1150)
    %20 = linalg.generic {indexing_maps = [#map, #map1], iterator_types = ["parallel", "parallel", "parallel", "parallel"]} ins(%2 : tensor<64xf32>) outs(%19 : tensor<1x112x112x64xf32>) {
    ^bb0(%in: f32 loc(fused[#loc15, #loc593]), %out: f32 loc(fused[#loc13, #loc599])):
      linalg.yield %in : f32 loc(#loc1150)
    } -> tensor<1x112x112x64xf32> loc(#loc1150)
    %21 = tensor.empty() : tensor<1x112x112x64xf32> loc(#loc1150)
    %22 = linalg.generic {indexing_maps = [#map, #map1], iterator_types = ["parallel", "parallel", "parallel", "parallel"]} ins(%1 : tensor<64xf32>) outs(%21 : tensor<1x112x112x64xf32>) {
    ^bb0(%in: f32 loc(fused[#loc15, #loc592]), %out: f32 loc(fused[#loc13, #loc599])):
      linalg.yield %in : f32 loc(#loc1150)
    } -> tensor<1x112x112x64xf32> loc(#loc1150)
    %23 = tensor.empty() : tensor<1x112x112x64xf32> loc(#loc1150)
    %24 = linalg.generic {indexing_maps = [#map, #map1], iterator_types = ["parallel", "parallel", "parallel", "parallel"]} ins(%16 : tensor<64xf32>) outs(%23 : tensor<1x112x112x64xf32>) {
    ^bb0(%in: f32 loc(fused[#loc13, #loc599]), %out: f32 loc(fused[#loc13, #loc599])):
      linalg.yield %in : f32 loc(#loc1150)
…
    %1836 = linalg.fill ins(%cst_9 : f32) outs(%1835 : tensor<1x7x7x2048xf32>) -> tensor<1x7x7x2048xf32> loc(#loc1645)
    %1837 = linalg.conv_2d_nhwc_hwcf {dilations = dense<1> : tensor<2xi64>, strides = dense<1> : tensor<2xi64>} ins(%1828, %1834 : tensor<1x7x7x512xf32>, tensor<1x1x512x2048xf32>) outs(%1836 : tensor<1x7x7x2048xf32>) -> tensor<1x7x7x2048xf32> loc(#loc1645)
    %1838 = tensor.empty() : tensor<1x7x7x2048xf32> loc(#loc1646)
    %1839 = linalg.generic {indexing_maps = [#map, #map1], iterator_types = ["parallel", "parallel", "parallel", "parallel"]} ins(%1833 : tensor<2048xf32>) outs(%1838 : tensor<1x7x7x2048xf32>) {
    ^bb0(%in: f32 loc(fused[#loc15, #loc1092]), %out: f32 loc(fused[#loc17, #loc1095])):
      linalg.yield %in : f32 loc(#loc1646)
    } -> tensor<1x7x7x2048xf32> loc(#loc1646)
    %1840 = tensor.empty() : tensor<1x7x7x2048xf32> loc(#loc1646)
    %1841 = linalg.generic {indexing_maps = [#map1, #map1, #map1], iterator_types = ["parallel", "parallel", "parallel", "parallel"]} ins(%1837, %1839 : tensor<1x7x7x2048xf32>, tensor<1x7x7x2048xf32>) outs(%1840 : tensor<1x7x7x2048xf32>) {
    ^bb0(%in: f32 loc(fused[#loc16, #loc1094]), %in_29: f32 loc(fused[#loc17, #loc1095]), %out: f32 loc(fused[#loc17, #loc1095])):
      %2011 = arith.addf %in, %in_29 : f32 loc(#loc1646)
      linalg.yield %2011 : f32 loc(#loc1646)
    } -> tensor<1x7x7x2048xf32> loc(#loc1646)
    %1842 = tensor.empty() : tensor<2048xf32> loc(#loc1647)
    %1843 = linalg.generic {indexing_maps = [#map2, #map2, #map2], iterator_types = ["parallel"]} ins(%1829, %cst_6 : tensor<2048xf32>, tensor<2048xf32>) outs(%1842 : tensor<2048xf32>) {
    ^bb0(%in: f32 loc(fused[#loc15, #loc1088]), %in_29: f32 loc(fused[#loc13, #loc588]), %out: f32 loc(fused[#loc13, #loc1096])):
      %2011 = arith.addf %in, %in_29 : f32 loc(#loc1647)
      linalg.yield %2011 : f32 loc(#loc1647)
    } -> tensor<2048xf32> loc(#loc1647)
    %1844 = tensor.empty() : tensor<2048xf32> loc(#loc1647)
    %1845 = linalg.generic {indexing_maps = [#map2, #map2], iterator_types = ["parallel"]} ins(%1843 : tensor<2048xf32>) outs(%1844 : tensor<2048xf32>) {
    ^bb0(%in: f32 loc(fused[#loc13, #loc1096]), %out: f32 loc(fused[#loc13, #loc1096])):
      %2011 = math.sqrt %in : f32 loc(#loc1647)
      linalg.yield %2011 : f32 loc(#loc1647)
    } -> tensor<2048xf32> loc(#loc1647)
    %1846 = tensor.empty() : tensor<1x7x7x2048xf32> loc(#loc1647)
    %1847 = linalg.generic {indexing_maps = [#map, #map1], iterator_types = ["parallel", "parallel", "parallel", "parallel"]} ins(%1832 : tensor<2048xf32>) outs(%1846 : tensor<1x7x7x2048xf32>) {
    ^bb0(%in: f32 loc(fused[#loc15, #loc1091]), %out: f32 loc(fused[#loc13, #loc1096])):
      linalg.yield %in : f32 loc(#loc1647)
    } -> tensor<1x7x7x2048xf32> loc(#loc1647)
    %1848 = tensor.empty() : tensor<1x7x7x2048xf32> loc(#loc1647)
    %1849 = linalg.generic {indexing_maps = [#map, #map1], iterator_types = ["parallel", "parallel", "parallel", "parallel"]} ins(%1831 : tensor<2048xf32>) outs(%1848 : tensor<1x7x7x2048xf32>) {
    ^bb0(%in: f32 loc(fused[#loc15, #loc1090]), %out: f32 loc(fused[#loc13, #loc1096])):
      linalg.yield %in : f32 loc(#loc1647)
    } -> tensor<1x7x7x2048xf32> loc(#loc1647)
    %1850 = tensor.empty() : tensor<1x7x7x2048xf32> loc(#loc1647)
    %1851 = linalg.generic {indexing_maps = [#map, #map1], iterator_types = ["parallel", "parallel", "parallel", "parallel"]} ins(%1830 : tensor<2048xf32>) outs(%1850 : tensor<1x7x7x2048xf32>) {
    ^bb0(%in: f32 loc(fused[#loc15, #loc1089]), %out: f32 loc(fused[#loc13, #loc1096])):
      linalg.yield %in : f32 loc(#loc1647)
    } -> tensor<1x7x7x2048xf32> loc(#loc1647)
    %1852 = tensor.empty() : tensor<1x7x7x2048xf32> loc(#loc1647)
    %1853 = linalg.generic {indexing_maps = [#map, #map1], iterator_types = ["parallel", "parallel", "parallel", "parallel"]} ins(%1845 : tensor<2048xf32>) outs(%1852 : tensor<1x7x7x2048xf32>) {
    ^bb0(%in: f32 loc(fused[#loc13, #loc1096]), %out: f32 loc(fused[#loc13, #loc1096])):
      linalg.yield %in : f32 loc(#loc1647)
    } -> tensor<1x7x7x2048xf32> loc(#loc1647)
    %1854 = tensor.empty() : tensor<1x7x7x2048xf32> loc(#loc1647)
    %1855 = linalg.generic {indexing_maps = [#map1, #map1, #map1], iterator_types = ["parallel", "parallel", "parallel", "parallel"]} ins(%1841, %1851 : tensor<1x7x7x2048xf32>, tensor<1x7x7x2048xf32>) outs(%1854 : tensor<1x7x7x2048xf32>) {
    ^bb0(%in: f32 loc(fused[#loc17, #loc1095]), %in_29: f32 loc(fused[#loc13, #loc1096]), %out: f32 loc(fused[#loc13, #loc1096])):
      %2011 = arith.subf %in, %in_29 : f32 loc(#loc1647)
      linalg.yield %2011 : f32 loc(#loc1647)
    } -> tensor<1x7x7x2048xf32> loc(#loc1647)
    %1856 = tensor.empty() : tensor<1x7x7x2048xf32> loc(#loc1647)
    %1857 = linalg.generic {indexing_maps = [#map1, #map1, #map1], iterator_types = ["parallel", "parallel", "parallel", "parallel"]} ins(%1855, %1847 : tensor<1x7x7x2048xf32>, tensor<1x7x7x2048xf32>) outs(%1856 : tensor<1x7x7x2048xf32>) {
    ^bb0(%in: f32 loc(fused[#loc13, #loc1096]), %in_29: f32 loc(fused[#loc13, #loc1096]), %out: f32 loc(fused[#loc13, #loc1096])):
      %2011 = arith.mulf %in, %in_29 : f32 loc(#loc1647)
      linalg.yield %2011 : f32 loc(#loc1647)
    } -> tensor<1x7x7x2048xf32> loc(#loc1647)
    %1858 = tensor.empty() : tensor<1x7x7x2048xf32> loc(#loc1647)
    %1859 = linalg.generic {indexing_maps = [#map1, #map1, #map1], iterator_types = ["parallel", "parallel", "parallel", "parallel"]} ins(%1857, %1853 : tensor<1x7x7x2048xf32>, tensor<1x7x7x2048xf32>) outs(%1858 : tensor<1x7x7x2048xf32>) {
    ^bb0(%in: f32 loc(fused[#loc13, #loc1096]), %in_29: f32 loc(fused[#loc13, #loc1096]), %out: f32 loc(fused[#loc13, #loc1096])):
      %2011 = arith.divf %in, %in_29 : f32 loc(#loc1647)
      linalg.yield %2011 : f32 loc(#loc1647)
    } -> tensor<1x7x7x2048xf32> loc(#loc1647)
    %1860 = tensor.empty() : tensor<1x7x7x2048xf32> loc(#loc1647)
    %1861 = linalg.generic {indexing_maps = [#map1, #map1, #map1], iterator_types = ["parallel", "parallel", "parallel", "parallel"]} ins(%1859, %1849 : tensor<1x7x7x2048xf32>, tensor<1x7x7x2048xf32>) outs(%1860 : tensor<1x7x7x2048xf32>) {
    ^bb0(%in: f32 loc(fused[#loc13, #loc1096]), %in_29: f32 loc(fused[#loc13, #loc1096]), %out: f32 loc(fused[#loc13, #loc1096])):
      %2011 = arith.addf %in, %in_29 : f32 loc(#loc1647)
      linalg.yield %2011 : f32 loc(#loc1647)
    } -> tensor<1x7x7x2048xf32> loc(#loc1647)
    %1862 = tensor.empty() : tensor<1x7x7x2048xf32> loc(#loc1648)
    %1863 = linalg.generic {indexing_maps = [#map1, #map1, #map1], iterator_types = ["parallel", "parallel", "parallel", "parallel"]} ins(%1754, %1861 : tensor<1x7x7x2048xf32>, tensor<1x7x7x2048xf32>) outs(%1862 : tensor<1x7x7x2048xf32>) {
    ^bb0(%in: f32 loc(fused[#loc18, #loc1067]), %in_29: f32 loc(fused[#loc13, #loc1096]), %out: f32 loc(fused[#loc20, #loc1097])):
      %2011 = arith.addf %in, %in_29 : f32 loc(#loc1648)
      linalg.yield %2011 : f32 loc(#loc1648)
    } -> tensor<1x7x7x2048xf32> loc(#loc1648)
    %1864 = tensor.empty() : tensor<1x7x7x2048xf32> loc(#loc1649)
    %1865 = linalg.generic {indexing_maps = [#map3, #map1], iterator_types = ["parallel", "parallel", "parallel", "parallel"]} ins(%cst_8 : tensor<f32>) outs(%1864 : tensor<1x7x7x2048xf32>) {
    ^bb0(%in: f32 loc(fused[#loc14, #loc589]), %out: f32 loc(fused[#loc18, #loc1098])):
      linalg.yield %in : f32 loc(#loc1649)
    } -> tensor<1x7x7x2048xf32> loc(#loc1649)
    %1866 = tensor.empty() : tensor<1x7x7x2048xf32> loc(#loc1649)
    %1867 = linalg.generic {indexing_maps = [#map1, #map1, #map1], iterator_types = ["parallel", "parallel", "parallel", "parallel"]} ins(%1863, %1865 : tensor<1x7x7x2048xf32>, tensor<1x7x7x2048xf32>) outs(%1866 : tensor<1x7x7x2048xf32>) {
    ^bb0(%in: f32 loc(fused[#loc20, #loc1097]), %in_29: f32 loc(fused[#loc18, #loc1098]), %out: f32 loc(fused[#loc18, #loc1098])):
      %2011 = arith.maxf %in, %in_29 : f32 loc(#loc1649)
      linalg.yield %2011 : f32 loc(#loc1649)
    } -> tensor<1x7x7x2048xf32> loc(#loc1649)
    %1868 = ml_program.global_load @"__sm_node1593__resnet50.layer-166.moving_variance" : tensor<512xf32> loc(#loc1650)
    %1869 = ml_program.global_load @"__sm_node1592__resnet50.layer-166.moving_mean" : tensor<512xf32> loc(#loc1651)
    %1870 = ml_program.global_load @"__sm_node1591__resnet50.layer-166.beta" : tensor<512xf32> loc(#loc1652)
    %1871 = ml_program.global_load @"__sm_node1590__resnet50.layer-166.gamma" : tensor<512xf32> loc(#loc1653)
    %1872 = ml_program.global_load @"__sm_node1581__resnet50.layer-165.bias" : tensor<512xf32> loc(#loc1654)
    %1873 = ml_program.global_load @"__sm_node1580__resnet50.layer-165.kernel" : tensor<1x1x2048x512xf32> loc(#loc1655)
    %1874 = tensor.empty() : tensor<1x7x7x512xf32> loc(#loc1656)
    %1875 = linalg.fill ins(%cst_9 : f32) outs(%1874 : tensor<1x7x7x512xf32>) -> tensor<1x7x7x512xf32> loc(#loc1656)
    %1876 = linalg.conv_2d_nhwc_hwcf {dilations = dense<1> : tensor<2xi64>, strides = dense<1> : tensor<2xi64>} ins(%1867, %1873 : tensor<1x7x7x2048xf32>, tensor<1x1x2048x512xf32>) outs(%1875 : tensor<1x7x7x512xf32>) -> tensor<1x7x7x512xf32> loc(#loc1656)
    %1877 = tensor.empty() : tensor<1x7x7x512xf32> loc(#loc1657)
    %1878 = linalg.generic {indexing_maps = [#map, #map1], iterator_types = ["parallel", "parallel", "parallel", "parallel"]} ins(%1872 : tensor<512xf32>) outs(%1877 : tensor<1x7x7x512xf32>) {
    ^bb0(%in: f32 loc(fused[#loc15, #loc1103]), %out: f32 loc(fused[#loc17, #loc1106])):
      linalg.yield %in : f32 loc(#loc1657)
    } -> tensor<1x7x7x512xf32> loc(#loc1657)
    %1879 = tensor.empty() : tensor<1x7x7x512xf32> loc(#loc1657)
    %1880 = linalg.generic {indexing_maps = [#map1, #map1, #map1], iterator_types = ["parallel", "parallel", "parallel", "parallel"]} ins(%1876, %1878 : tensor<1x7x7x512xf32>, tensor<1x7x7x512xf32>) outs(%1879 : tensor<1x7x7x512xf32>) {
    ^bb0(%in: f32 loc(fused[#loc16, #loc1105]), %in_29: f32 loc(fused[#loc17, #loc1106]), %out: f32 loc(fused[#loc17, #loc1106])):
      %2011 = arith.addf %in, %in_29 : f32 loc(#loc1657)
      linalg.yield %2011 : f32 loc(#loc1657)
    } -> tensor<1x7x7x512xf32> loc(#loc1657)
    %1881 = tensor.empty() : tensor<512xf32> loc(#loc1658)
    %1882 = linalg.generic {indexing_maps = [#map2, #map2, #map2], iterator_types = ["parallel"]} ins(%1868, %cst_3 : tensor<512xf32>, tensor<512xf32>) outs(%1881 : tensor<512xf32>) {
    ^bb0(%in: f32 loc(fused[#loc15, #loc1099]), %in_29: f32 loc(fused[#loc13, #loc585]), %out: f32 loc(fused[#loc13, #loc1107])):
      %2011 = arith.addf %in, %in_29 : f32 loc(#loc1658)
      linalg.yield %2011 : f32 loc(#loc1658)
    } -> tensor<512xf32> loc(#loc1658)
    %1883 = tensor.empty() : tensor<512xf32> loc(#loc1658)
    %1884 = linalg.generic {indexing_maps = [#map2, #map2], iterator_types = ["parallel"]} ins(%1882 : tensor<512xf32>) outs(%1883 : tensor<512xf32>) {
    ^bb0(%in: f32 loc(fused[#loc13, #loc1107]), %out: f32 loc(fused[#loc13, #loc1107])):
      %2011 = math.sqrt %in : f32 loc(#loc1658)
      linalg.yield %2011 : f32 loc(#loc1658)
    } -> tensor<512xf32> loc(#loc1658)
    %1885 = tensor.empty() : tensor<1x7x7x512xf32> loc(#loc1658)
    %1886 = linalg.generic {indexing_maps = [#map, #map1], iterator_types = ["parallel", "parallel", "parallel", "parallel"]} ins(%1871 : tensor<512xf32>) outs(%1885 : tensor<1x7x7x512xf32>) {
    ^bb0(%in: f32 loc(fused[#loc15, #loc1102]), %out: f32 loc(fused[#loc13, #loc1107])):
      linalg.yield %in : f32 loc(#loc1658)
    } -> tensor<1x7x7x512xf32> loc(#loc1658)
    %1887 = tensor.empty() : tensor<1x7x7x512xf32> loc(#loc1658)
    %1888 = linalg.generic {indexing_maps = [#map, #map1], iterator_types = ["parallel", "parallel", "parallel", "parallel"]} ins(%1870 : tensor<512xf32>) outs(%1887 : tensor<1x7x7x512xf32>) {
    ^bb0(%in: f32 loc(fused[#loc15, #loc1101]), %out: f32 loc(fused[#loc13, #loc1107])):
      linalg.yield %in : f32 loc(#loc1658)
    } -> tensor<1x7x7x512xf32> loc(#loc1658)
    %1889 = tensor.empty() : tensor<1x7x7x512xf32> loc(#loc1658)
    %1890 = linalg.generic {indexing_maps = [#map, #map1], iterator_types = ["parallel", "parallel", "parallel", "parallel"]} ins(%1869 : tensor<512xf32>) outs(%1889 : tensor<1x7x7x512xf32>) {
    ^bb0(%in: f32 loc(fused[#loc15, #loc1100]), %out: f32 loc(fused[#loc13, #loc1107])):
      linalg.yield %in : f32 loc(#loc1658)
    } -> tensor<1x7x7x512xf32> loc(#loc1658)
    %1891 = tensor.empty() : tensor<1x7x7x512xf32> loc(#loc1658)
    %1892 = linalg.generic {indexing_maps = [#map, #map1], iterator_types = ["parallel", "parallel", "parallel", "parallel"]} ins(%1884 : tensor<512xf32>) outs(%1891 : tensor<1x7x7x512xf32>) {
    ^bb0(%in: f32 loc(fused[#loc13, #loc1107]), %out: f32 loc(fused[#loc13, #loc1107])):
      linalg.yield %in : f32 loc(#loc1658)
    } -> tensor<1x7x7x512xf32> loc(#loc1658)
    %1893 = tensor.empty() : tensor<1x7x7x512xf32> loc(#loc1658)
    %1894 = linalg.generic {indexing_maps = [#map1, #map1, #map1], iterator_types = ["parallel", "parallel", "parallel", "parallel"]} ins(%1880, %1890 : tensor<1x7x7x512xf32>, tensor<1x7x7x512xf32>) outs(%1893 : tensor<1x7x7x512xf32>) {
    ^bb0(%in: f32 loc(fused[#loc17, #loc1106]), %in_29: f32 loc(fused[#loc13, #loc1107]), %out: f32 loc(fused[#loc13, #loc1107])):
      %2011 = arith.subf %in, %in_29 : f32 loc(#loc1658)
      linalg.yield %2011 : f32 loc(#loc1658)
    } -> tensor<1x7x7x512xf32> loc(#loc1658)
    %1895 = tensor.empty() : tensor<1x7x7x512xf32> loc(#loc1658)
    %1896 = linalg.generic {indexing_maps = [#map1, #map1, #map1], iterator_types = ["parallel", "parallel", "parallel", "parallel"]} ins(%1894, %1886 : tensor<1x7x7x512xf32>, tensor<1x7x7x512xf32>) outs(%1895 : tensor<1x7x7x512xf32>) {
    ^bb0(%in: f32 loc(fused[#loc13, #loc1107]), %in_29: f32 loc(fused[#loc13, #loc1107]), %out: f32 loc(fused[#loc13, #loc1107])):
      %2011 = arith.mulf %in, %in_29 : f32 loc(#loc1658)
      linalg.yield %2011 : f32 loc(#loc1658)
    } -> tensor<1x7x7x512xf32> loc(#loc1658)
    %1897 = tensor.empty() : tensor<1x7x7x512xf32> loc(#loc1658)
    %1898 = linalg.generic {indexing_maps = [#map1, #map1, #map1], iterator_types = ["parallel", "parallel", "parallel", "parallel"]} ins(%1896, %1892 : tensor<1x7x7x512xf32>, tensor<1x7x7x512xf32>) outs(%1897 : tensor<1x7x7x512xf32>) {
    ^bb0(%in: f32 loc(fused[#loc13, #loc1107]), %in_29: f32 loc(fused[#loc13, #loc1107]), %out: f32 loc(fused[#loc13, #loc1107])):
      %2011 = arith.divf %in, %in_29 : f32 loc(#loc1658)
      linalg.yield %2011 : f32 loc(#loc1658)
    } -> tensor<1x7x7x512xf32> loc(#loc1658)
    %1899 = tensor.empty() : tensor<1x7x7x512xf32> loc(#loc1658)
    %1900 = linalg.generic {indexing_maps = [#map1, #map1, #map1], iterator_types = ["parallel", "parallel", "parallel", "parallel"]} ins(%1898, %1888 : tensor<1x7x7x512xf32>, tensor<1x7x7x512xf32>) outs(%1899 : tensor<1x7x7x512xf32>) {
    ^bb0(%in: f32 loc(fused[#loc13, #loc1107]), %in_29: f32 loc(fused[#loc13, #loc1107]), %out: f32 loc(fused[#loc13, #loc1107])):
      %2011 = arith.addf %in, %in_29 : f32 loc(#loc1658)
      linalg.yield %2011 : f32 loc(#loc1658)
    } -> tensor<1x7x7x512xf32> loc(#loc1658)
    %1901 = tensor.empty() : tensor<1x7x7x512xf32> loc(#loc1659)
    %1902 = linalg.generic {indexing_maps = [#map3, #map1], iterator_types = ["parallel", "parallel", "parallel", "parallel"]} ins(%cst_8 : tensor<f32>) outs(%1901 : tensor<1x7x7x512xf32>) {
    ^bb0(%in: f32 loc(fused[#loc14, #loc589]), %out: f32 loc(fused[#loc18, #loc1108])):
      linalg.yield %in : f32 loc(#loc1659)
    } -> tensor<1x7x7x512xf32> loc(#loc1659)
    %1903 = tensor.empty() : tensor<1x7x7x512xf32> loc(#loc1659)
    %1904 = linalg.generic {indexing_maps = [#map1, #map1, #map1], iterator_types = ["parallel", "parallel", "parallel", "parallel"]} ins(%1900, %1902 : tensor<1x7x7x512xf32>, tensor<1x7x7x512xf32>) outs(%1903 : tensor<1x7x7x512xf32>) {
    ^bb0(%in: f32 loc(fused[#loc13, #loc1107]), %in_29: f32 loc(fused[#loc18, #loc1108]), %out: f32 loc(fused[#loc18, #loc1108])):
      %2011 = arith.maxf %in, %in_29 : f32 loc(#loc1659)
      linalg.yield %2011 : f32 loc(#loc1659)
    } -> tensor<1x7x7x512xf32> loc(#loc1659)
    %1905 = ml_program.global_load @"__sm_node1619__resnet50.layer-169.moving_variance" : tensor<512xf32> loc(#loc1660)
    %1906 = ml_program.global_load @"__sm_node1618__resnet50.layer-169.moving_mean" : tensor<512xf32> loc(#loc1661)
    %1907 = ml_program.global_load @"__sm_node1617__resnet50.layer-169.beta" : tensor<512xf32> loc(#loc1662)
    %1908 = ml_program.global_load @"__sm_node1616__resnet50.layer-169.gamma" : tensor<512xf32> loc(#loc1663)
    %1909 = ml_program.global_load @"__sm_node1607__resnet50.layer-168.bias" : tensor<512xf32> loc(#loc1664)
    %1910 = ml_program.global_load @"__sm_node1606__resnet50.layer-168.kernel" : tensor<3x3x512x512xf32> loc(#loc1665)
    %1911 = tensor.empty() : tensor<1x7x7x512xf32> loc(#loc1666)
    %1912 = linalg.fill ins(%cst_9 : f32) outs(%1911 : tensor<1x7x7x512xf32>) -> tensor<1x7x7x512xf32> loc(#loc1666)
    %padded_26 = tensor.pad %1904 low[0, 1, 1, 0] high[0, 1, 1, 0] {
    ^bb0(%arg1: index loc(fused[#loc16, #loc1115]), %arg2: index loc(fused[#loc16, #loc1115]), %arg3: index loc(fused[#loc16, #loc1115]), %arg4: index loc(fused[#loc16, #loc1115])):
      tensor.yield %cst_9 : f32 loc(#loc1666)
    } : tensor<1x7x7x512xf32> to tensor<1x9x9x512xf32> loc(#loc1666)
    %1913 = linalg.conv_2d_nhwc_hwcf {dilations = dense<1> : tensor<2xi64>, strides = dense<1> : tensor<2xi64>} ins(%padded_26, %1910 : tensor<1x9x9x512xf32>, tensor<3x3x512x512xf32>) outs(%1912 : tensor<1x7x7x512xf32>) -> tensor<1x7x7x512xf32> loc(#loc1666)
    %1914 = tensor.empty() : tensor<1x7x7x512xf32> loc(#loc1667)
    %1915 = linalg.generic {indexing_maps = [#map, #map1], iterator_types = ["parallel", "parallel", "parallel", "parallel"]} ins(%1909 : tensor<512xf32>) outs(%1914 : tensor<1x7x7x512xf32>) {
    ^bb0(%in: f32 loc(fused[#loc15, #loc1113]), %out: f32 loc(fused[#loc17, #loc1116])):
      linalg.yield %in : f32 loc(#loc1667)
    } -> tensor<1x7x7x512xf32> loc(#loc1667)
    %1916 = tensor.empty() : tensor<1x7x7x512xf32> loc(#loc1667)
    %1917 = linalg.generic {indexing_maps = [#map1, #map1, #map1], iterator_types = ["parallel", "parallel", "parallel", "parallel"]} ins(%1913, %1915 : tensor<1x7x7x512xf32>, tensor<1x7x7x512xf32>) outs(%1916 : tensor<1x7x7x512xf32>) {
    ^bb0(%in: f32 loc(fused[#loc16, #loc1115]), %in_29: f32 loc(fused[#loc17, #loc1116]), %out: f32 loc(fused[#loc17, #loc1116])):
      %2011 = arith.addf %in, %in_29 : f32 loc(#loc1667)
      linalg.yield %2011 : f32 loc(#loc1667)
    } -> tensor<1x7x7x512xf32> loc(#loc1667)
    %1918 = tensor.empty() : tensor<512xf32> loc(#loc1136)
    %1919 = linalg.generic {indexing_maps = [#map2, #map2, #map2], iterator_types = ["parallel"]} ins(%1905, %cst_3 : tensor<512xf32>, tensor<512xf32>) outs(%1918 : tensor<512xf32>) {
    ^bb0(%in: f32 loc(fused[#loc15, #loc1109]), %in_29: f32 loc(fused[#loc13, #loc585]), %out: f32 loc(fused[#loc13, #loc585])):
      %2011 = arith.addf %in, %in_29 : f32 loc(#loc1136)
      linalg.yield %2011 : f32 loc(#loc1136)
    } -> tensor<512xf32> loc(#loc1136)
    %1920 = tensor.empty() : tensor<512xf32> loc(#loc1136)
    %1921 = linalg.generic {indexing_maps = [#map2, #map2], iterator_types = ["parallel"]} ins(%1919 : tensor<512xf32>) outs(%1920 : tensor<512xf32>) {
    ^bb0(%in: f32 loc(fused[#loc13, #loc585]), %out: f32 loc(fused[#loc13, #loc585])):
      %2011 = math.sqrt %in : f32 loc(#loc1136)
      linalg.yield %2011 : f32 loc(#loc1136)
    } -> tensor<512xf32> loc(#loc1136)
    %1922 = tensor.empty() : tensor<1x7x7x512xf32> loc(#loc1136)
    %1923 = linalg.generic {indexing_maps = [#map, #map1], iterator_types = ["parallel", "parallel", "parallel", "parallel"]} ins(%1908 : tensor<512xf32>) outs(%1922 : tensor<1x7x7x512xf32>) {
    ^bb0(%in: f32 loc(fused[#loc15, #loc1112]), %out: f32 loc(fused[#loc13, #loc585])):
      linalg.yield %in : f32 loc(#loc1136)
    } -> tensor<1x7x7x512xf32> loc(#loc1136)
    %1924 = tensor.empty() : tensor<1x7x7x512xf32> loc(#loc1136)
    %1925 = linalg.generic {indexing_maps = [#map, #map1], iterator_types = ["parallel", "parallel", "parallel", "parallel"]} ins(%1907 : tensor<512xf32>) outs(%1924 : tensor<1x7x7x512xf32>) {
    ^bb0(%in: f32 loc(fused[#loc15, #loc1111]), %out: f32 loc(fused[#loc13, #loc585])):
      linalg.yield %in : f32 loc(#loc1136)
    } -> tensor<1x7x7x512xf32> loc(#loc1136)
    %1926 = tensor.empty() : tensor<1x7x7x512xf32> loc(#loc1136)
    %1927 = linalg.generic {indexing_maps = [#map, #map1], iterator_types = ["parallel", "parallel", "parallel", "parallel"]} ins(%1906 : tensor<512xf32>) outs(%1926 : tensor<1x7x7x512xf32>) {
    ^bb0(%in: f32 loc(fused[#loc15, #loc1110]), %out: f32 loc(fused[#loc13, #loc585])):
      linalg.yield %in : f32 loc(#loc1136)
    } -> tensor<1x7x7x512xf32> loc(#loc1136)
    %1928 = tensor.empty() : tensor<1x7x7x512xf32> loc(#loc1136)
    %1929 = linalg.generic {indexing_maps = [#map, #map1], iterator_types = ["parallel", "parallel", "parallel", "parallel"]} ins(%1921 : tensor<512xf32>) outs(%1928 : tensor<1x7x7x512xf32>) {
    ^bb0(%in: f32 loc(fused[#loc13, #loc585]), %out: f32 loc(fused[#loc13, #loc585])):
      linalg.yield %in : f32 loc(#loc1136)
    } -> tensor<1x7x7x512xf32> loc(#loc1136)
    %1930 = tensor.empty() : tensor<1x7x7x512xf32> loc(#loc1136)
    %1931 = linalg.generic {indexing_maps = [#map1, #map1, #map1], iterator_types = ["parallel", "parallel", "parallel", "parallel"]} ins(%1917, %1927 : tensor<1x7x7x512xf32>, tensor<1x7x7x512xf32>) outs(%1930 : tensor<1x7x7x512xf32>) {
    ^bb0(%in: f32 loc(fused[#loc17, #loc1116]), %in_29: f32 loc(fused[#loc13, #loc585]), %out: f32 loc(fused[#loc13, #loc585])):
      %2011 = arith.subf %in, %in_29 : f32 loc(#loc1136)
      linalg.yield %2011 : f32 loc(#loc1136)
    } -> tensor<1x7x7x512xf32> loc(#loc1136)
    %1932 = tensor.empty() : tensor<1x7x7x512xf32> loc(#loc1136)
    %1933 = linalg.generic {indexing_maps = [#map1, #map1, #map1], iterator_types = ["parallel", "parallel", "parallel", "parallel"]} ins(%1931, %1923 : tensor<1x7x7x512xf32>, tensor<1x7x7x512xf32>) outs(%1932 : tensor<1x7x7x512xf32>) {
    ^bb0(%in: f32 loc(fused[#loc13, #loc585]), %in_29: f32 loc(fused[#loc13, #loc585]), %out: f32 loc(fused[#loc13, #loc585])):
      %2011 = arith.mulf %in, %in_29 : f32 loc(#loc1136)
      linalg.yield %2011 : f32 loc(#loc1136)
    } -> tensor<1x7x7x512xf32> loc(#loc1136)
    %1934 = tensor.empty() : tensor<1x7x7x512xf32> loc(#loc1136)
    %1935 = linalg.generic {indexing_maps = [#map1, #map1, #map1], iterator_types = ["parallel", "parallel", "parallel", "parallel"]} ins(%1933, %1929 : tensor<1x7x7x512xf32>, tensor<1x7x7x512xf32>) outs(%1934 : tensor<1x7x7x512xf32>) {
    ^bb0(%in: f32 loc(fused[#loc13, #loc585]), %in_29: f32 loc(fused[#loc13, #loc585]), %out: f32 loc(fused[#loc13, #loc585])):
      %2011 = arith.divf %in, %in_29 : f32 loc(#loc1136)
      linalg.yield %2011 : f32 loc(#loc1136)
    } -> tensor<1x7x7x512xf32> loc(#loc1136)
    %1936 = tensor.empty() : tensor<1x7x7x512xf32> loc(#loc1136)
    %1937 = linalg.generic {indexing_maps = [#map1, #map1, #map1], iterator_types = ["parallel", "parallel", "parallel", "parallel"]} ins(%1935, %1925 : tensor<1x7x7x512xf32>, tensor<1x7x7x512xf32>) outs(%1936 : tensor<1x7x7x512xf32>) {
    ^bb0(%in: f32 loc(fused[#loc13, #loc585]), %in_29: f32 loc(fused[#loc13, #loc585]), %out: f32 loc(fused[#loc13, #loc585])):
      %2011 = arith.addf %in, %in_29 : f32 loc(#loc1136)
      linalg.yield %2011 : f32 loc(#loc1136)
    } -> tensor<1x7x7x512xf32> loc(#loc1136)
    %1938 = tensor.empty() : tensor<1x7x7x512xf32> loc(#loc1668)
    %1939 = linalg.generic {indexing_maps = [#map3, #map1], iterator_types = ["parallel", "parallel", "parallel", "parallel"]} ins(%cst_8 : tensor<f32>) outs(%1938 : tensor<1x7x7x512xf32>) {
    ^bb0(%in: f32 loc(fused[#loc14, #loc589]), %out: f32 loc(fused[#loc18, #loc1117])):
      linalg.yield %in : f32 loc(#loc1668)
    } -> tensor<1x7x7x512xf32> loc(#loc1668)
    %1940 = tensor.empty() : tensor<1x7x7x512xf32> loc(#loc1668)
    %1941 = linalg.generic {indexing_maps = [#map1, #map1, #map1], iterator_types = ["parallel", "parallel", "parallel", "parallel"]} ins(%1937, %1939 : tensor<1x7x7x512xf32>, tensor<1x7x7x512xf32>) outs(%1940 : tensor<1x7x7x512xf32>) {
    ^bb0(%in: f32 loc(fused[#loc13, #loc585]), %in_29: f32 loc(fused[#loc18, #loc1117]), %out: f32 loc(fused[#loc18, #loc1117])):
      %2011 = arith.maxf %in, %in_29 : f32 loc(#loc1668)
      linalg.yield %2011 : f32 loc(#loc1668)
    } -> tensor<1x7x7x512xf32> loc(#loc1668)
    %1942 = ml_program.global_load @"__sm_node1645__resnet50.layer-172.moving_variance" : tensor<2048xf32> loc(#loc1669)
    %1943 = ml_program.global_load @"__sm_node1644__resnet50.layer-172.moving_mean" : tensor<2048xf32> loc(#loc1670)
    %1944 = ml_program.global_load @"__sm_node1643__resnet50.layer-172.beta" : tensor<2048xf32> loc(#loc1671)
    %1945 = ml_program.global_load @"__sm_node1642__resnet50.layer-172.gamma" : tensor<2048xf32> loc(#loc1672)
    %1946 = ml_program.global_load @"__sm_node1633__resnet50.layer-171.bias" : tensor<2048xf32> loc(#loc1673)
    %1947 = ml_program.global_load @"__sm_node1632__resnet50.layer-171.kernel" : tensor<1x1x512x2048xf32> loc(#loc1674)
    %1948 = tensor.empty() : tensor<1x7x7x2048xf32> loc(#loc1675)
    %1949 = linalg.fill ins(%cst_9 : f32) outs(%1948 : tensor<1x7x7x2048xf32>) -> tensor<1x7x7x2048xf32> loc(#loc1675)
    %1950 = linalg.conv_2d_nhwc_hwcf {dilations = dense<1> : tensor<2xi64>, strides = dense<1> : tensor<2xi64>} ins(%1941, %1947 : tensor<1x7x7x512xf32>, tensor<1x1x512x2048xf32>) outs(%1949 : tensor<1x7x7x2048xf32>) -> tensor<1x7x7x2048xf32> loc(#loc1675)
    %1951 = tensor.empty() : tensor<1x7x7x2048xf32> loc(#loc1676)
    %1952 = linalg.generic {indexing_maps = [#map, #map1], iterator_types = ["parallel", "parallel", "parallel", "parallel"]} ins(%1946 : tensor<2048xf32>) outs(%1951 : tensor<1x7x7x2048xf32>) {
    ^bb0(%in: f32 loc(fused[#loc15, #loc1122]), %out: f32 loc(fused[#loc17, #loc1125])):
      linalg.yield %in : f32 loc(#loc1676)
    } -> tensor<1x7x7x2048xf32> loc(#loc1676)
    %1953 = tensor.empty() : tensor<1x7x7x2048xf32> loc(#loc1676)
    %1954 = linalg.generic {indexing_maps = [#map1, #map1, #map1], iterator_types = ["parallel", "parallel", "parallel", "parallel"]} ins(%1950, %1952 : tensor<1x7x7x2048xf32>, tensor<1x7x7x2048xf32>) outs(%1953 : tensor<1x7x7x2048xf32>) {
    ^bb0(%in: f32 loc(fused[#loc16, #loc1124]), %in_29: f32 loc(fused[#loc17, #loc1125]), %out: f32 loc(fused[#loc17, #loc1125])):
      %2011 = arith.addf %in, %in_29 : f32 loc(#loc1676)
      linalg.yield %2011 : f32 loc(#loc1676)
    } -> tensor<1x7x7x2048xf32> loc(#loc1676)
    %1955 = tensor.empty() : tensor<2048xf32> loc(#loc1139)
    %1956 = linalg.generic {indexing_maps = [#map2, #map2, #map2], iterator_types = ["parallel"]} ins(%1942, %cst_6 : tensor<2048xf32>, tensor<2048xf32>) outs(%1955 : tensor<2048xf32>) {
    ^bb0(%in: f32 loc(fused[#loc15, #loc1118]), %in_29: f32 loc(fused[#loc13, #loc588]), %out: f32 loc(fused[#loc13, #loc588])):
      %2011 = arith.addf %in, %in_29 : f32 loc(#loc1139)
      linalg.yield %2011 : f32 loc(#loc1139)
    } -> tensor<2048xf32> loc(#loc1139)
    %1957 = tensor.empty() : tensor<2048xf32> loc(#loc1139)
    %1958 = linalg.generic {indexing_maps = [#map2, #map2], iterator_types = ["parallel"]} ins(%1956 : tensor<2048xf32>) outs(%1957 : tensor<2048xf32>) {
    ^bb0(%in: f32 loc(fused[#loc13, #loc588]), %out: f32 loc(fused[#loc13, #loc588])):
      %2011 = math.sqrt %in : f32 loc(#loc1139)
      linalg.yield %2011 : f32 loc(#loc1139)
    } -> tensor<2048xf32> loc(#loc1139)
    %1959 = tensor.empty() : tensor<1x7x7x2048xf32> loc(#loc1139)
    %1960 = linalg.generic {indexing_maps = [#map, #map1], iterator_types = ["parallel", "parallel", "parallel", "parallel"]} ins(%1945 : tensor<2048xf32>) outs(%1959 : tensor<1x7x7x2048xf32>) {
    ^bb0(%in: f32 loc(fused[#loc15, #loc1121]), %out: f32 loc(fused[#loc13, #loc588])):
      linalg.yield %in : f32 loc(#loc1139)
    } -> tensor<1x7x7x2048xf32> loc(#loc1139)
    %1961 = tensor.empty() : tensor<1x7x7x2048xf32> loc(#loc1139)
    %1962 = linalg.generic {indexing_maps = [#map, #map1], iterator_types = ["parallel", "parallel", "parallel", "parallel"]} ins(%1944 : tensor<2048xf32>) outs(%1961 : tensor<1x7x7x2048xf32>) {
    ^bb0(%in: f32 loc(fused[#loc15, #loc1120]), %out: f32 loc(fused[#loc13, #loc588])):
      linalg.yield %in : f32 loc(#loc1139)
    } -> tensor<1x7x7x2048xf32> loc(#loc1139)
    %1963 = tensor.empty() : tensor<1x7x7x2048xf32> loc(#loc1139)
    %1964 = linalg.generic {indexing_maps = [#map, #map1], iterator_types = ["parallel", "parallel", "parallel", "parallel"]} ins(%1943 : tensor<2048xf32>) outs(%1963 : tensor<1x7x7x2048xf32>) {
    ^bb0(%in: f32 loc(fused[#loc15, #loc1119]), %out: f32 loc(fused[#loc13, #loc588])):
      linalg.yield %in : f32 loc(#loc1139)
    } -> tensor<1x7x7x2048xf32> loc(#loc1139)
    %1965 = tensor.empty() : tensor<1x7x7x2048xf32> loc(#loc1139)
    %1966 = linalg.generic {indexing_maps = [#map, #map1], iterator_types = ["parallel", "parallel", "parallel", "parallel"]} ins(%1958 : tensor<2048xf32>) outs(%1965 : tensor<1x7x7x2048xf32>) {
    ^bb0(%in: f32 loc(fused[#loc13, #loc588]), %out: f32 loc(fused[#loc13, #loc588])):
      linalg.yield %in : f32 loc(#loc1139)
    } -> tensor<1x7x7x2048xf32> loc(#loc1139)
    %1967 = tensor.empty() : tensor<1x7x7x2048xf32> loc(#loc1139)
    %1968 = linalg.generic {indexing_maps = [#map1, #map1, #map1], iterator_types = ["parallel", "parallel", "parallel", "parallel"]} ins(%1954, %1964 : tensor<1x7x7x2048xf32>, tensor<1x7x7x2048xf32>) outs(%1967 : tensor<1x7x7x2048xf32>) {
    ^bb0(%in: f32 loc(fused[#loc17, #loc1125]), %in_29: f32 loc(fused[#loc13, #loc588]), %out: f32 loc(fused[#loc13, #loc588])):
      %2011 = arith.subf %in, %in_29 : f32 loc(#loc1139)
      linalg.yield %2011 : f32 loc(#loc1139)
    } -> tensor<1x7x7x2048xf32> loc(#loc1139)
    %1969 = tensor.empty() : tensor<1x7x7x2048xf32> loc(#loc1139)
    %1970 = linalg.generic {indexing_maps = [#map1, #map1, #map1], iterator_types = ["parallel", "parallel", "parallel", "parallel"]} ins(%1968, %1960 : tensor<1x7x7x2048xf32>, tensor<1x7x7x2048xf32>) outs(%1969 : tensor<1x7x7x2048xf32>) {
    ^bb0(%in: f32 loc(fused[#loc13, #loc588]), %in_29: f32 loc(fused[#loc13, #loc588]), %out: f32 loc(fused[#loc13, #loc588])):
      %2011 = arith.mulf %in, %in_29 : f32 loc(#loc1139)
      linalg.yield %2011 : f32 loc(#loc1139)
    } -> tensor<1x7x7x2048xf32> loc(#loc1139)
    %1971 = tensor.empty() : tensor<1x7x7x2048xf32> loc(#loc1139)
    %1972 = linalg.generic {indexing_maps = [#map1, #map1, #map1], iterator_types = ["parallel", "parallel", "parallel", "parallel"]} ins(%1970, %1966 : tensor<1x7x7x2048xf32>, tensor<1x7x7x2048xf32>) outs(%1971 : tensor<1x7x7x2048xf32>) {
    ^bb0(%in: f32 loc(fused[#loc13, #loc588]), %in_29: f32 loc(fused[#loc13, #loc588]), %out: f32 loc(fused[#loc13, #loc588])):
      %2011 = arith.divf %in, %in_29 : f32 loc(#loc1139)
      linalg.yield %2011 : f32 loc(#loc1139)
    } -> tensor<1x7x7x2048xf32> loc(#loc1139)
    %1973 = tensor.empty() : tensor<1x7x7x2048xf32> loc(#loc1139)
    %1974 = linalg.generic {indexing_maps = [#map1, #map1, #map1], iterator_types = ["parallel", "parallel", "parallel", "parallel"]} ins(%1972, %1962 : tensor<1x7x7x2048xf32>, tensor<1x7x7x2048xf32>) outs(%1973 : tensor<1x7x7x2048xf32>) {
    ^bb0(%in: f32 loc(fused[#loc13, #loc588]), %in_29: f32 loc(fused[#loc13, #loc588]), %out: f32 loc(fused[#loc13, #loc588])):
      %2011 = arith.addf %in, %in_29 : f32 loc(#loc1139)
      linalg.yield %2011 : f32 loc(#loc1139)
    } -> tensor<1x7x7x2048xf32> loc(#loc1139)
    %1975 = tensor.empty() : tensor<1x7x7x2048xf32> loc(#loc1677)
    %1976 = linalg.generic {indexing_maps = [#map1, #map1, #map1], iterator_types = ["parallel", "parallel", "parallel", "parallel"]} ins(%1867, %1974 : tensor<1x7x7x2048xf32>, tensor<1x7x7x2048xf32>) outs(%1975 : tensor<1x7x7x2048xf32>) {
    ^bb0(%in: f32 loc(fused[#loc18, #loc1098]), %in_29: f32 loc(fused[#loc13, #loc588]), %out: f32 loc(fused[#loc20, #loc1126])):
      %2011 = arith.addf %in, %in_29 : f32 loc(#loc1677)
      linalg.yield %2011 : f32 loc(#loc1677)
    } -> tensor<1x7x7x2048xf32> loc(#loc1677)
    %1977 = tensor.empty() : tensor<1x7x7x2048xf32> loc(#loc1678)
    %1978 = linalg.generic {indexing_maps = [#map3, #map1], iterator_types = ["parallel", "parallel", "parallel", "parallel"]} ins(%cst_8 : tensor<f32>) outs(%1977 : tensor<1x7x7x2048xf32>) {
    ^bb0(%in: f32 loc(fused[#loc14, #loc589]), %out: f32 loc(fused[#loc18, #loc1127])):
      linalg.yield %in : f32 loc(#loc1678)
    } -> tensor<1x7x7x2048xf32> loc(#loc1678)
    %1979 = tensor.empty() : tensor<1x7x7x2048xf32> loc(#loc1678)
    %1980 = linalg.generic {indexing_maps = [#map1, #map1, #map1], iterator_types = ["parallel", "parallel", "parallel", "parallel"]} ins(%1976, %1978 : tensor<1x7x7x2048xf32>, tensor<1x7x7x2048xf32>) outs(%1979 : tensor<1x7x7x2048xf32>) {
    ^bb0(%in: f32 loc(fused[#loc20, #loc1126]), %in_29: f32 loc(fused[#loc18, #loc1127]), %out: f32 loc(fused[#loc18, #loc1127])):
      %2011 = arith.maxf %in, %in_29 : f32 loc(#loc1678)
      linalg.yield %2011 : f32 loc(#loc1678)
    } -> tensor<1x7x7x2048xf32> loc(#loc1678)
    %1981 = tensor.empty() : tensor<1x2048xf32> loc(#loc1133)
    %1982 = linalg.fill ins(%cst_0 : f32) outs(%1981 : tensor<1x2048xf32>) -> tensor<1x2048xf32> loc(#loc1133)
    %1983 = linalg.generic {indexing_maps = [#map4, #map5], iterator_types = ["parallel", "parallel", "reduction", "reduction"]} ins(%1980 : tensor<1x7x7x2048xf32>) outs(%1982 : tensor<1x2048xf32>) {
    ^bb0(%in: f32 loc(unknown), %out: f32 loc(unknown)):
      %2011 = arith.addf %out, %in : f32 loc(#loc1133)
      linalg.yield %2011 : f32 loc(#loc1133)
    } -> tensor<1x2048xf32> loc(#loc1133)
    %1984 = tensor.empty() : tensor<1x2048xf32> loc(#loc1133)
    %1985 = linalg.generic {indexing_maps = [#map6, #map7], iterator_types = ["parallel", "parallel"]} ins(%cst_7 : tensor<f32>) outs(%1984 : tensor<1x2048xf32>) {
    ^bb0(%in: f32 loc(fused[#loc12, #loc582]), %out: f32 loc(fused[#loc12, #loc582])):
      linalg.yield %in : f32 loc(#loc1133)
    } -> tensor<1x2048xf32> loc(#loc1133)
    %1986 = tensor.empty() : tensor<1x2048xf32> loc(#loc1133)
    %1987 = linalg.generic {indexing_maps = [#map7, #map7, #map7], iterator_types = ["parallel", "parallel"]} ins(%1983, %1985 : tensor<1x2048xf32>, tensor<1x2048xf32>) outs(%1986 : tensor<1x2048xf32>) {
    ^bb0(%in: f32 loc(fused[#loc12, #loc582]), %in_29: f32 loc(fused[#loc12, #loc582]), %out: f32 loc(fused[#loc12, #loc582])):
      %2011 = arith.divf %in, %in_29 : f32 loc(#loc1133)
      linalg.yield %2011 : f32 loc(#loc1133)
    } -> tensor<1x2048xf32> loc(#loc1133)
    %1988 = ml_program.global_load @"__sm_node1671__resnet50.layer-176.bias" : tensor<1000xf32> loc(#loc1679)
    %1989 = ml_program.global_load @"__sm_node1670__resnet50.layer-176.kernel" : tensor<2048x1000xf32> loc(#loc1680)
    %1990 = tensor.empty() : tensor<1x1000xf32> loc(#loc1681)
    %1991 = linalg.fill ins(%cst_9 : f32) outs(%1990 : tensor<1x1000xf32>) -> tensor<1x1000xf32> loc(#loc1681)
    %1992 = linalg.matmul ins(%1987, %1989 : tensor<1x2048xf32>, tensor<2048x1000xf32>) outs(%1991 : tensor<1x1000xf32>) -> tensor<1x1000xf32> loc(#loc1681)
    %expanded = tensor.expand_shape %1988 [[0, 1]] : tensor<1000xf32> into tensor<1x1000xf32> loc(#loc1682)
    %1993 = tensor.empty() : tensor<1x1000xf32> loc(#loc1682)
    %1994 = linalg.generic {indexing_maps = [#map7, #map7, #map7], iterator_types = ["parallel", "parallel"]} ins(%1992, %expanded : tensor<1x1000xf32>, tensor<1x1000xf32>) outs(%1993 : tensor<1x1000xf32>) {
    ^bb0(%in: f32 loc(fused[#loc21, #loc1130]), %in_29: f32 loc(fused[#loc17, #loc1131]), %out: f32 loc(fused[#loc17, #loc1131])):
      %2011 = arith.addf %in, %in_29 : f32 loc(#loc1682)
      linalg.yield %2011 : f32 loc(#loc1682)
    } -> tensor<1x1000xf32> loc(#loc1682)
    %1995 = tensor.empty() : tensor<1xf32> loc(#loc1132)
    %1996 = linalg.fill ins(%cst : f32) outs(%1995 : tensor<1xf32>) -> tensor<1xf32> loc(#loc1132)
    %1997 = linalg.generic {indexing_maps = [#map7, #map8], iterator_types = ["parallel", "reduction"]} ins(%1994 : tensor<1x1000xf32>) outs(%1996 : tensor<1xf32>) {
    ^bb0(%in: f32 loc(unknown), %out: f32 loc(unknown)):
      %2011 = arith.maxf %out, %in : f32 loc(#loc1132)
      linalg.yield %2011 : f32 loc(#loc1132)
    } -> tensor<1xf32> loc(#loc1132)
    %expanded_27 = tensor.expand_shape %1997 [[0, 1]] : tensor<1xf32> into tensor<1x1xf32> loc(#loc1132)
    %1998 = tensor.empty() : tensor<1x1000xf32> loc(#loc1132)
    %1999 = linalg.generic {indexing_maps = [#map9, #map7], iterator_types = ["parallel", "parallel"]} ins(%expanded_27 : tensor<1x1xf32>) outs(%1998 : tensor<1x1000xf32>) {
    ^bb0(%in: f32 loc(fused[#loc1, #loc581]), %out: f32 loc(fused[#loc1, #loc581])):
      linalg.yield %in : f32 loc(#loc1132)
    } -> tensor<1x1000xf32> loc(#loc1132)
    %2000 = tensor.empty() : tensor<1x1000xf32> loc(#loc1132)
    %2001 = linalg.generic {indexing_maps = [#map7, #map7, #map7], iterator_types = ["parallel", "parallel"]} ins(%1994, %1999 : tensor<1x1000xf32>, tensor<1x1000xf32>) outs(%2000 : tensor<1x1000xf32>) {
    ^bb0(%in: f32 loc(fused[#loc17, #loc1131]), %in_29: f32 loc(fused[#loc1, #loc581]), %out: f32 loc(fused[#loc1, #loc581])):
      %2011 = arith.subf %in, %in_29 : f32 loc(#loc1132)
      linalg.yield %2011 : f32 loc(#loc1132)
    } -> tensor<1x1000xf32> loc(#loc1132)
    %2002 = tensor.empty() : tensor<1x1000xf32> loc(#loc1132)
    %2003 = linalg.generic {indexing_maps = [#map7, #map7], iterator_types = ["parallel", "parallel"]} ins(%2001 : tensor<1x1000xf32>) outs(%2002 : tensor<1x1000xf32>) {
    ^bb0(%in: f32 loc(fused[#loc1, #loc581]), %out: f32 loc(fused[#loc1, #loc581])):
      %2011 = math.exp %in : f32 loc(#loc1132)
      linalg.yield %2011 : f32 loc(#loc1132)
    } -> tensor<1x1000xf32> loc(#loc1132)
    %2004 = tensor.empty() : tensor<1xf32> loc(#loc1132)
    %2005 = linalg.fill ins(%cst_0 : f32) outs(%2004 : tensor<1xf32>) -> tensor<1xf32> loc(#loc1132)
    %2006 = linalg.generic {indexing_maps = [#map7, #map8], iterator_types = ["parallel", "reduction"]} ins(%2003 : tensor<1x1000xf32>) outs(%2005 : tensor<1xf32>) {
    ^bb0(%in: f32 loc(unknown), %out: f32 loc(unknown)):
      %2011 = arith.addf %out, %in : f32 loc(#loc1132)
      linalg.yield %2011 : f32 loc(#loc1132)
    } -> tensor<1xf32> loc(#loc1132)
    %expanded_28 = tensor.expand_shape %2006 [[0, 1]] : tensor<1xf32> into tensor<1x1xf32> loc(#loc1132)
    %2007 = tensor.empty() : tensor<1x1000xf32> loc(#loc1132)
    %2008 = linalg.generic {indexing_maps = [#map9, #map7], iterator_types = ["parallel", "parallel"]} ins(%expanded_28 : tensor<1x1xf32>) outs(%2007 : tensor<1x1000xf32>) {
    ^bb0(%in: f32 loc(fused[#loc1, #loc581]), %out: f32 loc(fused[#loc1, #loc581])):
      linalg.yield %in : f32 loc(#loc1132)
    } -> tensor<1x1000xf32> loc(#loc1132)
    %2009 = tensor.empty() : tensor<1x1000xf32> loc(#loc1132)
    %2010 = linalg.generic {indexing_maps = [#map7, #map7, #map7], iterator_types = ["parallel", "parallel"]} ins(%2003, %2008 : tensor<1x1000xf32>, tensor<1x1000xf32>) outs(%2009 : tensor<1x1000xf32>) {
    ^bb0(%in: f32 loc(fused[#loc1, #loc581]), %in_29: f32 loc(fused[#loc1, #loc581]), %out: f32 loc(fused[#loc1, #loc581])):
      %2011 = arith.divf %in, %in_29 : f32 loc(#loc1132)
      linalg.yield %2011 : f32 loc(#loc1132)
    } -> tensor<1x1000xf32> loc(#loc1132)
    return %2010 : tensor<1x1000xf32> loc(#loc)
  } loc(#loc)
} loc(#loc)
#loc19 = loc("MaxPool:")
#loc38 = loc("resnet50/conv1_conv/Conv2D/ReadVariableOp@__inference_forward_5013"(#loc2))
#loc43 = loc("resnet50/pool1_pool/MaxPool@__inference_forward_5013"(#loc2))
#loc49 = loc("resnet50/conv2_block1_0_conv/Conv2D/ReadVariableOp@__inference_forward_5013"(#loc2))
#loc58 = loc("resnet50/conv2_block1_1_conv/Conv2D/ReadVariableOp@__inference_forward_5013"(#loc2))
#loc68 = loc("resnet50/conv2_block1_2_conv/Conv2D/ReadVariableOp@__inference_forward_5013"(#loc2))
#loc78 = loc("resnet50/conv2_block1_3_conv/Conv2D/ReadVariableOp@__inference_forward_5013"(#loc2))
#loc89 = loc("resnet50/conv2_block2_1_conv/Conv2D/ReadVariableOp@__inference_forward_5013"(#loc2))
#loc99 = loc("resnet50/conv2_block2_2_conv/Conv2D/ReadVariableOp@__inference_forward_5013"(#loc2))
#loc109 = loc("resnet50/conv2_block2_3_conv/Conv2D/ReadVariableOp@__inference_forward_5013"(#loc2))
#loc120 = loc("resnet50/conv2_block3_1_conv/Conv2D/ReadVariableOp@__inference_forward_5013"(#loc2))
#loc130 = loc("resnet50/conv2_block3_2_conv/Conv2D/ReadVariableOp@__inference_forward_5013"(#loc2))
#loc139 = loc("resnet50/conv2_block3_3_conv/Conv2D/ReadVariableOp@__inference_forward_5013"(#loc2))
#loc150 = loc("resnet50/conv3_block1_0_conv/Conv2D/ReadVariableOp@__inference_forward_5013"(#loc2))
#loc159 = loc("resnet50/conv3_block1_1_conv/Conv2D/ReadVariableOp@__inference_forward_5013"(#loc2))
#loc169 = loc("resnet50/conv3_block1_2_conv/Conv2D/ReadVariableOp@__inference_forward_5013"(#loc2))
#loc179 = loc("resnet50/conv3_block1_3_conv/Conv2D/ReadVariableOp@__inference_forward_5013"(#loc2))
#loc190 = loc("resnet50/conv3_block2_1_conv/Conv2D/ReadVariableOp@__inference_forward_5013"(#loc2))
#loc200 = loc("resnet50/conv3_block2_2_conv/Conv2D/ReadVariableOp@__inference_forward_5013"(#loc2))
#loc210 = loc("resnet50/conv3_block2_3_conv/Conv2D/ReadVariableOp@__inference_forward_5013"(#loc2))
#loc221 = loc("resnet50/conv3_block3_1_conv/Conv2D/ReadVariableOp@__inference_forward_5013"(#loc2))
#loc231 = loc("resnet50/conv3_block3_2_conv/Conv2D/ReadVariableOp@__inference_forward_5013"(#loc2))
#loc241 = loc("resnet50/conv3_block3_3_conv/Conv2D/ReadVariableOp@__inference_forward_5013"(#loc2))
#loc252 = loc("resnet50/conv3_block4_1_conv/Conv2D/ReadVariableOp@__inference_forward_5013"(#loc2))
#loc262 = loc("resnet50/conv3_block4_2_conv/Conv2D/ReadVariableOp@__inference_forward_5013"(#loc2))
#loc271 = loc("resnet50/conv3_block4_3_conv/Conv2D/ReadVariableOp@__inference_forward_5013"(#loc2))
#loc282 = loc("resnet50/conv4_block1_0_conv/Conv2D/ReadVariableOp@__inference_forward_5013"(#loc2))
#loc291 = loc("resnet50/conv4_block1_1_conv/Conv2D/ReadVariableOp@__inference_forward_5013"(#loc2))
#loc301 = loc("resnet50/conv4_block1_2_conv/Conv2D/ReadVariableOp@__inference_forward_5013"(#loc2))
#loc311 = loc("resnet50/conv4_block1_3_conv/Conv2D/ReadVariableOp@__inference_forward_5013"(#loc2))
#loc322 = loc("resnet50/conv4_block2_1_conv/Conv2D/ReadVariableOp@__inference_forward_5013"(#loc2))
#loc332 = loc("resnet50/conv4_block2_2_conv/Conv2D/ReadVariableOp@__inference_forward_5013"(#loc2))
#loc342 = loc("resnet50/conv4_block2_3_conv/Conv2D/ReadVariableOp@__inference_forward_5013"(#loc2))
#loc353 = loc("resnet50/conv4_block3_1_conv/Conv2D/ReadVariableOp@__inference_forward_5013"(#loc2))
#loc363 = loc("resnet50/conv4_block3_2_conv/Conv2D/ReadVariableOp@__inference_forward_5013"(#loc2))
#loc373 = loc("resnet50/conv4_block3_3_conv/Conv2D/ReadVariableOp@__inference_forward_5013"(#loc2))
#loc384 = loc("resnet50/conv4_block4_1_conv/Conv2D/ReadVariableOp@__inference_forward_5013"(#loc2))
#loc394 = loc("resnet50/conv4_block4_2_conv/Conv2D/ReadVariableOp@__inference_forward_5013"(#loc2))
#loc404 = loc("resnet50/conv4_block4_3_conv/Conv2D/ReadVariableOp@__inference_forward_5013"(#loc2))
#loc415 = loc("resnet50/conv4_block5_1_conv/Conv2D/ReadVariableOp@__inference_forward_5013"(#loc2))
#loc425 = loc("resnet50/conv4_block5_2_conv/Conv2D/ReadVariableOp@__inference_forward_5013"(#loc2))
#loc435 = loc("resnet50/conv4_block5_3_conv/Conv2D/ReadVariableOp@__inference_forward_5013"(#loc2))
#loc446 = loc("resnet50/conv4_block6_1_conv/Conv2D/ReadVariableOp@__inference_forward_5013"(#loc2))
#loc456 = loc("resnet50/conv4_block6_2_conv/Conv2D/ReadVariableOp@__inference_forward_5013"(#loc2))
#loc465 = loc("resnet50/conv4_block6_3_conv/Conv2D/ReadVariableOp@__inference_forward_5013"(#loc2))
#loc475 = loc("resnet50/conv5_block1_0_conv/Conv2D/ReadVariableOp@__inference_forward_5013"(#loc2))
#loc484 = loc("resnet50/conv5_block1_1_conv/Conv2D/ReadVariableOp@__inference_forward_5013"(#loc2))
#loc494 = loc("resnet50/conv5_block1_2_conv/Conv2D/ReadVariableOp@__inference_forward_5013"(#loc2))
#loc504 = loc("resnet50/conv5_block1_3_conv/Conv2D/ReadVariableOp@__inference_forward_5013"(#loc2))
#loc515 = loc("resnet50/conv5_block2_1_conv/Conv2D/ReadVariableOp@__inference_forward_5013"(#loc2))
#loc525 = loc("resnet50/conv5_block2_2_conv/Conv2D/ReadVariableOp@__inference_forward_5013"(#loc2))
#loc535 = loc("resnet50/conv5_block2_3_conv/Conv2D/ReadVariableOp@__inference_forward_5013"(#loc2))
#loc546 = loc("resnet50/conv5_block3_1_conv/Conv2D/ReadVariableOp@__inference_forward_5013"(#loc2))
#loc556 = loc("resnet50/conv5_block3_2_conv/Conv2D/ReadVariableOp@__inference_forward_5013"(#loc2))
#loc565 = loc("resnet50/conv5_block3_3_conv/Conv2D/ReadVariableOp@__inference_forward_5013"(#loc2))
#loc570 = loc("resnet50/predictions/BiasAdd/ReadVariableOp@__inference_forward_5013"(#loc2))
#loc571 = loc("resnet50/predictions/MatMul/ReadVariableOp@__inference_forward_5013"(#loc2))
#loc596 = loc(callsite(#loc38 at #loc580))
#loc601 = loc(callsite(#loc43 at #loc580))
#loc607 = loc(callsite(#loc49 at #loc580))
#loc616 = loc(callsite(#loc58 at #loc580))
#loc626 = loc(callsite(#loc68 at #loc580))
#loc636 = loc(callsite(#loc78 at #loc580))
#loc647 = loc(callsite(#loc89 at #loc580))
#loc657 = loc(callsite(#loc99 at #loc580))
#loc667 = loc(callsite(#loc109 at #loc580))
#loc678 = loc(callsite(#loc120 at #loc580))
#loc688 = loc(callsite(#loc130 at #loc580))
#loc697 = loc(callsite(#loc139 at #loc580))
#loc708 = loc(callsite(#loc150 at #loc580))
#loc717 = loc(callsite(#loc159 at #loc580))
#loc727 = loc(callsite(#loc169 at #loc580))
#loc737 = loc(callsite(#loc179 at #loc580))
#loc748 = loc(callsite(#loc190 at #loc580))
#loc758 = loc(callsite(#loc200 at #loc580))
#loc768 = loc(callsite(#loc210 at #loc580))
#loc779 = loc(callsite(#loc221 at #loc580))
#loc789 = loc(callsite(#loc231 at #loc580))
#loc799 = loc(callsite(#loc241 at #loc580))
#loc810 = loc(callsite(#loc252 at #loc580))
#loc820 = loc(callsite(#loc262 at #loc580))
#loc829 = loc(callsite(#loc271 at #loc580))
#loc840 = loc(callsite(#loc282 at #loc580))
#loc849 = loc(callsite(#loc291 at #loc580))
#loc859 = loc(callsite(#loc301 at #loc580))
#loc869 = loc(callsite(#loc311 at #loc580))
#loc880 = loc(callsite(#loc322 at #loc580))
#loc890 = loc(callsite(#loc332 at #loc580))
#loc900 = loc(callsite(#loc342 at #loc580))
#loc911 = loc(callsite(#loc353 at #loc580))
#loc921 = loc(callsite(#loc363 at #loc580))
#loc931 = loc(callsite(#loc373 at #loc580))
#loc942 = loc(callsite(#loc384 at #loc580))
#loc952 = loc(callsite(#loc394 at #loc580))
#loc962 = loc(callsite(#loc404 at #loc580))
#loc973 = loc(callsite(#loc415 at #loc580))
#loc983 = loc(callsite(#loc425 at #loc580))
#loc993 = loc(callsite(#loc435 at #loc580))
#loc1004 = loc(callsite(#loc446 at #loc580))
#loc1014 = loc(callsite(#loc456 at #loc580))
#loc1023 = loc(callsite(#loc465 at #loc580))
#loc1033 = loc(callsite(#loc475 at #loc580))
#loc1042 = loc(callsite(#loc484 at #loc580))
#loc1052 = loc(callsite(#loc494 at #loc580))
#loc1062 = loc(callsite(#loc504 at #loc580))
#loc1073 = loc(callsite(#loc515 at #loc580))
#loc1083 = loc(callsite(#loc525 at #loc580))
#loc1093 = loc(callsite(#loc535 at #loc580))
#loc1104 = loc(callsite(#loc546 at #loc580))
#loc1114 = loc(callsite(#loc556 at #loc580))
#loc1123 = loc(callsite(#loc565 at #loc580))
#loc1128 = loc(callsite(#loc570 at #loc580))
#loc1129 = loc(callsite(#loc571 at #loc580))
#loc1147 = loc(fused[#loc15, #loc596])
#loc1152 = loc(fused[#loc19, #loc601])
#loc1158 = loc(fused[#loc15, #loc607])
#loc1167 = loc(fused[#loc15, #loc616])
#loc1177 = loc(fused[#loc15, #loc626])
#loc1187 = loc(fused[#loc15, #loc636])
#loc1198 = loc(fused[#loc15, #loc647])
#loc1208 = loc(fused[#loc15, #loc657])
#loc1218 = loc(fused[#loc15, #loc667])
#loc1229 = loc(fused[#loc15, #loc678])
#loc1239 = loc(fused[#loc15, #loc688])
#loc1248 = loc(fused[#loc15, #loc697])
#loc1259 = loc(fused[#loc15, #loc708])
#loc1268 = loc(fused[#loc15, #loc717])
#loc1278 = loc(fused[#loc15, #loc727])
#loc1288 = loc(fused[#loc15, #loc737])
#loc1299 = loc(fused[#loc15, #loc748])
#loc1309 = loc(fused[#loc15, #loc758])
#loc1319 = loc(fused[#loc15, #loc768])
#loc1330 = loc(fused[#loc15, #loc779])
#loc1340 = loc(fused[#loc15, #loc789])
#loc1350 = loc(fused[#loc15, #loc799])
#loc1361 = loc(fused[#loc15, #loc810])
#loc1371 = loc(fused[#loc15, #loc820])
#loc1380 = loc(fused[#loc15, #loc829])
#loc1391 = loc(fused[#loc15, #loc840])
#loc1400 = loc(fused[#loc15, #loc849])
#loc1410 = loc(fused[#loc15, #loc859])
#loc1420 = loc(fused[#loc15, #loc869])
#loc1431 = loc(fused[#loc15, #loc880])
#loc1441 = loc(fused[#loc15, #loc890])
#loc1451 = loc(fused[#loc15, #loc900])
#loc1462 = loc(fused[#loc15, #loc911])
#loc1472 = loc(fused[#loc15, #loc921])
#loc1482 = loc(fused[#loc15, #loc931])
#loc1493 = loc(fused[#loc15, #loc942])
#loc1503 = loc(fused[#loc15, #loc952])
#loc1513 = loc(fused[#loc15, #loc962])
#loc1524 = loc(fused[#loc15, #loc973])
#loc1534 = loc(fused[#loc15, #loc983])
#loc1544 = loc(fused[#loc15, #loc993])
#loc1555 = loc(fused[#loc15, #loc1004])
#loc1565 = loc(fused[#loc15, #loc1014])
#loc1574 = loc(fused[#loc15, #loc1023])
#loc1584 = loc(fused[#loc15, #loc1033])
#loc1593 = loc(fused[#loc15, #loc1042])
#loc1603 = loc(fused[#loc15, #loc1052])
#loc1613 = loc(fused[#loc15, #loc1062])
#loc1624 = loc(fused[#loc15, #loc1073])
#loc1634 = loc(fused[#loc15, #loc1083])
#loc1644 = loc(fused[#loc15, #loc1093])
#loc1655 = loc(fused[#loc15, #loc1104])
#loc1665 = loc(fused[#loc15, #loc1114])
#loc1674 = loc(fused[#loc15, #loc1123])
#loc1679 = loc(fused[#loc15, #loc1128])
#loc1680 = loc(fused[#loc15, #loc1129])


